sac/model/sac_discrete_lunar_lander_2023-05-04_00-09-09.pth (torch, 828335 bytes, 16 tensors)

fc1.weight f4 [256, 8]
0	0x3ebdb34d	0.37050858
1	0xbee79370	-0.45229673
2	0xbe22c50b	-0.15895478
3	0x3e5c710c	0.21527499
4	0xbf847a1b	-1.0349764
5	0x3f060d5c	0.52364135
6	0x3f4ba32d	0.7954586
7	0xbd9c3148	-0.07626587
8	0xbcb056c4	-0.021525748
9	0xbbbbc73b	-0.005730537
10	0xbe49f92a	-0.19723955
11	0x3c9fc263	0.01950187
12	0x3fcf1f3e	1.6181409
13	0xbf8b9980	-1.090622
14	0xbe8c75c9	-0.27433613
15	0xbecb1c57	-0.3967006
16	0x3e7b31d8	0.24530733
17	0x3e8fc4d4	0.28079855
18	0x3f593617	0.8484816
19	0xbeb6b8fc	-0.35688007
20	0xbf4d3319	-0.80156094
21	0x3b93d96b	0.004512002
22	0xbe68b7f8	-0.22726429
23	0xbb89e88a	-0.004208629
24	0xbee45009	-0.44592312
25	0x3c49c5c8	0.012315221
26	0xbe25bb95	-0.16184838
27	0xbd373832	-0.044731326
28	0x4008763e	2.132217
29	0x3f1e49a7	0.61831135
30	0x3f3e93fa	0.74444544
31	0x3e8346f7	0.2564008
32	0x3ee57a91	0.44820073
33	0xbe9443ee	-0.28958076
34	0xbe8541b7	-0.260267
35	0x3cd492f3	0.025948977
36	0x3ec6e948	0.38849854
37	0x3f56c286	0.8389057
38	0xbee15cad	-0.44016019
39	0x3f0b8936	0.5450624
40	0xbeff61f1	-0.4987941
41	0x3eddc2b8	0.4331262
42	0xbc80f461	-0.015741529
43	0x3ea6e7b0	0.3259864
44	0xbeb7a79d	-0.35870066
45	0xbe22c54b	-0.15895574
46	0xbf9e5ffb	-1.2373041
47	0xbe484172	-0.19556215
48	0x3e33e73a	0.17568675
49	0xbe9e5560	-0.3092451
50	0x3e255b85	0.16148193
51	0x3f09a3ac	0.5376537
52	0xbf2b2b0f	-0.6686258
53	0xbb4052ff	-0.0029346345
54	0x3d111520	0.035420537
55	0x3e0c7517	0.13716541
56	0x3f121cbe	0.5707511
57	0x3d9e1988	0.077197134
58	0x3ef81028	0.48449826
59	0xbe5ebc4b	-0.21751516
60	0xbf6ae16d	-0.9175022
61	0x3ebf46f1	0.37358811
62	0xbf37e74b	-0.718373
63	0x3e063b93	0.13108663
64	0xbe836a47	-0.2566702
65	0xbef82530	-0.48465872
66	0x3e8aa260	0.27077007
67	0xbf8a2e4c	-1.0795379
68	0xbea58d44	-0.3233434
69	0xbe67e30d	-0.22645207
70	0x3c539dbb	0.012916024
71	0x3f333388	0.70000505
72	0x3ecec42d	0.40384045
73	0x3ef6472c	0.48101175
74	0x3e57e2c2	0.21082595
75	0xbdc70aa2	-0.09718825
76	0xbdaa26fb	-0.08308216
77	0xbf01cd43	-0.5070383
78	0x3d046d86	0.032331012
79	0x3f0d733e	0.5525397
80	0xbf40836b	-0.7520053
81	0xbeab0bc4	-0.33407414
82	0xbf67aee9	-0.90501267
83	0x3d914201	0.07092667
84	0x3ed36a2c	0.4129194
85	0x3eefdd19	0.46848372
86	0xbedaca4f	-0.42732474
87	0xbf20e066	-0.62842405
88	0x3eb25d68	0.34836888
89	0x3ea9e6ae	0.33183807
90	0x3f112160	0.5669155
91	0x3e63d56d	0.22249384
92	0x3e8934ab	0.26797995
93	0x3e3f60ae	0.18689224
94	0x3ee324ca	0.44364005
95	0xbefa68ed	-0.48908177
96	0xbf0189a6	-0.5060066
97	0xbf10932f	-0.56474584
98	0xbef06dd3	-0.4695879
99	0x3e70bfab	0.23510616
100	0x3f6f363f	0.9344215
101	0x3eb2e552	0.34940583
102	0xbe2e446d	-0.1701829
103	0xbd821be0	-0.06352973
104	0xbec07af0	-0.37593794
105	0x3d5d9fcf	0.054107483
106	0x3ef69a4c	0.48164594
107	0xbda31f63	-0.07964971
108	0xbf48a181	-0.78371435
109	0x3dd4b031	0.10385168
110	0x3e6d5112	0.23175457
111	0x3e4c81bb	0.19971363
112	0x3ecf8ed5	0.4053866
113	0x3f1c2599	0.6099487
114	0x3eb024bd	0.3440303
115	0xbe3eea61	-0.18644096
116	0xbdfa8f57	-0.12234371
117	0x3f43e4b2	0.76520836
118	0xbee02a6b	-0.43782362
119	0x3f64675d	0.8922022
120	0xbee3204c	-0.44360578
121	0x3eebb4fc	0.46036518
122	0xbddee637	-0.10883754
123	0x3f2b09ff	0.6681213
124	0x3e3a46c2	0.18191054
125	0xbd326e8a	-0.04356245
126	0x3cba0e80	0.022711992
127	0x3ef2a3e6	0.4739067
128	0xbea9ab81	-0.3313866
129	0x3db56c0e	0.088585004
130	0xbf216238	-0.63040495
131	0x3d85bacf	0.065297715
132	0x3f6f4ac3	0.9347345
133	0x3e7f82ee	0.2495229
134	0xbdb91f0a	-0.09039123
135	0xbe2bac99	-0.1676506
136	0xbe8862c3	-0.2663785
137	0x3e0d88f4	0.13821775
138	0x3e942418	0.28933787
139	0x3f462f01	0.7741547
140	0x3d508a0d	0.050912905
141	0x3f03eae6	0.515303
142	0x3e34e725	0.176663
143	0xbf05d95d	-0.52284795
144	0xbcae2a40	-0.02126038
145	0x3c13344c	0.0089846365
146	0x3e9117f7	0.28338596
147	0x3c6488a0	0.01394859
148	0xbeb33808	-0.35003686
149	0x3fb09b28	1.379735
150	0xbdeb7e89	-0.11498744
151	0x3e60e1e3	0.21961169
152	0x3f9b0833	1.2111877
153	0xbf3c5d1d	-0.7357958
154	0x3f7e3072	0.9929267
155	0xbf55143d	-0.83234006
156	0xbea77c05	-0.32711807
157	0xbf4eb79d	-0.8074892
158	0x3e6fceff	0.23418806
159	0x3e95b4fe	0.2923965
160	0x3eb9e73b	0.36309227
161	0x3e960c9d	0.29306498
162	0x3e4a883a	0.19778529
163	0xbebaf8e6	-0.3651802
164	0xbe3d55bc	-0.18489736
165	0x3eb1190f	0.3458943
166	0xbffe86c4	-1.9884877
167	0xbef5f496	-0.48038167
168	0xbe8772b4	-0.264547
169	0x3ea31dc8	0.3185866
170	0xbe528d6b	-0.20561759
171	0x3ec73cd8	0.38913608
172	0xbf5336da	-0.8250557
173	0xbec9c49e	-0.3940782
174	0xbf310d58	-0.69160986
175	0xbe0a5826	-0.13510188
176	0xbf37d4b8	-0.7180896
177	0x3c1475aa	0.009061256
178	0x3cc9d0e8	0.024635747
179	0xbd62041a	-0.055179693
180	0xbf522b79	-0.82097584
181	0x3f0c512b	0.5481135
182	0x3dfc5fb1	0.12322939
183	0x3ecfab3d	0.40560332
184	0x3f099bd3	0.53753394
185	0x3f012647	0.5044903
186	0xbda89ed1	-0.08233417
187	0x3dd0b8d1	0.10191501
188	0xbea0d4b7	-0.3141229
189	0x3e8a815d	0.2705182
190	0xbe09a4b9	-0.13441743
191	0x3e96f498	0.29483485
192	0x3d1972a4	0.037462845
193	0xbda9926e	-0.08279882
194	0x3f9ce600	1.225769
195	0x3eff165a	0.4982174
196	0xbe8b8b6b	-0.27254805
197	0xbeb290c4	-0.34876072
198	0xbee74925	-0.45172992
199	0xbf2934a3	-0.6609594
200	0xbd649e7a	-0.055815198
201	0x3f3f87bb	0.74816483
202	0x3d854142	0.065065876
203	0xbe8427c2	-0.25811583
204	0x3c8851dd	0.016640598
205	0x3d2dfc54	0.042476967
206	0x3e6e4322	0.23267797
207	0x3ec139c4	0.37739384
208	0x3f338fa1	0.70141035
209	0x3d5b77bc	0.053580984
210	0x3f066247	0.5249371
211	0x3e71e0dc	0.23620933
212	0xbf0b1d8d	-0.54341966
213	0xbecfd236	-0.40590066
214	0xbf411bf9	-0.7543331
215	0xbf1cf766	-0.61315
216	0x3f0f4cf5	0.559768
217	0x3f70af17	0.94017166
218	0x3ecba303	0.39772806
219	0xbe982d76	-0.29722184
220	0xbe13d56f	-0.14436887
221	0x3e8b6621	0.27226356
222	0xbfab94e7	-1.3404816
223	0x3e403521	0.18770267
224	0xbe634de7	-0.22197686
225	0xbe98277e	-0.2971763
226	0x3ec6e16a	0.38843852
227	0x3ec0d8e9	0.3766549
228	0x3e7fcf02	0.24981311
229	0x3dee1242	0.11624576
230	0xbdd2b1c3	-0.102878116
231	0x3ee25217	0.44203255
232	0x3e5a4920	0.21316957
233	0x3e3d9b60	0.18516302
234	0x3d1e3184	0.03862144
235	0xbeb7d437	-0.35904095
236	0xbe004dcd	-0.12529679
237	0x3f151965	0.58241874
238	0xbe2ec1e7	-0.17066155
239	0x3f20e734	0.6285279
240	0x3e42090e	0.18948767
241	0x3e986526	0.2976467
242	0xbeac8851	-0.3369775
243	0xbe3227f4	-0.17398053
244	0x3ec757c7	0.38934156
245	0x3f6ec4c6	0.93269
246	0xbfb70cd7	-1.4300793
247	0xbefb35d2	-0.490645
248	0xbf457bcc	-0.77142024
249	0x3b0beaa4	0.0021349574
250	0xbf5dd6c1	-0.86655813
251	0xbe1da5cd	-0.15395279
252	0xbe31cc6a	-0.17363134
253	0xbd9278c3	-0.0715194
254	0xbf8f836e	-1.1211984
255	0x3e6da62d	0.23207922

fc1.bias f4 [256]
0	0x3f33e2bb	0.7026784
1	0x3ba4c784	0.005028667
2	0x3d439a4e	0.04775458
3	0xbdeb1768	-0.11479074
4	0x3e122707	0.142727
5	0xbcf29433	-0.029611683
6	0xbb556180	-0.0032559335
7	0xbb95e37f	-0.004574239
8	0x3d51904e	0.05116301
9	0x3ef53787	0.47893927
10	0x3f0b5e89	0.54441124
11	0x3ea7f791	0.32806066
12	0x3ec5f892	0.38666207
13	0x3e8e316e	0.27772087
14	0x3dd8b807	0.105819754
15	0x3f25e8c8	0.6480832
16	0xbf285a31	-0.6576262
17	0x3ec375df	0.38175866
18	0xbc3e0af5	-0.011599292
19	0x3e6bd286	0.23029527
20	0x3f22bbfd	0.635681
21	0xbea48cc3	-0.32138643
22	0x3e5b9990	0.21445298
23	0xbf10a5af	-0.56502813
24	0x3dd22158	0.10260266
25	0x3f4dbd0c	0.8036659
26	0xbd5a74e5	-0.053334136
27	0x3e85e02e	0.26147598
28	0x3e339391	0.17536761
29	0x3e687cd2	0.22703865
30	0xbdc71a2d	-0.097217895
31	0xbe679580	-0.22615623
32	0x3ee940b9	0.45557192
33	0xbdf2c2a4	-0.11853531
34	0x3c31f9fe	0.010862825
35	0x3e8d8fb8	0.2764871
36	0xbdaf509e	-0.085602984
37	0x3ecfd13b	0.40589318
38	0x3f67676b	0.9039218
39	0x3ed02a68	0.40657353
40	0xbde19a61	-0.110157736
41	0x3f25045d	0.6445978
42	0x3e90cb95	0.2828032
43	0x3f5ee8c0	0.870739
44	0x3f7ef51e	0.9959277
45	0xbe89429c	-0.2680863
46	0xbdf59817	-0.119918995
47	0x3e5b087f	0.2138996
48	0xbe84bbbc	-0.2592448
49	0xbeb395b0	-0.3507514
50	0x3e8313c2	0.25601012
51	0x3f38d380	0.72197723
52	0xbdfa391e	-0.122179255
53	0xbeb651e7	-0.35609362
54	0x3eefb600	0.46818542
55	0x3f34dc77	0.706489
56	0xba18e24e	-0.0005832062
57	0xbd683140	-0.056687593
58	0xbe7b91cd	-0.24567337
59	0x3f21d76f	0.6321935
60	0x3ea2f87c	0.31830204
61	0xbe98e4dd	-0.2986211
62	0x3e7e53d9	0.24836673
63	0xbe23a245	-0.1597987
64	0xbda3e466	-0.08002548
65	0xbeaaf307	-0.3338854
66	0xbd8a55b4	-0.06754628
67	0x3eabe5a8	0.3357365
68	0xbad49666	-0.0016219139
69	0xbed11690	-0.40837526
70	0x3ebcd89c	0.3688401
71	0x3dc8d647	0.09806495
72	0x3e593eff	0.21215437
73	0x3c350365	0.011048173
74	0x3e34fd83	0.17674832
75	0xbd2a6142	-0.04159666
76	0x3ea3929f	0.319478
77	0xbe613b73	-0.21995334
78	0xbc4e25a8	-0.01258222
79	0x3f23c664	0.63974595
80	0xbd9980eb	-0.07495292
81	0x3f5463e0	0.829649
82	0x3f13d954	0.5775349
83	0xbee5a3b0	-0.44851446
84	0x3f2962b2	0.6616622
85	0x3c402546	0.011727637
86	0xbea85436	-0.32876748
87	0x3f0659bc	0.52480674
88	0x3ebfdd9d	0.37473765
89	0xbea1014e	-0.31446308
90	0x3e8e3830	0.27777243
91	0x3f0d6225	0.5522788
92	0x3ec0d805	0.3766481
93	0xbd2f2dcf	-0.042768296
94	0xbd3cac9e	-0.046063058
95	0x3e93285c	0.2874173
96	0x3ee491ff	0.44642636
97	0x3ebdff1a	0.3710869
98	0x3ecb9655	0.39763132
99	0x3f51bae8	0.8192582
100	0x3e8273a7	0.2547886
101	0x3eeaa84a	0.4583152
102	0x3f19c252	0.60062134
103	0xbe882156	-0.26587933
104	0x3efe09e7	0.4961693
105	0xbe97d800	-0.29656982
106	0x3eddf0c0	0.4334774
107	0x3f1a65cf	0.603116
108	0x3e20199e	0.15634772
109	0x3d9329c4	0.071857005
110	0x3ed1ca7c	0.40974796
111	0x3f57f6d1	0.84360987
112	0xbdf24fe5	-0.11831645
113	0x3d4fed33	0.05076332
114	0x3f028e9c	0.50998855
115	0x3e3d1569	0.18465199
116	0x3ed1f545	0.41007438
117	0xbc9a1951	-0.0188109
118	0xbd79106a	-0.06080667
119	0x3e25b3e5	0.16181906
120	0x3ef319f9	0.47480753
121	0x3f1184f1	0.5684348
122	0x3e6a08fe	0.22854993
123	0x3dfebe45	0.12438635
124	0xbed72ca8	-0.42026258
125	0x3e56258a	0.20912758
126	0x3e836bae	0.2566809
127	0x3df2a7a5	0.11848382
128	0x3f08d32c	0.5344722
129	0x3f43678f	0.7632989
130	0x3e7abdf0	0.24486518
131	0xbe09b1cf	-0.13446735
132	0x3ef3bd7d	0.47605506
133	0x3e83ecfd	0.25766745
134	0xbe795065	-0.24347074
135	0x3e523f9b	0.20532076
136	0xbe342aa9	-0.17594399
137	0xbd24ccdf	-0.040234443
138	0x3f2c4a8e	0.6730126
139	0xbdc83946	-0.09776549
140	0x3f793913	0.97352713
141	0xbef4f1a3	-0.47840604
142	0x3f35c63b	0.710056
143	0x3e4d9b78	0.20078838
144	0x3f446a7a	0.7672497
145	0x3e52509c	0.20538563
146	0x3f040f00	0.5158539
147	0xbe6dd14d	-0.23224373
148	0xbd61e21a	-0.055147268
149	0x3ec55f63	0.38549337
150	0xbe4c3742	-0.19942954
151	0x3ec37714	0.38176787
152	0x3e14de2c	0.14537877
153	0xbe16a59b	-0.14711611
154	0x3eea6790	0.45782137
155	0xbcb50baa	-0.022100288
156	0x3f112a44	0.5670512
157	0xbe345f19	-0.17614402
158	0xbed1c2c4	-0.40968907
159	0x3ee6249d	0.4494981
160	0x3f0560bd	0.52100736
161	0x3f1bdcb4	0.6088364
162	0x3f83c6ad	1.0295006
163	0xbe1c5a4c	-0.1526882
164	0xbde32d95	-0.110926785
165	0x3e0ede5a	0.13952008
166	0xbe357444	-0.17720133
167	0x3edde1c8	0.4333632
168	0x3eb50099	0.35352018
169	0xbe1f71d8	-0.15570772
170	0x3d8535a2	0.0650437
171	0x3f80f735	1.0075442
172	0x3c04a2e9	0.008095481
173	0x3f04de94	0.5190213
174	0x3ede7485	0.43448272
175	0x3d554c87	0.052074935
176	0x3f4a7e1c	0.7909868
177	0xbe09c093	-0.13452367
178	0xbe100577	-0.14064585
179	0x3f2cb3cd	0.67461854
180	0x3e510935	0.20413668
181	0x3e3b0abc	0.18265814
182	0x3f03bc0e	0.51458824
183	0x3d6e6b3a	0.058207728
184	0xbef81faa	-0.48461658
185	0x3e514eb1	0.20440175
186	0x3f5c1fe3	0.85986155
187	0x3e5fa8ff	0.2184181
188	0x3dd397b0	0.103316665
189	0xbde546b9	-0.1119513
190	0x3e55429d	0.20826192
191	0x3ea97dcb	0.33103785
192	0xbd3aa637	-0.04556867
193	0xbecd7bf4	-0.4013363
194	0xbebad120	-0.36487675
195	0x3e02dfd0	0.1278069
196	0x3e857e4e	0.26072925
197	0x3f14cd45	0.58125716
198	0xbe627d27	-0.22118054
199	0xbda29657	-0.07938831
200	0x3efb017e	0.49024576
201	0xbe17306f	-0.1476457
202	0xbea4fb4a	-0.32222968
203	0x3e1face8	0.15593302
204	0x3c3bb7b4	0.011457372
205	0xbbd4d98e	-0.006495661
206	0x3e8122a5	0.25221744
207	0x3ea51c77	0.3224828
208	0x3df0e634	0.11762658
209	0x3bdca79a	0.006733847
210	0x3e1e4d27	0.15459119
211	0x3f3ff11a	0.74977267
212	0x3f588b6e	0.8458775
213	0x3c92e35b	0.017930677
214	0xbf4d9911	-0.80311686
215	0xbc466e5e	-0.0121112745
216	0x3f43d099	0.7649017
217	0xbe703dce	-0.23461077
218	0x3ebf0044	0.3730489
219	0x3cf1a58f	0.02949789
220	0xbd65c68e	-0.05609756
221	0x3e95991f	0.29218385
222	0x3e5377cb	0.20651166
223	0xbebab10f	-0.3646321
224	0x3f334e5e	0.70041454
225	0xbd249617	-0.0401822
226	0x3e1b3082	0.15155223
227	0x3ea1477d	0.31499854
228	0x3f145810	0.5794687
229	0xbdc7e54d	-0.097605325
230	0xbea1eed7	-0.31627533
231	0x3eb510e2	0.35364443
232	0xbc1a6643	-0.009423795
233	0xbeb5100c	-0.35363805
234	0x3e7d7fe5	0.24755819
235	0xbe894579	-0.26810816
236	0x3cda6206	0.02665807
237	0x3ddc02f6	0.10742752
238	0xbf0ef385	-0.5584033
239	0x3ea5d453	0.32388553
240	0x3eb72047	0.35766813
241	0x3e1f935e	0.1558356
242	0xbe82dc34	-0.25558627
243	0x3e8a5436	0.27017373
244	0x3eb768bf	0.35822102
245	0xbd5db4d7	-0.05412754
246	0x3eb10a7e	0.34578317
247	0x3f2e212a	0.68019354
248	0x3ea5361c	0.32267845
249	0x3ea94b84	0.33065426
250	0x3e151b27	0.14561139
251	0x3da43bde	0.08019231
252	0xbdcf495c	-0.10121414
253	0x3f5a8a19	0.8536697
254	0xbe1faf49	-0.1559421
255	0x3ea503c9	0.3222945

fc2.weight f4 [256, 256]
0	0x3ba74cb3	0.005105579
1	0x3c285c9a	0.010275984
2	0xbd238859	-0.039924953
3	0x3cb28c34	0.02179537
4	0x3ce8ad85	0.028403053
5	0xbd414167	-0.047181513
6	0x3caf2a8c	0.021382593
7	0x3ccb48bc	0.024814956
8	0xbd4b02cb	-0.04956321
9	0x3d319698	0.043356508
10	0x3cb20308	0.021729961
11	0xbd2e762a	-0.04259316
12	0x3cf3dd93	0.02976874
13	0xbd8d8f9f	-0.06912159
14	0x3bc278d9	0.0059348163
15	0x3d0d0b91	0.03443486
16	0xbd3bc395	-0.04584082
17	0xbd5e2554	-0.054234818
18	0xbd11c25a	-0.03558574
19	0xbcb00f5f	-0.021491705
20	0xbcd32029	-0.025772171
21	0x3d25f6c1	0.040518526
22	0x3c80aa74	0.015706278
23	0x3c0469a1	0.0080818245
24	0xbd3080a0	-0.043091416
25	0x3c11cdf2	0.008899199
26	0xbca8adf6	-0.020590764
27	0xbb0c4c50	-0.002140779
28	0x3d683bd4	0.05669768
29	0xbd4f0fa0	-0.05055201
30	0xbd4a14bc	-0.04933618
31	0x3c1e10f0	0.009647593
32	0xbd37b7b0	-0.044852912
33	0xbccb8544	-0.02484382
34	0xbd2d4d01	-0.042309765
35	0xbd0674dc	-0.03282629
36	0x3cbbf375	0.022943238
37	0xbd63f0e8	-0.055649668
38	0xbbd45b41	-0.006480605
39	0x3b6c69db	0.0036073837
40	0xbc1edcba	-0.00969618
41	0x3d321eaa	0.043486275
42	0xbc3f89bd	-0.011690554
43	0xbd468645	-0.048467893
44	0xbd057b31	-0.032588188
45	0x3d69fe40	0.057127237
46	0xbd85eebf	-0.06539678
47	0xbc732785	-0.014840965
48	0xbae9bd08	-0.0017832825
49	0x3d7ed2d4	0.06221278
50	0x3cef5e88	0.02921988
51	0x3d49b6bb	0.04924653
52	0x3cfb8423	0.030702656
53	0xbbf101e0	-0.00735496
54	0x3d696118	0.05697736
55	0xbd8c37cb	-0.06846579
56	0xbc81eec5	-0.015860924
57	0xbcfed938	-0.031109437
58	0xbcf2a18f	-0.029618053
59	0xbcc8d4c8	-0.024515525
60	0xbd0b2701	-0.033972744
61	0xbc9d5fec	-0.019210778
62	0xbd122e64	-0.035688773
63	0xbcf1ea89	-0.02953078
64	0x3d9872a6	0.074437425
65	0xbcd8f225	-0.026482651
66	0xbd1091d0	-0.035295308
67	0x3d5a147d	0.053242195
68	0xbd325793	-0.04354055
69	0xbb83df0d	-0.0040243925
70	0xbc0af5dc	-0.008481469
71	0x3c44c345	0.0120094465
72	0xbc5f1002	-0.013614656
73	0x3d2ef49f	0.042713758
74	0x3d00ef28	0.031478077
75	0x3cbc073d	0.02295267
76	0xbcbfcb64	-0.023412414
77	0x3c9a2805	0.01881791
78	0x3d368af4	0.04456611
79	0x3d2ea589	0.042638335
80	0xbc8644f0	-0.016390294
81	0x3d2eb800	0.042655945
82	0xbbb447c0	-0.0055017173
83	0x3d14c40b	0.036319774
84	0xbd068a2f	-0.032846626
85	0xbd498a2a	-0.04920403
86	0xbd55d13d	-0.0522015
87	0x3d4ad187	0.049516227
88	0x3cdd795d	0.02703541
89	0xbcd71b19	-0.026258038
90	0x3d603631	0.05473918
91	0x3cb9dabb	0.022687307
92	0xbbc90f64	-0.006135868
93	0xbd5a139c	-0.053241357
94	0xbd1b0f3a	-0.037856318
95	0xbcecf9c7	-0.028927697
96	0x3d3d6e39	0.046247695
97	0xbc7cff53	-0.015441733
98	0x3c55ceab	0.013049762
99	0x3cfc37ef	0.03078839
100	0xbd847c1c	-0.064689845
101	0xbd86d13e	-0.065828785
102	0xbc60b8b2	-0.01371591
103	0x3c36efcc	0.0111655705
104	0xbcf32976	-0.029682856
105	0xbcadd5ca	-0.021220107
106	0xbd3f79e4	-0.046747103
107	0xbd210214	-0.039308622
108	0x3cafd968	0.021465972
109	0xbcfd2d30	-0.030905336
110	0xbd40d1b4	-0.04707499
111	0x3aad39d1	0.0013216083
112	0x3d365218	0.044511884
113	0x3cd6dca8	0.026228264
114	0x3c38de2f	0.011283441
115	0xbd4242ac	-0.047426865
116	0xbcbbaeca	-0.022910494
117	0xbcbab9c9	-0.022793667
118	0xbc607881	-0.013700605
119	0x3d1c5d35	0.038174827
120	0xbbb62d9f	-0.0055596377
121	0x3c911b4c	0.017713211
122	0xbd71b7ea	-0.059013285
123	0x3d3228c7	0.04349592
124	0xbb98465e	-0.0046470603
125	0x3c3a2bcc	0.011362981
126	0xbd284ab2	-0.04108686
127	0xbd0ebf11	-0.034850184
128	0xbd20bc0c	-0.039241835
129	0xbc449328	-0.011997975
130	0x3c149cc4	0.009070579
131	0xbd518405	-0.051151294
132	0xbb2f74c5	-0.002677248
133	0xbcd87082	-0.026420835
134	0xbd41c6aa	-0.0473086
135	0x3c661fbe	0.014045654
136	0x3ce47aec	0.027890645
137	0x3c93364b	0.017970225
138	0xbc759b4b	-0.014990638
139	0xbc3b87c6	-0.011445945
140	0xbbd697ca	-0.0065488564
141	0xbd813c25	-0.063103
142	0x3a178304	0.0005779716
143	0x3d5c655c	0.0538076
144	0xbd156b74	-0.03647943
145	0x3d368c7e	0.044567578
146	0x3d55a606	0.052160285
147	0x3d2e9063	0.042618167
148	0xbd554df4	-0.052076295
149	0x3c925a74	0.017865397
150	0xbc599848	-0.013280936
151	0xbd87b178	-0.06625646
152	0xbd03f38a	-0.03221468
153	0x3c92e0a3	0.01792938
154	0xbd3aaab1	-0.04557294
155	0x3d5692f5	0.052386243
156	0xbd07a99f	-0.033120748
157	0xbd46024a	-0.048342027
158	0x3d29f7c5	0.041496057
159	0xbc8f14f4	-0.017466046
160	0xbd153735	-0.036429603
161	0xbbfce412	-0.007717618
162	0x3d049ffd	0.03237914
163	0x3cb83ed8	0.022490904
164	0x3cd88311	0.026429685
165	0xbb287546	-0.0025704666
166	0xbcb8da73	-0.022565102
167	0x3d230cd3	0.039807152
168	0xbd71968e	-0.05898147
169	0xbb904e93	-0.004403898
170	0xbc16defa	-0.009208435
171	0xbca75507	-0.020426286
172	0x3ca36ef7	0.019950373
173	0xbc395c9b	-0.011313583
174	0x3c688710	0.014192358
175	0xbd7a39ce	-0.061090283
176	0xbcdf868a	-0.027285833
177	0xbc609d6a	-0.013709405
178	0xbd4b9060	-0.049698234
179	0xbd3cc1c7	-0.046083238
180	0x3d20db31	0.039271537
181	0x3d37e78c	0.044898555
182	0xbcd809d1	-0.026371868
183	0xbd724205	-0.059144992
184	0xbd4aafd0	-0.049484074
185	0xbd8ff56b	-0.07029232
186	0xbb07c08b	-0.002071413
187	0x3d58c48c	0.052921817
188	0xbcb0e19c	-0.021591954
189	0xbd92cc63	-0.0716789
190	0xbc875e5b	-0.016524484
191	0x3cf6aeb4	0.030112602
192	0x3c859ab8	0.016309127
193	0x3b299e3e	0.0025881673
194	0xb943e7f2	-0.00018683056
195	0x3d30f049	0.043197904
196	0x3b90fa20	0.0044243485
197	0x3cfb847d	0.030702824
198	0xbd3a03be	-0.045413725
199	0xbac541eb	-0.0015049552
200	0x3cc4c30c	0.024018787
201	0xbca1d1ed	-0.01975342
202	0xbcd18a42	-0.025578622
203	0x3d1de9e1	0.038553122
204	0x3cebf37b	0.028802624
205	0x3d4e2b54	0.05033429
206	0x3d2b1f9f	0.041778203
207	0xbd5e3d8c	-0.054257914
208	0xbc5c5da5	-0.013450061
209	0x3d49d489	0.049274955
210	0xbd9693bd	-0.073523976
211	0x3c73db53	0.014883834
212	0x3b1068a2	0.0022035022
213	0xbb3ef1b6	-0.002913577
214	0x3d57bb07	0.052668598
215	0xbd4e4027	-0.05035415
216	0xbd273de7	-0.04083052
217	0x39ef2856	0.00045615685
218	0xbd26bb25	-0.04070582
219	0xbd4633f1	-0.04838938
220	0x3c1afb37	0.009459308
221	0x3c14ea1e	0.009089021
222	0xbcd49f45	-0.025954852
223	0x3c8578e1	0.016292991
224	0xbd6f49e2	-0.05842007
225	0xbd7c1582	-0.06154395
226	0x3ce932ab	0.028466543
227	0xbb2f8233	-0.0026780486
228	0x3cd141e5	0.025544116
229	0x3ce79f71	0.02827427
230	0xbc1bcfe3	-0.009510013
231	0x3cbd5ffd	0.02311706
232	0x3d27d540	0.040974855
233	0x3d5373a8	0.05162397
234	0xbd2d9007	-0.042373683
235	0xbc4a4c97	-0.012347362
236	0xbca54b74	-0.02017758
237	0x3cb0061b	0.021487286
238	0xbcd21844	-0.025646336
239	0xbd78f436	-0.060779773
240	0xbd6b4c85	-0.05744602
241	0x3d2e658d	0.042577315
242	0xbd668aaa	-0.056284584
243	0xbd257a41	-0.040399794
244	0xbd4701c6	-0.048585676
245	0xbc73342c	-0.014843982
246	0xbba3df03	-0.0050009503
247	0x3d25cf26	0.040480755
248	0xbd8bc409	-0.068245
249	0xbc432620	-0.011910945
250	0xbd4d71f1	-0.05015749
251	0xbd8674fc	-0.06565282
252	0x3c3e2d08	0.011607416
253	0xbd8608eb	-0.0654467
254	0xbc83f3c0	-0.01610744
255	0x3ce068f5	0.027393797

fc2.bias f4 [256]
0	0xbd0e8960	-0.03479898
1	0xbe444073	-0.1916521
2	0x3e9d05c8	0.30668473
3	0x3e5460dc	0.20740074
4	0x3f019314	0.5061505
5	0x3ef77868	0.4833405
6	0x3e2284ff	0.15871046
7	0x3efc1fc4	0.49242985
8	0x3ec3cb56	0.3824107
9	0x3e9129c5	0.2835218
10	0xbd438929	-0.047738228
11	0x3f15cd80	0.58516693
12	0xbe764f54	-0.24053699
13	0xbd83446d	-0.064095356
14	0x3e8c1d63	0.2736617
15	0x3d807e9e	0.0627415
16	0x3e9b6ee0	0.30358028
17	0x3ee01e4a	0.4377311
18	0xbcddc6ff	-0.027072428
19	0xbd8b93d0	-0.06815302
20	0x3e8c4c67	0.2740204
21	0x3e9905cd	0.29887238
22	0x3f0a08d3	0.53919715
23	0xbd1e1392	-0.038592882
24	0xbcd94deb	-0.026526412
25	0x3bbf9371	0.005846434
26	0x3f062672	0.5240241
27	0x3f13e542	0.57771695
28	0x3f0af0da	0.5427376
29	0x3f12a8bd	0.57288724
30	0xbe00ce85	-0.12578781
31	0x3f049552	0.51790345
32	0x3cdca7f4	0.026935555
33	0x3f07c157	0.5302939
34	0xbd7c15b7	-0.061544146
35	0xbcac6f97	-0.021049304
36	0x3e0458cc	0.12924498
37	0x3e6ed87c	0.2332477
38	0x3dd148c0	0.10218954
39	0x3e25e873	0.16201954
40	0x3f0d16ba	0.55112803
41	0xbd889fbf	-0.06671094
42	0x3e937a86	0.28804415
43	0xbcd79076	-0.026314002
44	0xbe4f0891	-0.20218112
45	0x3f0baf50	0.5456438
46	0x3e13c086	0.1442891
47	0x3dc8dd4b	0.09807833
48	0x3c73d348	0.014881916
49	0x3d9e8c95	0.07741658
50	0x3bbbc3f2	0.0057301456
51	0x3edeaa00	0.43489075
52	0x3e1f6964	0.15567547
53	0x3f15744a	0.5838057
54	0x3e07f2a3	0.13276152
55	0x3e665d76	0.2249659
56	0xbd1ede8d	-0.03878646
57	0x3ee56dd6	0.4481036
58	0x3e34ade9	0.17644466
59	0x3edb1711	0.42791036
60	0x3ef60c19	0.48056105
61	0x3f03db63	0.5150663
62	0xbe45f441	-0.19331457
63	0xbd38bd20	-0.04510224
64	0x3e147bad	0.14500304
65	0xbe697ff2	-0.22802714
66	0x3e8ed73e	0.27898592
67	0x3e6c14c4	0.23054796
68	0xbd088370	-0.033328474
69	0xbe22e683	-0.15908246
70	0xbca580b6	-0.020202976
71	0x3e0c4f33	0.13702087
72	0x3e363635	0.17794116
73	0x3e014152	0.12622574
74	0x3f065073	0.52466506
75	0x3edaffe8	0.42773366
76	0xbe3487f4	-0.17629987
77	0xbe377a85	-0.17917831
78	0xbe323a7a	-0.1740512
79	0x3f088f66	0.5334381
80	0x3f04b149	0.51833016
81	0xbc98b136	-0.018639188
82	0x3eef85b9	0.4678171
83	0x3f030896	0.51184976
84	0x3c9abd85	0.018889198
85	0x3ec531ca	0.3851455
86	0x3e4127a8	0.18862784
87	0x3e850ea4	0.25987732
88	0x3e9a4b15	0.30135408
89	0x3cec78d7	0.028866215
90	0xbcae7398	-0.021295354
91	0x3e2ff951	0.1718495
92	0xbc860856	-0.016361397
93	0x3d03694f	0.032082852
94	0x3ec10be4	0.37704384
95	0x3e226f34	0.15862733
96	0x3e151275	0.14557822
97	0x3de92f40	0.11385965
98	0x3efdf2fa	0.4959944
99	0x3dc4531a	0.09586163
100	0x3e622a01	0.22086336
101	0x3f11af14	0.56907773
102	0xbd389bf9	-0.045070622
103	0xbe33f662	-0.17574456
104	0x3e4e4183	0.20142178
105	0x3db0d722	0.08634783
106	0x3db26b2e	0.08711849
107	0x3ea899c5	0.32929817
108	0x3cada059	0.021194624
109	0x3efef611	0.4979711
110	0x3ee57b4e	0.44820637
111	0xbd8c783d	-0.06858871
112	0xbdb62662	-0.0889404
113	0x3ef63df7	0.4809415
114	0x3c178ae2	0.009249421
115	0x3ccaf852	0.024776611
116	0x3f075114	0.5285809
117	0x3d4df972	0.050286718
118	0x3ec28077	0.37988636
119	0xbe6ff95d	-0.23434968
120	0xbcde71e9	-0.027153926
121	0x3f04796d	0.5174778
122	0x3e9379ce	0.28803867
123	0x3f098847	0.5372357
124	0x3ed676dd	0.4188756
125	0xbd3afbb4	-0.0456502
126	0xbc84a986	-0.016194116
127	0x3da64b3d	0.08119819
128	0xbd68e83a	-0.056862094
129	0x3e02b454	0.12764102
130	0x3e9e6813	0.30938777
131	0x3df5157c	0.119669884
132	0x3eb5c621	0.35502723
133	0x3f11043a	0.56647074
134	0x3d8a59ad	0.067553855
135	0x3f0abf0a	0.5419775
136	0x3ef10cf0	0.47080183
137	0x3f0b9661	0.54526335
138	0xbeabdf64	-0.3356887
139	0x3f08013c	0.53126884
140	0x3e80a751	0.25127652
141	0xbc70fb42	-0.014708342
142	0xbbea77ad	-0.0071553797
143	0x3e73f5d8	0.2382425
144	0xbd7f9616	-0.062398992
145	0x3e18a8a8	0.14908087
146	0x3dd5471a	0.10413952
147	0xbd928721	-0.0715468
148	0xbd44064b	-0.047857564
149	0x3da8f021	0.08248926
150	0x3e8f5ca5	0.2800037
151	0x3dfd54c6	0.12369685
152	0x3cd63f6b	0.026153287
153	0x3e92db00	0.2868271
154	0x3e337e28	0.17528594
155	0x3ee78b64	0.45223534
156	0x3e972197	0.29517815
157	0x3dfb1fc1	0.12261916
158	0x3e7180a8	0.23584235
159	0x3f062251	0.5239611
160	0x3f05e0a5	0.52295905
161	0x3d2709a0	0.040780663
162	0x3d652e6b	0.05595247
163	0xbd3791ef	-0.044816907
164	0x3becdd0a	0.0072284983
165	0xbe88b11b	-0.2669762
166	0x3e2d390c	0.16916293
167	0xbe0008c8	-0.1250335
168	0x3e8d1899	0.2755783
169	0xbcc2dd9a	-0.023787308
170	0x3e06d720	0.13168001
171	0x3dd861d4	0.10565534
172	0x3c4ae913	0.012384671
173	0x3f01626f	0.5054082
174	0xbd2937b9	-0.041312907
175	0x3e08b0c3	0.13348679
176	0x3e141b68	0.1446358
177	0x3d814684	0.06312278
178	0x3f133b52	0.5751239
179	0x3e641eff	0.22277449
180	0x3c41b285	0.0118223475
181	0x3eaaa4c5	0.33328834
182	0x3f094a84	0.53629327
183	0x3e2d5c66	0.16929778
184	0x3efbe925	0.49201313
185	0xbd874ac3	-0.066060565
186	0xbd5e33ff	-0.054248806
187	0x3edbc27c	0.42921817
188	0x3f147f3f	0.5800666
189	0x3ec4fb56	0.38473004
190	0x3edf5572	0.43619877
191	0xbcecd5d4	-0.028910555
192	0x3cd3c654	0.025851406
193	0x3d8a524f	0.0675398
194	0x3ef8c088	0.4858439
195	0x3f128c7a	0.572456
196	0x3e48efd3	0.19622736
197	0xbd9f6d0f	-0.07784473
198	0xbac4e501	-0.0015021862
199	0x3e7dc0f3	0.24780636
200	0x3e8a7139	0.27039507
201	0xbdeab169	-0.114596196
202	0x3f13a9fe	0.5768126
203	0x3f003895	0.5008634
204	0xbc3cd77f	-0.011525988
205	0x3e329191	0.17438342
206	0x3ce4a3a7	0.027910067
207	0x3d87868d	0.066174604
208	0x3f12c9fc	0.57339454
209	0x3eb9d849	0.36297825
210	0xbe08ccb1	-0.13359334
211	0x3d374309	0.044741664
212	0x3f105ae8	0.5638871
213	0xbe76f8ce	-0.24118349
214	0xbd8a96a8	-0.06767017
215	0x3f0defa4	0.5544379
216	0x3d86797a	0.065661386
217	0x3d5103c6	0.05102899
218	0x3f12009e	0.5703219
219	0x3ef709da	0.48249704
220	0xbd697dfa	-0.057004906
221	0x3eb0ce26	0.3453228
222	0x3ea95f8e	0.33080715
223	0x3e63b7ca	0.22238079
224	0xbe91e1aa	-0.2849248
225	0x3eff4c5c	0.49862945
226	0x3c31f415	0.010861416
227	0x3f0e8b50	0.55681324
228	0xbe3b8e24	-0.18315941
229	0xbea8fe85	-0.33006683
230	0xbe78b807	-0.24288951
231	0xbea0af70	-0.31383848
232	0x3da730c3	0.081635974
233	0x3d761009	0.060073886
234	0x3db8a0c6	0.0901504
235	0x3ea716f6	0.32634705
236	0x3ed9ca74	0.42537272
237	0x3f0df69a	0.5545441
238	0x3dc88c90	0.09792435
239	0x3d685e2d	0.056730438
240	0xbe3329df	-0.17496441
241	0x3b52572e	0.003209542
242	0x3dbc51b8	0.09195274
243	0x3dd38fa4	0.10330132
244	0x3f0bb11a	0.5456711
245	0xbd3fd760	-0.046836257
246	0x3e81d1de	0.25355428
247	0x3ea19a7a	0.3156317
248	0x3e8b0cef	0.27158305
249	0x3eb3b441	0.3509846
250	0x3b299a0a	0.0025879168
251	0xbd6a6659	-0.057226513
252	0xbf001586	-0.5003284
253	0x3e9ddc7f	0.30832288
254	0xbe787609	-0.24263777
255	0x3ef6a1c1	0.48170283

fc3.weight f4 [1, 256]
0	0x3caa9996	0.020825189
1	0x3f91067f	1.1330107
2	0xbf844756	-1.033427
3	0x3fa91f2f	1.3212641
4	0xbea9855d	-0.3310956
5	0xbf39db7b	-0.72600526
6	0x3ffd2ad9	1.9778701
7	0xbea31f7e	-0.31859964
8	0xbfc1ba0e	-1.5134904
9	0xbfa85324	-1.3150373
10	0xbc8c33d0	-0.01711455
11	0xbe9b864c	-0.30375898
12	0x3f8e5f45	1.1122824
13	0xbc0b9fb6	-0.008521965
14	0xbf8085ac	-1.0040793
15	0x3fa4fffe	1.2890623
16	0xbf545efb	-0.8295743
17	0xbe9ddaae	-0.30830902
18	0x3d318043	0.04333521
19	0x3b6ee21a	0.0036450685
20	0x40044de0	2.067253
21	0xbf50f169	-0.8161836
22	0xbea0430d	-0.31301156
23	0xb962a6cf	-0.0002161518
24	0xba0061ba	-0.0004897375
25	0x3c87539e	0.016519364
26	0xbea2d672	-0.31804234
27	0xbe9532c2	-0.29140288
28	0xbe9bbd29	-0.30417755
29	0xbea91062	-0.33020312
30	0x3fd1f1b9	1.6401893
31	0xbe8945b6	-0.26810998
32	0xbd3fcd7f	-0.046826836
33	0xbea38139	-0.31934527
34	0x3d252eca	0.040327825
35	0x3cbd7a81	0.023129703
36	0x3fbb1b93	1.461779
37	0x400615ab	2.0950725
38	0x3fb7ad29	1.4349719
39	0x3f94db6b	1.1629461
40	0xbf25ad2f	-0.6471738
41	0xbccb5243	-0.024819499
42	0xbf79e29f	-0.9761142
43	0x3cfb7051	0.030693205
44	0x3fa7c9cc	1.3108459
45	0xbf3dd506	-0.7415317
46	0x3f8a8bdc	1.0823932
47	0x3fbbc4d7	1.4669446
48	0x3c98ada2	0.018637482
49	0x3fc0da8d	1.5066696
50	0xbd1f57fc	-0.038902268
51	0xbeabf9ec	-0.33589113
52	0x3fd95a01	1.6980592
53	0xbf4137dc	-0.7547586
54	0xbf576d8e	-0.8415154
55	0xbf429690	-0.7601099
56	0xbd1c0d8c	-0.038098857
57	0xbef3b4ec	-0.4759897
58	0xbf058cea	-0.5216814
59	0xbff63482	-1.9234774
60	0xbe9bdc2e	-0.3044142
61	0xbea94b39	-0.33065203
62	0x3fb9a033	1.4502014
63	0xba2420d0	-0.0006260993
64	0x3f0bb714	0.5457623
65	0x3fb2f05d	1.3979603
66	0xbf0ec80a	-0.55773985
67	0xbf6496da	-0.8929268
68	0x3c792325	0.015206133
69	0x3e7f0697	0.24904858
70	0x3bd0a048	0.0063667633
71	0x3fa39c44	1.2782063
72	0x3f936346	1.1514671
73	0x3f848ae0	1.0354881
74	0xbea307a8	-0.3184178
75	0xbe97f425	-0.29678455
76	0x3fd4732f	1.6597651
77	0x3f9d65ed	1.229673
78	0x3f946865	1.1594359
79	0xbea8a20e	-0.32936138
80	0xbe92d0ff	-0.28675076
81	0xbd309f92	-0.043120928
82	0xbe9f55c8	-0.31120133
83	0xbe9ee163	-0.3103133
84	0x3d1563bb	0.036472064
85	0xbfadf506	-1.35904
86	0x3f409a9d	0.7523592
87	0xbf469707	-0.775742
88	0xbf48401d	-0.7822283
89	0x3fb7f1ac	1.4370627
90	0x3d34e4ca	0.044163503
91	0xbf869ac4	-1.0515981
92	0xbd4cbf46	-0.0499871
93	0x3b8c6a36	0.0042851223
94	0xbefe4b43	-0.49666795
95	0x3eb2ab12	0.3489614
96	0x3f5f42f4	0.8721154
97	0x3f9b12d5	1.2115122
98	0xbebcf69f	-0.36906907
99	0x3fb2fabb	1.3982767
100	0x3f96857c	1.1759486
101	0xbe9662f7	-0.2937238
102	0xbb379744	-0.0028013745
103	0x3fc97abc	1.574058
104	0xbf54d727	-0.83140796
105	0x3f8e3c90	1.1112232
106	0x3fd6d386	1.6783302
107	0xbf587e95	-0.8456815
108	0xbd2459ad	-0.040124584
109	0xbe9739fd	-0.2953643
110	0xbe9dc6c8	-0.3081572
111	0x3e259b38	0.16172493
112	0xbb93604a	-0.0044975625
113	0xbea739c5	-0.32661262
114	0xbbf87c76	-0.0075831963
115	0x3fbcfe91	1.4765188
116	0xbe9363a4	-0.28786957
117	0x3d0806fc	0.033209786
118	0x3fb9e32a	1.452245
119	0x3f8acb8b	1.0843366
120	0x3fc44c8d	1.5335861
121	0xbe9fc72c	-0.31206644
122	0xbf3c9a0b	-0.7367255
123	0xbe9e5862	-0.30926806
124	0xbea4212b	-0.32056555
125	0x3d47717d	0.048692215
126	0x3ad3aa84	0.001614884
127	0x3fc68f86	1.551255
128	0x3d20410b	0.03912453
129	0x3fb37fc5	1.4023367
130	0xbf8d7df5	-1.1054064
131	0x3fdcd50a	1.7252514
132	0xbedc513d	-0.4303073
133	0xbe9d288e	-0.30695003
134	0x3fb0337a	1.3765709
135	0xbea95c65	-0.33078304
136	0xbe991551	-0.29899076
137	0xbea03d77	-0.31296894
138	0x3f986596	1.1906002
139	0xbf3748c5	-0.7159541
140	0xbf52ab83	-0.82292956
141	0x3b09eef1	0.0021046961
142	0xb8e40cb5	-0.00010874254
143	0x4001d314	2.0285082
144	0xbc372a1d	-0.011179474
145	0x3fa27755	1.2692667
146	0x3f8ab6a2	1.0836985
147	0x3c170062	0.0092164
148	0xbd51fda6	-0.05126729
149	0x3fe297a9	1.7702533
150	0xbf4ccc44	-0.79999185
151	0x3fb8ef67	1.444806
152	0x3fd645f7	1.6740102
153	0x4000cfe4	2.0126886
154	0x3f89afee	1.0756814
155	0xbe8fed9e	-0.28110975
156	0xbf7f1de9	-0.99655014
157	0x3f8f9fb8	1.1220617
158	0xbf7b0f54	-0.98070264
159	0xbe942d78	-0.2894094
160	0xbe905d7e	-0.2819633
161	0x3d1066d7	0.035254326
162	0x3fa322ff	1.2745055
163	0xbba0da61	-0.0049088453
164	0x3c445051	0.01198204
165	0x3f9a5337	1.2056645
166	0x3fc67573	1.5504593
167	0x3fcb5cf2	1.588774
168	0x4006c110	2.1055336
169	0x3c03ee78	0.008052461
170	0x3fde2cf2	1.7357466
171	0x3fc9c77d	1.5764004
172	0x3b9fd356	0.004877488
173	0xbf2dee15	-0.6794141
174	0xbbbd7c49	-0.005782638
175	0x3fc6e380	1.5538177
176	0x3fd76e11	1.6830465
177	0x3f905cc8	1.1278315
178	0xbe8780ff	-0.26465604
179	0x3fe87b0e	1.8162553
180	0x3b090081	0.0020904841
181	0xbfac4681	-1.3459016
182	0xbea775bf	-0.3270702
183	0x3fb72ce9	1.431058
184	0xbe92f009	-0.28698757
185	0xbd1ca7a8	-0.038245827
186	0x3d45c0cc	0.04827957
187	0xbeacf556	-0.33780926
188	0xbea6f21b	-0.32606587
189	0xbe9e019f	-0.30860612
190	0xbea535d2	-0.32267624
191	0x3a417e0d	0.0007381149
192	0x3d226d03	0.039654743
193	0x3f85fa37	1.0466985
194	0xbe9ba12d	-0.30396405
195	0xbe9b647c	-0.303501
196	0xbf61f6f3	-0.8826744
197	0xbbdbd358	-0.0067085437
198	0x3bd695bf	0.006548613
199	0x3ff35d97	1.9012936
200	0xbf32f117	-0.69899124
201	0x3fd16bde	1.6361043
202	0xbe952303	-0.29128274
203	0xbea63f63	-0.32470235
204	0x3c86b546	0.01644386
205	0x3fb6eabf	1.4290389
206	0x3d2533ca	0.040332593
207	0xbf099c3f	-0.5375404
208	0xbe869565	-0.26285854
209	0xbf12c4f9	-0.57331806
210	0x3f8e1252	1.1099341
211	0xbc081b4a	-0.0083072875
212	0xbe89608c	-0.26831472
213	0x3fa396c1	1.2780381
214	0x3c37f72c	0.011228364
215	0xbe89531c	-0.2682122
216	0x3f9d4140	1.2285538
217	0x3fafd1b5	1.3735873
218	0xbea84174	-0.32862437
219	0xbeba1805	-0.3634645
220	0xbc082596	-0.008309742
221	0xbf201921	-0.62538344
222	0xbf6be93a	-0.9215275
223	0x3f9ab7d4	1.208735
224	0x3fa0cafc	1.2561946
225	0xbea77018	-0.32702708
226	0x3a9d347f	0.0011993794
227	0xbe90afcb	-0.2825912
228	0x3fae96f4	1.3639817
229	0x3fac448f	1.3458422
230	0x3fbb0c5f	1.461315
231	0x3f9eb7c3	1.239983
232	0x3f8bffa6	1.0937393
233	0x3fc8ec3f	1.5697097
234	0x3fd41025	1.6567427
235	0xbfa4acdc	-1.2865252
236	0xc01e7bf1	-2.4763148
237	0xbe955c30	-0.29171896
238	0x3faf1dd7	1.3680981
239	0x4054d2c0	3.3253632
240	0x3f914bf3	1.1351303
241	0x3d196299	0.037447546
242	0x3fe11daf	1.7587184
243	0x3e3702ca	0.17872158
244	0xbe975af3	-0.29561576
245	0x3b83c53c	0.004021315
246	0xbf4c7b81	-0.7987595
247	0xbf611c93	-0.87934226
248	0xbe2cb4c4	-0.16865832
249	0x401fbac0	2.4957733
250	0x3bad09eb	0.0052807233
251	0x39ce7332	0.0003937721
252	0x3fbddf6b	1.4833807
253	0xbf85aec9	-1.0443965
254	0x3fa9830a	1.3243115
255	0xbea71c43	-0.3263875

fc1.weight f4 [256, 8]
0	0xbcbb07a2	-0.022830788
1	0x3d95ccb0	0.07314432
2	0xbe9b5082	-0.3033486
3	0x3e83aac7	0.2571623
4	0xbd4fbe18	-0.050718397
5	0xbedd242b	-0.43191656
6	0xbeba3b45	-0.36373344
7	0xbd558780	-0.052131176
8	0xbe9bcc04	-0.3042909
9	0x3eae27a5	0.3401462
10	0x3c31fd67	0.0108636385
11	0x3db3a1c8	0.08771092
12	0xbbf810f9	-0.0075703827
13	0xbcd93ac4	-0.02651728
14	0xbf06195c	-0.52382445
15	0xbecfb176	-0.4056508
16	0x3e9363cf	0.28787085
17	0xbebbffeb	-0.36718687
18	0xbe30ce30	-0.17266154
19	0xbd4c48cd	-0.049874116
20	0x3e707dc5	0.23485477
21	0x3d24bc44	0.040218607
22	0xbf017701	-0.5057221
23	0x3da413d9	0.08011598
24	0xbdeb9ce7	-0.11504536
25	0x3e6c6a9b	0.23087542
26	0xbf023a4f	-0.5087022
27	0xbdec5cb6	-0.11541121
28	0x3c3906ac	0.011293095
29	0xbdaa64f3	-0.08320036
30	0xbe2080d5	-0.15674146
31	0xbeba5360	-0.36391735
32	0xbe5c67fe	-0.21524045
33	0x3e6a4d6a	0.22881094
34	0xbe3ad25b	-0.18244307
35	0xbdcd92d3	-0.1003777
36	0xbebd00e1	-0.36914733
37	0x3d92fe68	0.071774304
38	0xbe72b2c9	-0.23701014
39	0xbc09c6a9	-0.008409181
40	0x3deacef1	0.11465252
41	0x3e391825	0.18075617
42	0x3e33f6b8	0.17574584
43	0x3c4f32e7	0.012646413
44	0x3e4cdf0b	0.20006959
45	0x3e351cf3	0.17686825
46	0xbe34de8a	-0.17663017
47	0x3e6c80f0	0.23096061
48	0x3e150824	0.14553887
49	0xbeabbbf8	-0.33541846
50	0xba872af0	-0.0010312479
51	0xb85bd412	-5.2411175e-05
52	0xbd86dcc9	-0.0658508
53	0xbe877ff4	-0.26464808
54	0xbed3cac1	-0.41365626
55	0x3e2fc2f7	0.17164217
56	0xbe31a86b	-0.17349403
57	0xbec64a19	-0.38728407
58	0xbc673526	-0.014111793
59	0x3ce14f86	0.02750374
60	0x3ee1e949	0.44123295
61	0xbe087c0c	-0.1332857
62	0x3ebf29c3	0.3733655
63	0x3e3e1adc	0.18564934
64	0xbe27abc5	-0.16374119
65	0x3d7aca68	0.061228186
66	0xbed8afad	-0.4232153
67	0xbd8baba1	-0.06819845
68	0x3a7067f9	0.00091707666
69	0xbdc664ea	-0.096872166
70	0xbef18789	-0.47173718
71	0x3d1db4e1	0.038502578
72	0xbeb47fd4	-0.35253775
73	0x3e8689c5	0.26276985
74	0xbebcc03c	-0.36865413
75	0xbe0e3ef1	-0.13891198
76	0xbe2e7301	-0.17036058
77	0xbec443c7	-0.3833296
78	0xbed50866	-0.4160797
79	0x3e2006d5	0.15627606
80	0xbe34061d	-0.17580457
81	0xbe0b4df4	-0.13603956
82	0x3e9e4a6e	0.3091616
83	0x3dbe51a7	0.09292918
84	0xbe830a00	-0.25593567
85	0xbd9b9faa	-0.07598813
86	0xbe8fd3fe	-0.28091425
87	0xbe2b8cc6	-0.1675292
88	0x3ebc6aea	0.3680032
89	0x3e16b5d8	0.14717805
90	0x3e66d154	0.2254079
91	0x3e928e26	0.28624076
92	0xbea37f11	-0.3193288
93	0xbe0c26e9	-0.13686718
94	0xbf21aba5	-0.63152534
95	0xbedbb623	-0.42912397
96	0x3d17cfab	0.037063282
97	0x3e05cfca	0.13067546
98	0xbea08ed5	-0.31358972
99	0xbddbe010	-0.10736096
100	0xbda94fce	-0.08267175
101	0xbe9f6426	-0.31131095
102	0xbeb91fc9	-0.36157063
103	0xbd7e8c27	-0.06214538
104	0xbf0c20bd	-0.54737455
105	0x3e757a4a	0.23972431
106	0xbef09c0b	-0.4699405
107	0xbe9e1e0e	-0.30882305
108	0x3d0d6937	0.03452417
109	0xbe25aa03	-0.16178136
110	0xbe8f0da8	-0.27940106
111	0x3e8d7194	0.27625716
112	0x3ed7f420	0.4217844
113	0x3d8c4d9c	0.0685074
114	0xbe24f308	-0.16108334
115	0x3d6ff983	0.058587562
116	0xbe1a7a83	-0.15085797
117	0x3f243488	0.64142656
118	0x3ceed999	0.029156493
119	0xbf011df2	-0.5043632
120	0x3ec0b76f	0.3763995
121	0x3c3cb2a0	0.011517197
122	0x3e3cb057	0.18426643
123	0xbea8a452	-0.32937866
124	0xbe189c18	-0.14903295
125	0x3dca4aa1	0.098775156
126	0xbf16ea9d	-0.5895174
127	0xbc9cbb18	-0.019132182
128	0xbea44c4e	-0.32089466
129	0x3c03d1e0	0.008045644
130	0xbe261b89	-0.16221441
131	0x3ce07787	0.027400745
132	0x3e95fb5a	0.2929333
133	0xbeaeb174	-0.3411976
134	0x3c5c9161	0.013462395
135	0xbe04ab6a	-0.12956014
136	0xbe37cc44	-0.17949015
137	0xbc86ef51	-0.016471537
138	0x3dc0762a	0.09397538
139	0x3e84be94	0.2592665
140	0x3d64bffe	0.05584716
141	0x3d454d35	0.048169333
142	0xbead69e3	-0.33869848
143	0xbe3f3926	-0.18674144
144	0xbdf7afc7	-0.12094074
145	0xbe8150d2	-0.25256974
146	0x3e9890a5	0.29797855
147	0xbc950050	-0.018188626
148	0x3d9ac6b1	0.07557429
149	0x3ea557d5	0.32293573
150	0x3ea93113	0.33045253
151	0x3ea01c50	0.312716
152	0x3e4364c4	0.19081408
153	0xbdcb061f	-0.09913277
154	0xbd96da9b	-0.073659144
155	0x3e183709	0.14864744
156	0x3e5db07e	0.21649358
157	0xbd11f36b	-0.035632532
158	0x3d40f117	0.04710492
159	0x3dfce47e	0.12348269
160	0x3e5540f1	0.20825554
161	0xbd2b26b4	-0.041784957
162	0xbd2a1d22	-0.04153169
163	0xbe20b115	-0.15692551
164	0xbe38c7a4	-0.18044907
165	0xbe409b48	-0.18809235
166	0xbf2d63f4	-0.6773064
167	0x3e3d74c8	0.1850158
168	0xbe8dd40e	-0.27700847
169	0x3e011068	0.12603915
170	0xbe6b9567	-0.23006211
171	0xbe0b3ade	-0.13596675
172	0xbe2bfe38	-0.16796196
173	0xbe9aca44	-0.3023244
174	0xbed2a145	-0.41138664
175	0xbeb89eb1	-0.36058572
176	0x3d5e93e9	0.054340277
177	0xbe9a9f8e	-0.30199856
178	0x3d9050b3	0.07046642
179	0xbe12f42d	-0.14350958
180	0x3d6bfcbe	0.05761408
181	0xbe079b08	-0.13242733
182	0x3e489229	0.19587006
183	0x3d9536e9	0.07285864
184	0xbca4112b	-0.020027718
185	0x3ea8bfc9	0.3295882
186	0xbe62a22e	-0.22132179
187	0xbec075b3	-0.37589797
188	0xbe52f739	-0.2060212
189	0x3e08f559	0.13374843
190	0xbe2b32a2	-0.16718534
191	0xbea32819	-0.3186653
192	0x3e9c165e	0.30485815
193	0x3dd15506	0.10221295
194	0x3d92b185	0.071627654
195	0x3dcffaec	0.101552814
196	0xbec212d9	-0.37905005
197	0xbc21403c	-0.009841975
198	0xbe96fd3d	-0.2949008
199	0xbee0dd34	-0.43918765
200	0xbe46a1b2	-0.1939762
201	0xbda4acdb	-0.08040782
202	0x3e247f1e	0.16064116
203	0xbe9d66cb	-0.30742487
204	0xbe80c203	-0.2514802
205	0x3e5825a8	0.21108115
206	0xbf04fe53	-0.5195057
207	0xbe21029c	-0.15723652
208	0x3e3f18b3	0.18661766
209	0xbea6c09a	-0.32568818
210	0xbdbbed26	-0.09176092
211	0xbe134ae2	-0.14384034
212	0xbd95bfdd	-0.07311986
213	0xbda18918	-0.07887477
214	0xbe99d4a2	-0.30045038
215	0xbd2c51bc	-0.042070135
216	0x3d2dac6a	0.042400755
217	0xbe571f8d	-0.2100813
218	0x3e8178bc	0.25287426
219	0x3d0b5620	0.034017682
220	0xbe26955a	-0.1626791
221	0xbe8360db	-0.25659832
222	0xbf00fb71	-0.5038367
223	0xbb8d833a	-0.004318622
224	0x3e04eff4	0.1298216
225	0x3db7a462	0.089669004
226	0x3dbdc1f4	0.09265509
227	0x3e14b2c4	0.14521319
228	0x3e4f92db	0.20270865
229	0xbd7488c6	-0.05970075
230	0xbdb7a50e	-0.089670286
231	0xbd02d294	-0.031939104
232	0x3d634c89	0.05549291
233	0x3e06cfba	0.13165179
234	0x3de5f9d8	0.112292945
235	0xbdd443e1	-0.103645094
236	0xbdc997b4	-0.09843388
237	0xbdd7dcf4	-0.1054019
238	0xbe9025eb	-0.2815393
239	0x3dc9fd06	0.098627135
240	0xbeaa8281	-0.33302692
241	0xbe5a5b4b	-0.21323888
242	0x3cbd2f09	0.023093717
243	0x3e58ec49	0.21183886
244	0x3eb35f0d	0.35033455
245	0xbecbea5d	-0.39827242
246	0xbdf1d9bf	-0.1180911
247	0xbe5d17f6	-0.21591172
248	0xbe7e7752	-0.24850205
249	0xbea8e7dc	-0.32989395
250	0xbda1957b	-0.07889839
251	0xbd256043	-0.040375005
252	0xbc2dbc23	-0.010603937
253	0xbe0a4115	-0.1350139
254	0x3d81430a	0.06311615
255	0xbe5e0abb	-0.21683781

fc1.bias f4 [256]
0	0x3e6d2182	0.23157313
1	0x3e9a1095	0.30090776
2	0xbcda8621	-0.026675286
3	0x3d219780	0.039451122
4	0x3e3efffa	0.18652335
5	0xbebc5009	-0.36779812
6	0xbe3146f6	-0.17312226
7	0xbe5b2aa4	-0.21402985
8	0x3e432cd5	0.19060071
9	0x3d3d1424	0.046161786
10	0xbdf9360f	-0.12168514
11	0xbd46cd85	-0.048535842
12	0xbe1efa65	-0.15525205
13	0xbe1e4acb	-0.15458219
14	0x3d925354	0.071448
15	0x3e42929a	0.19001237
16	0xbda8feac	-0.082517
17	0x3b8777c1	0.004134149
18	0x3eadc1c4	0.33936894
19	0xbd493701	-0.04912472
20	0x3e0c196b	0.13681571
21	0xbd4cfcb5	-0.050045688
22	0xbddbdfe5	-0.10736064
23	0xbd4e6a81	-0.05039454
24	0x3df9a200	0.12189102
25	0x3dc60222	0.096683756
26	0xbdacf75d	-0.08445618
27	0x3e613d87	0.21996127
28	0xbe59e55a	-0.21278897
29	0xbe4f8e9f	-0.2026925
30	0x3eb6a790	0.35674715
31	0xbe946ec5	-0.2899076
32	0xbe66b74c	-0.2253086
33	0xbd8986b3	-0.06715145
34	0x3ee60a8b	0.4492992
35	0x3e4bf692	0.19918278
36	0xbd62f1de	-0.055406444
37	0xbe612088	-0.21985066
38	0xbeae2c87	-0.34018347
39	0xbebe5e64	-0.3718139
40	0x3e4c46db	0.19948904
41	0x3e74d15b	0.23907988
42	0xbe40cf7b	-0.18829148
43	0xbe4c10bb	-0.19928257
44	0xbde798ce	-0.11308442
45	0xbd127925	-0.035760064
46	0x3ab846a1	0.0014059135
47	0xbe5ce69d	-0.21572347
48	0x3e0614b4	0.13093835
49	0x3d05dbab	0.032680195
50	0xbde82f30	-0.11337125
51	0xbcc72e0d	-0.02431395
52	0x3deaf946	0.114733264
53	0x3ef2fb15	0.47457185
54	0x3e4d2e91	0.20037295
55	0xbe034c87	-0.12822162
56	0xbe78c8a9	-0.24295296
57	0xbce8be84	-0.028411157
58	0xbe2de3fd	-0.16981502
59	0xbe504c8a	-0.20341697
60	0xbe1de395	-0.15418847
61	0x3e221291	0.15827395
62	0xbdd63bb7	-0.104606085
63	0x3e1a18a6	0.15048465
64	0x3dc1ceb2	0.09463252
65	0xbd3e3979	-0.04644153
66	0xbb276b26	-0.0025546043
67	0xbdd3d87c	-0.103440255
68	0xbebf97d3	-0.3742052
69	0x3e928400	0.28616333
70	0x3c6eda32	0.014578389
71	0xbe4db1a7	-0.200873
72	0x3e712b01	0.23551561
73	0xbe49fa6b	-0.19724433
74	0x3e498ad8	0.19681871
75	0x3e894a21	0.26814368
76	0xbe26e49b	-0.16298144
77	0x3e0f874b	0.14016454
78	0xbd152b98	-0.036418527
79	0xbd4983d9	-0.049198005
80	0xbe236dec	-0.159599
81	0xbe5fa660	-0.21840811
82	0x3e329d7d	0.1744289
83	0xbea0a6c8	-0.31377244
84	0xbe4268c6	-0.1898528
85	0xbe2b138a	-0.16706672
86	0xbc493e65	-0.012282942
87	0xbdbf0eae	-0.09328972
88	0x3a5a0a31	0.00083175587
89	0xbe40d492	-0.18831089
90	0x3e44701f	0.19183396
91	0x3e0048b9	0.12527741
92	0x3e42e5fe	0.19033048
93	0xbe226fa2	-0.15862897
94	0x3dfc103e	0.123077855
95	0x3e82c969	0.2554429
96	0xbe93a4dc	-0.28836715
97	0x3e0ee463	0.1395431
98	0xbe45c238	-0.1931237
99	0xbeafb37c	-0.34316623
100	0xbe8da163	-0.2766219
101	0xbe62b369	-0.22138752
102	0x3dab87df	0.08375525
103	0x3eb54557	0.35404465
104	0x3e4c5503	0.19954304
105	0xbe561751	-0.20907332
106	0xbcd4f5e6	-0.02599616
107	0x3edd0797	0.43169853
108	0xbe9fedcb	-0.3123611
109	0x3e373e61	0.1789489
110	0x3e84986a	0.25897533
111	0x3e4497b9	0.19198503
112	0x3d00ab00	0.03141308
113	0xbe810840	-0.25201607
114	0x3c8cbeeb	0.01718088
115	0xbd251586	-0.04030373
116	0xbe2f9b86	-0.17149171
117	0xbe868249	-0.26271275
118	0x3ddb791a	0.10716458
119	0x3e758c3c	0.23979276
120	0x3db624a9	0.08893711
121	0xbe139a9a	-0.14414445
122	0x3db84651	0.08997787
123	0x3b624d6b	0.0034531008
124	0x3ec9d9c3	0.39423952
125	0xbe8c5bd8	-0.2741382
126	0x3ca3bec9	0.019988434
127	0x3dad72b3	0.08469143
128	0xbe9a4caa	-0.30136615
129	0x3e27cc3c	0.16386503
130	0xbe51635f	-0.20448063
131	0xbda13019	-0.07870502
132	0x3d90b8a2	0.07066466
133	0x3e160a21	0.14652301
134	0x3d2346c8	0.039862424
135	0x3e74f389	0.23921026
136	0xbdc985e7	-0.09839993
137	0x3ed40392	0.41408974
138	0x3e330a52	0.17484406
139	0xbe710a14	-0.23539001
140	0xbe9b15f3	-0.30290183
141	0x3e2dab05	0.1695977
142	0xbd609a00	-0.054834366
143	0xbecfdb10	-0.4059682
144	0xbdc40cb9	-0.09572739
145	0x3e6161ba	0.22009936
146	0x3ea34fa4	0.31896698
147	0xbe3d7111	-0.18500163
148	0xbdbdece0	-0.09273696
149	0x3cd5025e	0.026002105
150	0x3e16d4fb	0.14729683
151	0xbe03f65e	-0.1288695
152	0x3dd034a4	0.101662904
153	0xbeeca064	-0.46216118
154	0xbe569cca	-0.20958248
155	0xbdee6ddc	-0.11642048
156	0x3e15558c	0.14583415
157	0xbeb18982	-0.34675223
158	0xbe056ea4	-0.13030487
159	0xbe94fc2b	-0.2909864
160	0xbea07746	-0.31340998
161	0xbde873a1	-0.113501795
162	0x3e071ee3	0.13195376
163	0xbd5c1ebd	-0.05374025
164	0xbeb4950d	-0.35269967
165	0xbe2df30b	-0.16987245
166	0x3ee684ae	0.45023102
167	0xbd25e170	-0.040498197
168	0xbe6cd880	-0.23129463
169	0xbe8d5703	-0.27605447
170	0x3df1cab7	0.11806243
171	0xbd81e01f	-0.06341576
172	0x3e2a2339	0.16614999
173	0xbe829a90	-0.25508547
174	0x3db5464c	0.08851299
175	0xbd67b471	-0.056568567
176	0x3d0e81a2	0.034791596
177	0xbe02a00b	-0.12756364
178	0x3e1d6e34	0.1537407
179	0xbed5bd48	-0.41745973
180	0x3d78fe67	0.060789492
181	0xbd756177	-0.059907403
182	0xbd0e52a1	-0.03474677
183	0xbedb20c3	-0.42798433
184	0xbe356920	-0.17715883
185	0x3e51910a	0.20465484
186	0x3ccadb9c	0.024762921
187	0xbe45927a	-0.19294158
188	0xbec95980	-0.39326096
189	0x3e31c87b	0.17361633
190	0xbeb4d061	-0.3531523
191	0xbd5e3cff	-0.05425739
192	0xbc5e9e47	-0.013587541
193	0xbc06ef2b	-0.008235733
194	0xbe234e2b	-0.15947787
195	0xbe91562b	-0.28386053
196	0x3bd695ef	0.006548635
197	0xbea46577	-0.32108662
198	0x3e8d757d	0.276287
199	0xbe394525	-0.18092783
200	0xbe181e28	-0.14855254
201	0x3eb0b955	0.34516397
202	0x3e8a71f2	0.27040058
203	0xbd82d973	-0.063891314
204	0x3eaa5303	0.33266458
205	0x3e166cdb	0.14689963
206	0x3e0d0f41	0.1377535
207	0xbd89129e	-0.06693004
208	0xbe85762c	-0.2606672
209	0xbe690bde	-0.22758433
210	0xbe0c6ccf	-0.13713382
211	0xbeee2238	-0.46510482
212	0xbe6070e2	-0.21918061
213	0x3ddb66e5	0.10712985
214	0x3e3c9b36	0.18418583
215	0xbe665a5e	-0.2249541
216	0x3e8831c8	0.2660048
217	0xbe4daeda	-0.20086232
218	0x3e301f0a	0.1719934
219	0xbe40530d	-0.18781681
220	0xbeae393d	-0.34028044
221	0x3e8aac9e	0.2708482
222	0xbe0f805e	-0.14013812
223	0x3ea399b1	0.31953195
224	0x3e597016	0.21234164
225	0xbebfb024	-0.37439072
226	0x3eb4bf27	0.35302088
227	0x3da79ea5	0.08184556
228	0x3e441655	0.19149144
229	0xbea331bc	-0.31873882
230	0xbed35b38	-0.41280532
231	0x3eb6ee18	0.35728526
232	0xbe94b607	-0.29045126
233	0x3e71c398	0.2360977
234	0xbdb79410	-0.089637876
235	0xbd4870d3	-0.048935723
236	0xbed98cf3	-0.42490348
237	0x3cb91f21	0.022597851
238	0xbe538afc	-0.20658487
239	0xbe2c7bae	-0.16844055
240	0x3db76f16	0.08956735
241	0x3d4dbe09	0.05023006
242	0x3de7f884	0.113266975
243	0x3e9389b4	0.28815997
244	0x3e05a703	0.13051991
245	0x3d0a484e	0.03376036
246	0xbdce8485	-0.1008387
247	0xbe76433f	-0.2404909
248	0xbea45c11	-0.3210149
249	0x3e913608	0.28361535
250	0xbd772396	-0.06033667
251	0xbebcb60f	-0.3685765
252	0xbe8a887c	-0.27057254
253	0x3dd8acde	0.10579847
254	0xbdb3dcfa	-0.08782382
255	0xbeb841e0	-0.3598776
