sac/model/sac_discrete_lunar_lander_2023-05-03_23-21-28.pth (torch, 828335 bytes, 16 tensors)

fc1.weight f4 [256, 8]
0	0xbedb8bf7	-0.42880222
1	0x3ecc47bb	0.39898476
2	0x3ee7ad37	0.4524934
3	0xbde51f87	-0.11187654
4	0xbe400598	-0.18752134
5	0x3df1043c	0.11768386
6	0xbda671b9	-0.081271596
7	0xbe4031cc	-0.18768996
8	0x3ea39a2c	0.3195356
9	0x3e0367c1	0.12832548
10	0xbead3a5a	-0.3383358
11	0x3e2cb53d	0.16866012
12	0x3f1af935	0.6053651
13	0x3c12d790	0.008962527
14	0xbd20e878	-0.0392842
15	0xbd92f7c0	-0.07176161
16	0xbf06833c	-0.52544
17	0xbea27a59	-0.3173397
18	0xbdb6d7cd	-0.089278795
19	0xbea84fb9	-0.32873324
20	0x3edac6b3	0.4272972
21	0x3e04a0ad	0.12951918
22	0xbd185336	-0.03718873
23	0x3de2879b	0.11061021
24	0x3e24f325	0.16108377
25	0xbd25cb8c	-0.04047732
26	0xbe4867cd	-0.19570847
27	0x3e21212c	0.1573531
28	0x3f1484d3	0.58015174
29	0x3e959bcb	0.29220423
30	0xbf068597	-0.5254759
31	0x3e5f90f1	0.21832635
32	0x3e449cd1	0.19200446
33	0x3e20aafe	0.15690228
34	0x3e28a1e5	0.16468008
35	0xbeceac0a	-0.4036563
36	0x3da900a3	0.082520746
37	0xbee35858	-0.44403338
38	0x3e125c05	0.14292915
39	0xbe1311b6	-0.14362225
40	0xbd521f98	-0.05129966
41	0x3e606256	0.21912512
42	0x3f0e1b20	0.5551014
43	0xbf1473c1	-0.57989126
44	0xbd0ef909	-0.034905467
45	0xbeea5f6e	-0.45775932
46	0xbe094865	-0.13406523
47	0x3ec1483c	0.37750423
48	0xbec38046	-0.38183802
49	0xbe9f5a7c	-0.31123722
50	0xbed80d73	-0.4219776
51	0x3f183ab9	0.59464604
52	0x3ea4a94e	0.3216042
53	0xbe77cf3c	-0.24200147
54	0x3e97d833	0.29657134
55	0xbe9dd801	-0.3082886
56	0x3ebef611	0.3729711
57	0xbf377efa	-0.71678126
58	0x3f2927fe	0.6607665
59	0xbf4e4a6b	-0.805823
60	0xbcdb7729	-0.026790218
61	0xbea08f03	-0.3135911
62	0xbe90266e	-0.2815432
63	0xbd91c818	-0.07118243
64	0xbe67ac7e	-0.22624394
65	0x3f010dff	0.5041198
66	0x3d45a876	0.04825636
67	0xbcf40992	-0.02978972
68	0xbe4307e8	-0.19045985
69	0xbedc161d	-0.4298562
70	0x3d34f456	0.04417833
71	0x3de50a1a	0.11183567
72	0xbc6f05ee	-0.014588816
73	0x3dc24743	0.09486248
74	0x3d7a23d6	0.061069332
75	0x3d260002	0.04052735
76	0x3c188391	0.009308712
77	0xbcfcddf9	-0.030867564
78	0xbf5289ad	-0.82241327
79	0xbe70219b	-0.2345032
80	0x3f83830a	1.0274365
81	0x3e2e9244	0.17047983
82	0x3f37dcc4	0.71821237
83	0xbedd1327	-0.43178675
84	0xbe74f484	-0.239214
85	0xbe3b6c85	-0.18303116
86	0x3ea828b2	0.32843548
87	0xbe80eec0	-0.25182152
88	0x3bcfb4af	0.006338678
89	0xbe1de468	-0.15419161
90	0xbe14833a	-0.14503184
91	0xbe2a28b6	-0.16617092
92	0xbf6dd63e	-0.9290503
93	0x3e401825	0.1875921
94	0x3e9eb953	0.31000766
95	0xbd49d2fd	-0.04927348
96	0xbd1a89a2	-0.037728913
97	0xbc40e6e6	-0.0117738005
98	0xbdb248bd	-0.0870528
99	0x3d811455	0.06302706
100	0xbe485570	-0.19563842
101	0xbf88458c	-1.0646224
102	0x3cf02176	0.02931283
103	0x3e82156d	0.25406972
104	0x3d51aa0b	0.051187556
105	0xbd5e3859	-0.054252956
106	0x3e102450	0.14076352
107	0x3e12737e	0.1430187
108	0xbeb5a239	-0.3547533
109	0xbf78a078	-0.97119856
110	0xbe80e41c	-0.25174034
111	0xbebb07eb	-0.36529478
112	0xbec831dc	-0.3910054
113	0x3f58d574	0.84700704
114	0x3d2b419b	0.041810613
115	0xbed88dc1	-0.4229565
116	0x3d764c78	0.06013152
117	0x3a3acb91	0.00071256707
118	0xbeb08e8a	-0.3448375
119	0xbe8f905d	-0.28039828
120	0x3d80e75a	0.06294127
121	0x3c6b0a3b	0.014345701
122	0x3e69b7f6	0.22824082
123	0x3db83ff1	0.08996571
124	0xbd818074	-0.063233286
125	0xbf70bb2b	-0.94035596
126	0xbeaa5a7d	-0.33272162
127	0x3b9262e0	0.004467353
128	0x3e9d48a3	0.3071948
129	0xbfd7e548	-1.6866846
130	0x3dccf27d	0.100071885
131	0x3e4df948	0.20114625
132	0xbe5f33b2	-0.21797064
133	0xbf59ec75	-0.8512643
134	0x3dd00530	0.101572394
135	0x3e1b9f4a	0.15197483
136	0xbee0585d	-0.43817416
137	0x3f26770c	0.650254
138	0x3daff79e	0.08592151
139	0xbe1939d6	-0.14963469
140	0x3f2518ee	0.64491165
141	0xbe25d124	-0.16193062
142	0xbea6bb44	-0.32564747
143	0xbcda2d13	-0.026632821
144	0x3bd130bb	0.006383983
145	0x3eec99f7	0.46211216
146	0x3e997cf8	0.29978156
147	0xbe442718	-0.19155538
148	0xbecf67dc	-0.40508926
149	0xbc0ee784	-0.00872219
150	0xbef6a197	-0.48170158
151	0x3ef783cc	0.4834274
152	0x3da67cec	0.08129296
153	0xbea01323	-0.312646
154	0x3c3fc23b	0.011704023
155	0xbe62a92e	-0.2213485
156	0x3f03c505	0.514725
157	0x3dc67b80	0.096915245
158	0x3e444e3e	0.19170472
159	0xbe3c61e5	-0.18396719
160	0xbeae5514	-0.34049284
161	0x3efcd76f	0.49383113
162	0xbee8b869	-0.45453194
163	0x3e9677cc	0.29388273
164	0x3ca2f8a7	0.019893957
165	0xbdba5844	-0.090988666
166	0xbd8607b3	-0.06544437
167	0xbedde43b	-0.4333819
168	0x3e8cf505	0.27530685
169	0xbe31dd6e	-0.17369625
170	0x3e311ed6	0.17296919
171	0xbd49db77	-0.049281564
172	0xbeb0a707	-0.34502432
173	0x3f88599d	1.0652348
174	0x3ea9d16d	0.33167592
175	0x3d8c3618	0.06846255
176	0xbf52d95d	-0.8236292
177	0x3e93e59b	0.28886113
178	0xbf402d5d	-0.7506922
179	0xbda6ba00	-0.081409454
180	0xbdc3fcf9	-0.09569735
181	0x3dae09e4	0.0849798
182	0xbe93a3a5	-0.28835788
183	0xbe92ffe1	-0.28710845
184	0x3f017968	0.50575876
185	0x3ec11008	0.37707543
186	0xbe0bdd4f	-0.13658641
187	0x3ead5df1	0.33860734
188	0x3efa68b1	0.48907998
189	0x3eef957b	0.46793732
190	0xbe5b814e	-0.21436045
191	0xbefb2750	-0.4905343
192	0x3e0b2c75	0.13591178
193	0x3dc5ff0e	0.096677884
194	0xbf014814	-0.5050061
195	0xbebd50d1	-0.3697572
196	0x3f10f557	0.5662436
197	0x3e83feef	0.25780436
198	0xbd2186ee	-0.03943532
199	0xbea253ee	-0.31704658
200	0x3c1da006	0.009620672
201	0xbf8e7a22	-1.1131022
202	0x3f148f98	0.58031607
203	0xbe17f11b	-0.14838068
204	0x3da212b5	0.07913724
205	0xbf7e648f	-0.9937219
206	0x3dc94ebf	0.09829473
207	0xbe8f4688	-0.279835
208	0xbdccc223	-0.09997966
209	0x3ebe83d8	0.37209964
210	0xbda0f62e	-0.07859455
211	0x3d032781	0.032020096
212	0x3f0c26af	0.54746526
213	0x3dcc6d37	0.099817686
214	0xbed37131	-0.41297296
215	0xbe824500	-0.25443268
216	0x3e696c38	0.22795188
217	0x3ee126a9	0.43974808
218	0xbc3e677b	-0.011621351
219	0x3e5df246	0.21674451
220	0x3d505e69	0.050871287
221	0xbe07651d	-0.13222165
222	0xbf0ef0e5	-0.55836326
223	0x3d5d6f69	0.054061327
224	0x3eeceeaa	0.46275836
225	0xbf33798c	-0.7010734
226	0x3f144d94	0.57930875
227	0xbf0c3ac1	-0.5477715
228	0xbdf31f44	-0.11871198
229	0x3d8dab5b	0.06917449
230	0x3ec837f1	0.3910518
231	0x3f0babfe	0.54559314
232	0xbdedb286	-0.11606316
233	0x3ec540ba	0.38525945
234	0x3e5841e3	0.21118884
235	0x3de25184	0.11050704
236	0x3dfa3a2c	0.12218127
237	0xbc5c5bfb	-0.013449664
238	0x3cb08708	0.021548763
239	0x3e0583c6	0.13038549
240	0xbea87ab9	-0.3290613
241	0x3eab6d9f	0.33482072
242	0xbea0a303	-0.31374368
243	0xbeb24bd7	-0.34823486
244	0x3f18c0f4	0.59669423
245	0x3e961ac1	0.29317287
246	0xbe866201	-0.26246646
247	0xbeb7a2bc	-0.35866344
248	0x3dcee7e3	0.10102823
249	0x3dbf80f4	0.09350768
250	0x3eae12c6	0.33998698
251	0x3e269f8b	0.16271798
252	0xbec99647	-0.39372465
253	0xbf60126b	-0.87528104
254	0xbe95e663	-0.29277334
255	0x3e52bb64	0.20579296

fc1.bias f4 [256]
0	0x3e16c4e7	0.1472355
1	0x3ed6b3dd	0.419341
2	0x3d7c437c	0.061587796
3	0x3ec6f13d	0.38855925
4	0xbc75174f	-0.0149591705
5	0x3e0f4564	0.13991314
6	0xbe50f6ea	-0.2040669
7	0x3e4383f3	0.19093303
8	0x3d3e235b	0.046420436
9	0x3edd5900	0.43231964
10	0xbed05e77	-0.4069707
11	0x3ebf5309	0.37368038
12	0x3ddf1a48	0.108936846
13	0x3e93bca0	0.28854847
14	0x3f0e7334	0.55644536
15	0x3e2bf47b	0.1679248
16	0x3d4436fa	0.047903992
17	0x3ec12c6f	0.37729213
18	0x3f31caed	0.69450265
19	0x3ea65c38	0.32492232
20	0xbdfde23e	-0.12396668
21	0x3e55e576	0.20888314
22	0xbeaee40e	-0.34158367
23	0x3e2fd934	0.171727
24	0x3e93b3f0	0.2884822
25	0x3d0715c8	0.032979757
26	0x3dd90f25	0.10598592
27	0x3d43de85	0.047819633
28	0x3e7781df	0.24170636
29	0x3d03d3b4	0.032184318
30	0x3f0d2b44	0.55144143
31	0xbd0d808b	-0.034546416
32	0xbeac530e	-0.33657116
33	0x3e934ac0	0.28767967
34	0x3ebf0b9a	0.3731354
35	0xbdb939ef	-0.09044253
36	0xbeb19078	-0.34680533
37	0xbe7a348f	-0.24434112
38	0x3ee975a9	0.4559758
39	0x3e13e52e	0.14442894
40	0xbe5ccf31	-0.21563412
41	0x3ee793b7	0.45229885
42	0xbd219ad7	-0.039454307
43	0xbe96ca28	-0.29451108
44	0x3f0fc4f9	0.5615993
45	0xbe9685af	-0.29398867
46	0x3d126bcf	0.035747346
47	0xbe417053	-0.18890505
48	0x3ea304d4	0.3183962
49	0x3ecb4a42	0.39705092
50	0xbebc878e	-0.3682217
51	0x3e98b6ad	0.2982687
52	0xbe1dcabc	-0.15409368
53	0x3ea34011	0.31884816
54	0x3efc447a	0.49270993
55	0x3de0a18c	0.109683126
56	0xbf2a5d54	-0.6654866
57	0xbdd8b857	-0.10582035
58	0x3e5e8556	0.21730551
59	0xbda90750	-0.08253348
60	0x3dd088c7	0.10182338
61	0x3ee63746	0.44964045
62	0x3de0be83	0.10973837
63	0xbd8c266a	-0.068432644
64	0x3ecea2ab	0.4035848
65	0x3eb8a2ec	0.360618
66	0xbecf1875	-0.40448347
67	0x3ebe4e47	0.37169096
68	0x3e2f6955	0.17130025
69	0xbd4f5312	-0.05061633
70	0x3f564fbd	0.8371542
71	0x3e83c73d	0.25737944
72	0x3f1277ba	0.5721394
73	0xbe94bd89	-0.29050854
74	0x3def1bcd	0.116752245
75	0xbe5f9bf8	-0.21836841
76	0x3ed139a3	0.40864286
77	0x3f36161e	0.711275
78	0x3e0b0cd4	0.13579112
79	0x3ed3e8fb	0.41388687
80	0x3dbc498e	0.09193717
81	0x3f4e0d0a	0.80488646
82	0x3eb71e18	0.35765147
83	0x3ed4eb0e	0.41585582
84	0x3ee72d1c	0.45151603
85	0x3e585779	0.21127118
86	0x3ee1dc30	0.44113302
87	0xbe1a4cf4	-0.15068418
88	0x3f1dfd27	0.61714405
89	0x3f171fdc	0.5903299
90	0xbcdd9dd0	-0.02705279
91	0x3e488775	0.19582923
92	0xbb7c70e6	-0.003851944
93	0x3f2fc289	0.6865621
94	0x3e16b8e6	0.1471897
95	0x3f11dde5	0.5697921
96	0xbdbd0b20	-0.092306376
97	0xbc7c64cb	-0.01540489
98	0xbea8aff7	-0.3294675
99	0x3e3601be	0.17774102
100	0x3e9cbec4	0.30614293
101	0x3dac66eb	0.084180675
102	0xbe2a7c55	-0.16648991
103	0x3e9f81b9	0.31153658
104	0x3f3ec262	0.74515355
105	0xbdce6b37	-0.10079043
106	0x3eb1107e	0.34582895
107	0x3e431fc3	0.19055085
108	0x3ed1028e	0.40822262
109	0x3ebebc85	0.37253204
110	0xbeeb0c3e	-0.45907778
111	0xbd32f720	-0.043692708
112	0x3eaaf493	0.3338972
113	0x3e982b40	0.29720497
114	0x3f17fa5a	0.5936638
115	0x3f36abe0	0.7135601
116	0xbe16f4db	-0.14741842
117	0x3d633b52	0.055476494
118	0xbe07bba1	-0.13255168
119	0x3eb20fe0	0.34777737
120	0x3e08a5da	0.13344517
121	0x3e6dedbd	0.23235221
122	0xbd88bf01	-0.06677056
123	0x3f02d994	0.5111325
124	0x3d70ada2	0.05875934
125	0x3f11c8b4	0.56946874
126	0x3e29ee53	0.1659482
127	0xbb89f1fb	-0.0042097545
128	0x3eeded75	0.46470228
129	0x3e216e1a	0.15764657
130	0x3dfd759b	0.12375947
131	0x3f022693	0.5084011
132	0x3ddf7018	0.10910052
133	0x3f3ce36e	0.7378453
134	0x3e5ae7ae	0.21377441
135	0x3edd3bd6	0.43209714
136	0x3e83c61e	0.2573709
137	0xbd42e548	-0.04758194
138	0x3efc47b4	0.49273455
139	0xbdfa5ca6	-0.122247025
140	0x3eea2d2e	0.45737594
141	0xbea13d46	-0.3149206
142	0x3da156cc	0.07877883
143	0x3ef4f76d	0.4784502
144	0xbf0f046a	-0.5586611
145	0x3ea52155	0.32251993
146	0x3dea50cd	0.11441193
147	0xbee4108a	-0.44543868
148	0x3e3032c3	0.17206864
149	0xbdd38fcb	-0.10330161
150	0xbe3d45ad	-0.1848361
151	0x3cdab23d	0.026696319
152	0x3ed0b87f	0.4076576
153	0x3cc04f88	0.023475423
154	0xbf0c028f	-0.54691404
155	0xbe16800c	-0.14697284
156	0x3efb442d	0.49075451
157	0xbd233980	-0.03984976
158	0x3edc7c9d	0.43063822
159	0x3e97306b	0.29529127
160	0x3d8fa400	0.070137024
161	0x3de1d48a	0.11026867
162	0xbeec3134	-0.4613129
163	0x3dc3a981	0.09553815
164	0x3e7e5005	0.24835213
165	0x3ed545ee	0.41654915
166	0x3f0c36e2	0.54771245
167	0xbd33c5ee	-0.043889932
168	0x3e499104	0.19684225
169	0x3ebcec95	0.36899248
170	0x3ed07698	0.4071548
171	0x3e62224e	0.22083399
172	0x3decc387	0.115607314
173	0x3e7473a3	0.23872237
174	0x3ecd5a60	0.40108013
175	0x3f2b5cbf	0.66938394
176	0x3c6600ea	0.014038304
177	0x3ce6b917	0.02816443
178	0xbd94b0ee	-0.07260309
179	0x3f23d83c	0.6400182
180	0x3ecf1ac4	0.40450108
181	0x3e987439	0.2977617
182	0x3ed3a226	0.41334647
183	0x3e84db1d	0.2594842
184	0x3ea95f7a	0.33080655
185	0xbe464b60	-0.19364691
186	0x3e6b5ae9	0.22983898
187	0x3e9e29e7	0.30891344
188	0x3db56c35	0.088585295
189	0x3f0ded6d	0.5544041
190	0xbea6dbdb	-0.3258961
191	0xbc2f11e8	-0.0106854215
192	0x3f0d73d4	0.55254865
193	0x3da7ad76	0.08187382
194	0xbe5bd438	-0.21467674
195	0xbba19b54	-0.0049318466
196	0xbd9e4f39	-0.07729954
197	0xbd4ee66b	-0.050512712
198	0xbd309c75	-0.04311796
199	0x3e297c02	0.16551211
200	0xbee9592d	-0.45575848
201	0xbe1bb418	-0.15205419
202	0x3eb2b349	0.3490241
203	0x3e687531	0.22700955
204	0x3d0e1251	0.034685437
205	0x3e3a2dc3	0.18181519
206	0x3dcd020f	0.10010158
207	0x3dfab6ac	0.12241873
208	0x3d6f24d4	0.05838473
209	0xbd7dd190	-0.061967432
210	0xbd86b3b8	-0.065772474
211	0xbe8f5852	-0.2799707
212	0xbbe49bba	-0.006976572
213	0xbeca1605	-0.39469925
214	0x3e1ea445	0.15492351
215	0x3d5bc803	0.053657543
216	0xbd639b4c	-0.055568025
217	0x3dfafdb4	0.12255421
218	0x3f38b19d	0.72146016
219	0x3e03bfec	0.12866181
220	0xbd109703	-0.035300266
221	0x3da42d34	0.08016434
222	0xbe555f9d	-0.20837255
223	0xbc96b35b	-0.01839607
224	0x3df08ab3	0.11745205
225	0x3d813312	0.06308569
226	0x3e06ea83	0.13175397
227	0xbde7a65e	-0.11311029
228	0xbe835b98	-0.25655818
229	0xbe4e213f	-0.2012987
230	0x3d0e9955	0.034814198
231	0x3edd7d94	0.4325987
232	0x3f20fa6e	0.62882125
233	0x3f2d374a	0.6766249
234	0xbe7f056f	-0.24904417
235	0x3ecabff5	0.39599577
236	0x3ef6d7d9	0.48211554
237	0x3e1adda4	0.15123612
238	0x3e18f106	0.14935693
239	0x3d70973d	0.058737982
240	0x3e2a9046	0.16656598
241	0x3f23c331	0.63969713
242	0xbe6a2727	-0.22866498
243	0x3e3200b2	0.17383078
244	0x3ebebd54	0.3725382
245	0x3ef389de	0.47566122
246	0xbef7e557	-0.4841716
247	0x3e20e54f	0.15712474
248	0x3eb6490c	0.35602605
249	0x3ecf6e57	0.4051387
250	0xbd76465d	-0.060125697
251	0x3e8e4513	0.27787074
252	0x3e3d3432	0.18476942
253	0x3e4bd513	0.199055
254	0x3e429229	0.19001068
255	0x3d706b58	0.05869612

fc2.weight f4 [256, 256]
0	0xbd5edc9c	-0.05440961
1	0xbd8b825d	-0.06811974
2	0xbcea156a	-0.028574664
3	0x3c397229	0.011318722
4	0x3cac6d5c	0.02104824
5	0x3c87fe65	0.016600797
6	0xbd161a0e	-0.03664594
7	0xbc8c37e5	-0.017116496
8	0xbcbd498e	-0.023106363
9	0x3c7720f4	0.01508354
10	0xbca1182f	-0.019664852
11	0xbd140cf1	-0.036145154
12	0xbca689ec	-0.020329438
13	0xbd5c51dc	-0.053789005
14	0x3cfd4dde	0.030920919
15	0xbd1b9454	-0.037983254
16	0xbd340e77	-0.043959107
17	0xbcc52107	-0.0240636
18	0xbcfdcc2b	-0.030981144
19	0x3d009d23	0.031399857
20	0x3d7acb72	0.061229177
21	0x3d2bd5c9	0.04195193
22	0xbd6a4458	-0.057194084
23	0x3d4986c9	0.049200807
24	0xbd2a900a	-0.041641273
25	0x3cde9977	0.027172787
26	0xbccd65f8	-0.025073037
27	0xbd7d45ad	-0.061834026
28	0x3cfdec69	0.030996518
29	0x3cf2fccf	0.029661564
30	0x3d31571a	0.043295957
31	0xbd0877bd	-0.033317316
32	0xbd1bc7fa	-0.03803251
33	0x3d729a8a	0.05922941
34	0xbcfadf65	-0.030624101
35	0x3c9f59a9	0.019451933
36	0xbd75363a	-0.059866168
37	0xbcce0c9a	-0.025152493
38	0x3c928b75	0.017888764
39	0x3c543e0c	0.012954246
40	0x3d335d36	0.043790065
41	0xbc5f89dc	-0.013643708
42	0xbd5c3aa3	-0.053766858
43	0xbd54c062	-0.051941283
44	0x3d3c7fab	0.04602019
45	0x3c8dfd59	0.01733272
46	0x3d63a274	0.05557485
47	0x3c25fdfa	0.0101313535
48	0x3cd8579d	0.026408965
49	0xbd267b98	-0.040645212
50	0x3d21cb06	0.03950026
51	0xbd7c16ee	-0.061545305
52	0x3cb968bc	0.022632949
53	0xbd4ad07d	-0.049515236
54	0x3ca16468	0.019701198
55	0xbcf79874	-0.030224063
56	0xbd5d98f4	-0.054100946
57	0xbc548108	-0.012970217
58	0x3d5e2d73	0.054242563
59	0xbd3c5401	-0.04597855
60	0x3cfa17d0	0.030528933
61	0x3cd5a5b7	0.026079996
62	0xbb5dd033	-0.003384602
63	0x3d70913f	0.058732267
64	0xbcc6c4fd	-0.024263853
65	0x3d004b82	0.03132201
66	0x3d15a64e	0.036535554
67	0xbcfc5993	-0.030804431
68	0xbd0f3d1e	-0.034970395
69	0xbc95ce0f	-0.018286733
70	0x3c253584	0.01008356
71	0x3d19a9bb	0.037515383
72	0x39948e00	0.00028334558
73	0x3ce44f26	0.027869772
74	0xbd5d19ae	-0.05397957
75	0xbc329538	-0.010899834
76	0xbc1008bb	-0.008791144
77	0xbd8dec97	-0.069298916
78	0x3d614a04	0.055002227
79	0x3cbeb479	0.023279415
80	0xbd3ccb04	-0.04609205
81	0xbd577fcb	-0.052612107
82	0xbd060f93	-0.032729696
83	0x3d940c64	0.07228926
84	0x3ca07121	0.019585194
85	0x3d1cba31	0.038263503
86	0x3d119226	0.03553977
87	0x3ccd6ac4	0.025075324
88	0xbcc8afb4	-0.024497844
89	0x3d277dcf	0.040891465
90	0x3c40f491	0.011777059
91	0x3be644e4	0.0070272554
92	0x3d68543e	0.056720965
93	0x3c2262ff	0.009911298
94	0x3c998360	0.018739402
95	0xbd6d0dbd	-0.05787443
96	0xbd66f9b2	-0.05639047
97	0xbcada427	-0.021196438
98	0xbd6d120e	-0.057878546
99	0xbd869b37	-0.06572574
100	0xbd35ce8a	-0.044386424
101	0xbd9a4ce1	-0.07534195
102	0x3c8f0dfa	0.01746272
103	0xbd09f065	-0.033676524
104	0x3d444a21	0.047922257
105	0xbd3483dc	-0.044071063
106	0xbd88a306	-0.06671719
107	0xbbd5819f	-0.006515696
108	0xbcc6dd52	-0.024275456
109	0x3d63af45	0.055587072
110	0x3d42c68c	0.04755263
111	0x3d826740	0.063673496
112	0x3d46fb1e	0.048579328
113	0xbd0da8af	-0.034584697
114	0xbd70cd60	-0.05878961
115	0xbd470441	-0.04858804
116	0xbd2a2ec0	-0.04154849
117	0xbd64d25a	-0.05586467
118	0x3ce4af56	0.027915638
119	0xbd4d3db7	-0.050107684
120	0xbd0339ce	-0.03203755
121	0x3d3b2d49	0.045697484
122	0xbc0b1008	-0.008487709
123	0xbd6d58ab	-0.05794589
124	0x3c80a10c	0.015701793
125	0xbc92ac87	-0.017904533
126	0xbd94f76b	-0.07273754
127	0x3cf46ba7	0.029836489
128	0x3d1a9330	0.037738025
129	0xbc9cac54	-0.019125141
130	0x3d64654a	0.05576066
131	0xbce1e35d	-0.027574236
132	0xbb5de18e	-0.0033856365
133	0xbc923e70	-0.017852038
134	0x3d3c8cad	0.046032596
135	0x3d00648f	0.0313459
136	0xbd0cdffc	-0.034393296
137	0xbd00cab0	-0.031443298
138	0xbce74048	-0.028228894
139	0xbc44243c	-0.01197153
140	0x3c35f8b8	0.011106662
141	0xbd5d700e	-0.05406194
142	0x3caa99fd	0.02082538
143	0xbcf3b832	-0.029750917
144	0x3bf86919	0.007580888
145	0xbcb16408	-0.021654144
146	0xbd022778	-0.03177592
147	0xbad9ed80	-0.0016626567
148	0x3cbeba13	0.023282086
149	0xbc3a4b14	-0.011370439
150	0x3d41279f	0.047156926
151	0x3d6dc2c9	0.05804709
152	0xbcd5ce48	-0.02609934
153	0x3d8190fb	0.06326481
154	0x3c8d2ec7	0.01723422
155	0xbd4ec25e	-0.05047833
156	0xbcf1ec9b	-0.029531768
157	0x3c624b24	0.01381186
158	0xbc1681f0	-0.009186253
159	0x3d071c94	0.03298624
160	0x3c7cfe6c	0.015441518
161	0x3b9b3666	0.0047367094
162	0xbad11e90	-0.0015954543
163	0xbbcd3317	-0.006262194
164	0xbcb79a93	-0.022412574
165	0x3d4a61a1	0.049409512
166	0xbd686070	-0.056732595
167	0xbd4fde08	-0.050748855
168	0x3c37da75	0.011221518
169	0x3cba06af	0.022708265
170	0xbd301b6d	-0.042994905
171	0xbd17a167	-0.03701916
172	0xbc45896f	-0.0120566925
173	0xba1190c8	-0.0005552885
174	0xbd92ee3c	-0.07174346
175	0xbc0edac9	-0.008719155
176	0x3cddaa86	0.027058851
177	0xbd359aeb	-0.044337194
178	0xbd47e054	-0.04879792
179	0xbd094e6a	-0.033522047
180	0x3d3618ba	0.044457175
181	0xbc825738	-0.01591073
182	0x3c752542	0.014962496
183	0xbd0b9a15	-0.03408249
184	0xbd1c439c	-0.038150415
185	0x3c90da70	0.017682284
186	0x3c8aa42d	0.016923988
187	0x3d218eed	0.039442945
188	0xbd399618	-0.045309156
189	0xbd3d193f	-0.046166655
190	0xbd39642a	-0.04526154
191	0x3b629b9c	0.0034577614
192	0xbd1be5c8	-0.038060933
193	0xbc8d31a9	-0.017235594
194	0xbd3b3d64	-0.045712844
195	0xbd4c0920	-0.04981339
196	0x3d6fd86f	0.058556017
197	0xbd77f313	-0.060534548
198	0x3d679972	0.05654282
199	0xbc1bc818	-0.009508155
200	0xbd9aadd6	-0.07552688
201	0xbcbb45cd	-0.022860432
202	0x3b97b629	0.0046298695
203	0x3c11354f	0.008862807
204	0x3d5fca94	0.054636553
205	0xbd871246	-0.06595282
206	0xbd7fd0c0	-0.06245494
207	0x3b369b53	0.0027863577
208	0x3ccaea44	0.02476991
209	0x3d720e20	0.059095502
210	0x3b886685	0.004162612
211	0x3ca5c8c9	0.020237343
212	0xbd6fb7c3	-0.05852486
213	0xbd09e077	-0.033661332
214	0x3c0007c6	0.007814353
215	0xbc6c5800	-0.014425278
216	0xbd628a3b	-0.055307608
217	0xbd34b749	-0.044120107
218	0x3d412791	0.047156874
219	0x3d713944	0.058892503
220	0x3d1e273c	0.038611636
221	0xbd20f441	-0.03929544
222	0xbd91d02b	-0.07119783
223	0xbd4afa4c	-0.049555108
224	0xbcd32237	-0.02577315
225	0x3becbee6	0.0072249053
226	0x3d1d0a13	0.038339686
227	0x3b920cfb	0.004457114
228	0x3d78929f	0.060686704
229	0xbd4512a6	-0.048113488
230	0x3d05e922	0.032693036
231	0x3d1c32c2	0.038134344
232	0xbd8d1a65	-0.068898
233	0xbca1b794	-0.019740857
234	0x3d602eab	0.054732006
235	0x3d08df59	0.033416126
236	0x3cd695e0	0.026194513
237	0x3c8119ce	0.015759375
238	0x3c1ec1e4	0.009689782
239	0xbc9cf585	-0.019160042
240	0xbd2cbcdd	-0.0421723
241	0xbd8d299a	-0.068927005
242	0xbcfb474c	-0.030673645
243	0xbcb93e6c	-0.022612773
244	0xbd972b4d	-0.07381306
245	0xbd8b46eb	-0.06800636
246	0x3cd94c42	0.02652562
247	0xbc8524a0	-0.016252816
248	0xbaeac26c	-0.0017910725
249	0x3ca3ac7b	0.019979706
250	0xbd0a71e7	-0.033800032
251	0xbc4fa608	-0.012673862
252	0xbd3718c5	-0.044701356
253	0xbd43b5e2	-0.04778088
254	0xbd4f4760	-0.050605178
255	0xbb02dc94	-0.00199679

fc2.bias f4 [256]
0	0xba7680ba	-0.0009403337
1	0x3e880846	0.26568812
2	0x3e5ccc0e	0.21562216
3	0x3ea2f87b	0.318302
4	0xbd3c7fcf	-0.046020325
5	0x3ea345fa	0.31889325
6	0xbe1ef961	-0.15524818
7	0x3e84beb2	0.2592674
8	0xbc597c96	-0.0132743325
9	0x3d877305	0.06613735
10	0x3c6fd696	0.014638564
11	0x3e2a8f48	0.1665622
12	0x3e929178	0.2862661
13	0x3e6ecc2e	0.23320076
14	0xbd2f5f5e	-0.04281556
15	0x3ec155ab	0.37760672
16	0xbd2c234d	-0.042025853
17	0x3eab8cbe	0.33505815
18	0xbe22a63b	-0.15883724
19	0x3e662a7c	0.22477144
20	0x3e3feb1b	0.1874203
21	0x3e94b450	0.29043818
22	0xbd41de4e	-0.047331147
23	0x3e8909c0	0.2676525
24	0xbd782e16	-0.060590826
25	0xbd7dccaa	-0.06196276
26	0xbc7b83db	-0.015351261
27	0x3e6f3b32	0.23362425
28	0x3ebb1923	0.36542615
29	0x3cc816cd	0.024424935
30	0xbc0e4a89	-0.008684763
31	0xbe1591da	-0.14606419
32	0x3e992b1f	0.2991571
33	0xbd7983bd	-0.06091665
34	0x3d0a55f0	0.033773363
35	0xbd85774e	-0.06516896
36	0x3e958c81	0.29208758
37	0x3e8530f1	0.26013902
38	0x3e816af4	0.2527691
39	0x3e909082	0.2823525
40	0x3e8a7df5	0.27049223
41	0x3e8f7022	0.28015238
42	0x3d4e1b8b	0.050319236
43	0xbcca4a1c	-0.024693541
44	0x3cbfa705	0.02339507
45	0x3e5c45b5	0.21510966
46	0xbcdd835c	-0.027040176
47	0x3d292a11	0.041299883
48	0x3ef3611b	0.47535023
49	0xbe3f05a5	-0.18654497
50	0xbca93409	-0.020654695
51	0x3e6b17d5	0.2295831
52	0xbc6e38bf	-0.0145398965
53	0xbd1ce40b	-0.038303416
54	0x3ea46b63	0.3211318
55	0x3ea8c1b3	0.3296028
56	0x3e72ae48	0.23699296
57	0x3e744313	0.23853712
58	0x3eb670b0	0.3563285
59	0xbd411ea6	-0.04714837
60	0x3e9adfae	0.3024878
61	0xbdc5aa09	-0.09651572
62	0x3ec7a53c	0.3899325
63	0xbd07e319	-0.03317556
64	0xbc8e75dc	-0.017390184
65	0x3e6e2353	0.23255663
66	0xbe287b98	-0.16453397
67	0x3ecb896d	0.39753285
68	0x3d3a799f	0.045526143
69	0x3cc85c4e	0.024458077
70	0xbe0bd393	-0.13654928
71	0x3e8e839e	0.2783479
72	0x3d36ae51	0.044599835
73	0xbe0a9a54	-0.13535434
74	0x3ea368dd	0.31915942
75	0xbd87b7f6	-0.06626885
76	0xbd5c4222	-0.053774007
77	0x3e6870dd	0.22699304
78	0xbd5512b6	-0.052019797
79	0x3e21d0e6	0.15802345
80	0xbe5bbe2c	-0.21459264
81	0xbccfab9c	-0.025350384
82	0xbd908dbd	-0.070582844
83	0x3e89b32e	0.26894516
84	0xbd96853f	-0.073496334
85	0xbd9d9384	-0.07694152
86	0x3e7faf29	0.24969162
87	0x3ea0bbda	0.3139332
88	0xbe439de0	-0.19103193
89	0xbc931fbd	-0.01795947
90	0xbc068faa	-0.008212963
91	0x3e7f4a7c	0.24930757
92	0xbd331508	-0.04372123
93	0x3e94c60c	0.29057348
94	0x3e8ca96d	0.27473012
95	0xbdbf339c	-0.093360156
96	0xbdcfcba0	-0.1014626
97	0x3e9076fa	0.28215772
98	0xbd58a466	-0.052891158
99	0x3e6af8cb	0.2294647
100	0x3ebf6c52	0.3738733
101	0x3e90c96c	0.28278673
102	0xbd855055	-0.06509463
103	0xbdc26320	-0.09491563
104	0x3d021c15	0.031765062
105	0x3d8931cc	0.06698951
106	0x3e61fd45	0.22069271
107	0x3e9398fd	0.28827658
108	0xbd42b7e0	-0.047538638
109	0xbdfb7efa	-0.12280078
110	0x3ea7b7b5	0.32757345
111	0xbe324240	-0.17408085
112	0x3e77819d	0.24170537
113	0x3eb57eac	0.35448205
114	0xbe1f6e96	-0.15569529
115	0x3e6f43e0	0.23365736
116	0x3eaa9738	0.33318496
117	0xba2d7ac3	-0.0006617719
118	0x3eeb9c58	0.46017718
119	0xbd4688e8	-0.048470408
120	0xbd97ca33	-0.07411613
121	0x3ebcf17d	0.3690299
122	0xbd5d7d63	-0.054074656
123	0x3eb2eb76	0.34945267
124	0x3ea542b6	0.3227746
125	0x3ea53c99	0.32272795
126	0x3e8e19db	0.277541
127	0x3e6806f7	0.22658907
128	0x3e74687c	0.23867983
129	0x3e99d7db	0.30047497
130	0x3c8e5bd5	0.017377773
131	0x3d4af86e	0.049553327
132	0x3e12a9b7	0.14322554
133	0x3d183680	0.03716135
134	0x3d2c55e9	0.042074118
135	0xbc26a28a	-0.010170588
136	0x3cd7fa3b	0.026364436
137	0x3eb53561	0.35392287
138	0x3e87054b	0.26371226
139	0x3ea4e192	0.32203346
140	0x3e831b41	0.2560673
141	0x3e3c0d76	0.1836451
142	0xbd8c8e11	-0.068630345
143	0x3ea99c49	0.3312705
144	0xbe6be26e	-0.23035595
145	0x3d295fa9	0.041350994
146	0xbd109b67	-0.035304453
147	0xbe0bb9d6	-0.1364511
148	0xbe2629a5	-0.16226824
149	0xbd8730ea	-0.066011265
150	0xbd16ac37	-0.03678533
151	0xbddb0988	-0.10695177
152	0x3ea51383	0.3224145
153	0x3e8d9699	0.2765396
154	0x3e6b9f4d	0.23009987
155	0xbdaa95c7	-0.08329349
156	0x3e7d4639	0.24733819
157	0xbc98667d	-0.018603558
158	0x3e982d41	0.29722026
159	0x3e4a2b8d	0.19743176
160	0x3c675fd2	0.014121966
161	0x3e97c606	0.29643267
162	0x3cf3c357	0.029756231
163	0xbd971d10	-0.0737859
164	0xbd777283	-0.06041194
165	0x3e6725ab	0.22572963
166	0x3e339cd8	0.175403
167	0x3e9a398f	0.3012204
168	0x3e8e3391	0.27773717
169	0x3e96e1c0	0.2946911
170	0x3e4de25d	0.20105882
171	0xbad61f7e	-0.001633629
172	0x3ead7791	0.33880284
173	0xbceafa4e	-0.028683808
174	0x3eac52b9	0.33656862
175	0x3e74c13d	0.2390184
176	0xbab4e0c4	-0.0013799896
177	0x3e7caf63	0.2467628
178	0xbc811fa3	-0.015762156
179	0x3ea4519f	0.32093522
180	0xbd8ea3f7	-0.069648676
181	0x3e9a62b2	0.30153424
182	0x3ebe6cb5	0.37192312
183	0xbd15f1ec	-0.036607668
184	0x3ea8f525	0.3299953
185	0xbe227390	-0.15864396
186	0xbd474cf7	-0.048657384
187	0xbd7ad75f	-0.06124055
188	0xbd4685e1	-0.04846752
189	0xbe80895a	-0.2510479
190	0x3b55ec68	0.003264213
191	0x3e705379	0.23469342
192	0xbd10a2b6	-0.035311423
193	0x3eb285f8	0.34867835
194	0x3dff73f5	0.12473289
195	0x3eac371a	0.3363579
196	0x3ea456ad	0.32097378
197	0x3ebe5bd7	0.37179443
198	0xbcade128	-0.021225527
199	0xbb5b7fdc	-0.0033492958
200	0x3e63750e	0.22212622
201	0xbdb9add4	-0.09066358
202	0x3ca37bdf	0.019956527
203	0xbd7bf2ea	-0.061510958
204	0x3e97db1a	0.2965935
205	0xbd548d54	-0.051892594
206	0x3ebe935d	0.37221804
207	0x3e97f8a0	0.29681873
208	0x3b4d09ba	0.0031286315
209	0x3e5c02c5	0.21485431
210	0xbd126f21	-0.035750512
211	0x3ec9bd30	0.3940215
212	0x3e8a50ed	0.27014866
213	0x3e7c42f7	0.2463492
214	0x3eb82b0a	0.35970336
215	0x3e8dd08f	0.2769818
216	0x3e8a0538	0.26957107
217	0x3e9e6258	0.30934405
218	0x3ea83b66	0.32857817
219	0xbd5c5033	-0.05378742
220	0xbe22d917	-0.15903126
221	0xbdf39a2c	-0.1189464
222	0x3e8d3034	0.2757584
223	0xbcd3838d	-0.025819564
224	0x3e6869ae	0.22696564
225	0x3e6f1e4e	0.23351404
226	0x3ea8051e	0.32816404
227	0x3c8eb387	0.01741959
228	0x3ea8488b	0.32867846
229	0xbde08866	-0.10963516
230	0xbcfd59f3	-0.03092668
231	0xbd5272e3	-0.051379096
232	0x3e6b6a9f	0.22989891
233	0x3e8bdde4	0.27317727
234	0x3eca15a6	0.3946964
235	0x3e7ac570	0.24489379
236	0x3e7577e3	0.23971514
237	0xbd85c09e	-0.065308794
238	0xbd24cfb9	-0.040237162
239	0x3ea790dc	0.32727706
240	0x3e8c8ff4	0.27453578
241	0x3e729b79	0.2369212
242	0xbdebce95	-0.11514012
243	0x3d88775e	0.066633925
244	0x3e83d8d6	0.2575137
245	0x3ea3770e	0.3192677
246	0x3e899d43	0.26877794
247	0xbcbd7377	-0.023126347
248	0x3e888797	0.26665947
249	0x3e8c04de	0.27347463
250	0x3b6869d9	0.003546348
251	0x3da1b1c1	0.07895232
252	0xbd810f3b	-0.06301733
253	0x3e6b2290	0.22962403
254	0x3e341aa1	0.17588283
255	0xbe13fed6	-0.14452681

fc3.weight f4 [1, 256]
0	0xbd3146b1	-0.043280307
1	0xbede4c55	-0.43417612
2	0xbeb51c2b	-0.35373053
3	0xbeb16cf9	-0.34653452
4	0x3f5a28b1	0.8521834
5	0xbea45a13	-0.3209997
6	0x3f2e372c	0.68052936
7	0xbeb5c1e1	-0.3549948
8	0x3f28f237	0.6599459
9	0x3f4bf5c5	0.7967189
10	0x3cf7baf4	0.030240513
11	0xbeed310f	-0.4632649
12	0xbeb93235	-0.36171117
13	0xbea976eb	-0.3309854
14	0xbd3f9c8a	-0.046780147
15	0x3f842c1a	1.0325959
16	0x3ceeeb98	0.029165074
17	0xbea4046e	-0.3203463
18	0x3f41488b	0.75501317
19	0xc017815e	-2.367271
20	0xbf13ebaa	-0.5778147
21	0xbebf2178	-0.37330222
22	0x3d1e427a	0.038637616
23	0xbebca44e	-0.36844105
24	0x3c8a0308	0.016847149
25	0x3c771d75	0.015082707
26	0x3d6cc3d2	0.057803936
27	0xbead632a	-0.3386472
28	0xbf18be80	-0.5966568
29	0x3f45218a	0.770043
30	0xbbcf05a2	-0.00631781
31	0xbefdda97	-0.49580833
32	0xbeb8a5cc	-0.36063993
33	0x3d2bf0e1	0.041977767
34	0x3bc9381c	0.006140722
35	0x3cdbecee	0.026846375
36	0xbedf08f0	-0.43561506
37	0xbeb72f30	-0.3577819
38	0xbec18dbf	-0.37803456
39	0xbeacf07f	-0.33777234
40	0xbec49abd	-0.38399306
41	0xbea41a44	-0.3205129
42	0x3f7ea4c6	0.99470174
43	0xbc8178af	-0.015804617
44	0x3fa26913	1.2688316
45	0xbf064e2f	-0.5246305
46	0x3f363971	0.711814
47	0x3c8dafc6	0.01729573
48	0x3f936bcc	1.1517272
49	0xbf1848ed	-0.59486276
50	0x3d2627d8	0.04056534
51	0xbea9cb4e	-0.33162922
52	0x3d46bdb1	0.048520748
53	0x3f673d03	0.9032747
54	0xc0251838	-2.5796032
55	0xbeb0e5fe	-0.3455047
56	0xbeed73dc	-0.46377456
57	0xbebbe70d	-0.36699715
58	0xbef6301a	-0.48083574
59	0x3cdd604b	0.027023455
60	0xbeecc250	-0.46242
61	0x3f415d9e	0.75533473
62	0x3fa07c01	1.2537843
63	0x3c1ab77a	0.009443158
64	0xbcfeb76b	-0.03109332
65	0xbebbf494	-0.36710036
66	0x3f36e110	0.7143717
67	0x3f787f33	0.9706909
68	0x3cbdb934	0.0231596
69	0x3d04bc3e	0.032406084
70	0x3f3c3030	0.7351103
71	0xbf4a3ca2	-0.7899877
72	0x3c98d59a	0.01865654
73	0x3f3b648d	0.73200303
74	0xbebc96dc	-0.36833847
75	0x3f36e324	0.7144034
76	0x3c3c4f2e	0.011493487
77	0xbf491ba1	-0.78557783
78	0x3f3d7a8d	0.7401512
79	0x3f33d7d8	0.70251226
80	0xbf62b0c1	-0.88550955
81	0xb9afced9	-0.00033532715
82	0x3f08ed2b	0.5348689
83	0xbec53087	-0.38513586
84	0x3f2bd791	0.67125803
85	0x3f1e9f43	0.61961764
86	0xbf3938a9	-0.7235208
87	0xbea1c8fa	-0.31598645
88	0x3f3546a4	0.70810914
89	0x3c061f37	0.008186153
90	0x3f61355f	0.8797206
91	0xbeb83cf8	-0.35984015
92	0x3d88aaf5	0.066732325
93	0xbf9df6b0	-1.2340908
94	0xbec4cf85	-0.38439575
95	0x3f3105ce	0.6914948
96	0x3f43ed48	0.7653394
97	0xbfce4db2	-1.6117461
98	0x3f507ee8	0.81443644
99	0xbeb9ad78	-0.3626516
100	0xbf87c297	-1.0606259
101	0xbf39167f	-0.7229995
102	0x3ae909fa	0.0017779463
103	0x3f3d8368	0.74028635
104	0x3d0b7be3	0.034053694
105	0x3f708bd6	0.9396337
106	0xbebd4f64	-0.36974633
107	0xbec8f11c	-0.39246452
108	0x3c9c1292	0.019051824
109	0x3f37e742	0.71837246
110	0xbebf5306	-0.3736803
111	0x3f35220d	0.7075508
112	0xbef89f98	-0.4855926
113	0xbeeb25ee	-0.45927376
114	0x3f3f23d6	0.74664056
115	0xbeb190f5	-0.34680906
116	0xbeb91aa7	-0.36153147
117	0x3d57106e	0.052505903
118	0x3fb90b5e	1.4456594
119	0x3cf41b42	0.029798154
120	0x3f40cca4	0.75312257
121	0xbefe5a8a	-0.4967845
122	0x3cc636fa	0.024196137
123	0xbee26f10	-0.4422536
124	0xbea2c3c7	-0.3178999
125	0xbeec243a	-0.4612139
126	0xbf002c06	-0.50067174
127	0xbeba5a06	-0.36396807
128	0xbee7b7fb	-0.45257553
129	0xbf1da124	-0.61574006
130	0x3f253734	0.6453736
131	0x3d4b1aff	0.049586292
132	0x3f584e7c	0.8449476
133	0xbd771664	-0.060324088
134	0x3ca77834	0.02044306
135	0x3cea488a	0.028599042
136	0x3c96461b	0.018343976
137	0xbf290db6	-0.66036546
138	0xbeba1ab4	-0.36348498
139	0x3f9391d1	1.1528875
140	0xbeeb83d4	-0.45999014
141	0xbec217b1	-0.379087
142	0x3f3fab74	0.7487099
143	0xbeb98b2e	-0.36238998
144	0xbf73d0e5	-0.9524062
145	0x3c98de8d	0.018660808
146	0xbbfba060	-0.0076790303
147	0x3f421a01	0.7582093
148	0x3f308080	0.68946075
149	0xbd177c60	-0.036983848
150	0x3d0576ff	0.032584187
151	0x3f35aa94	0.70963407
152	0x3f6e6776	0.9312662
153	0xbeb94ad0	-0.3618989
154	0xbed755f5	-0.42057768
155	0x3f317ab9	0.69327885
156	0xbec0ffae	-0.37695068
157	0x3c602a10	0.0136819035
158	0xbeeefb3d	-0.46676055
159	0xbed503d6	-0.4160449
160	0x3f17c435	0.59283763
161	0xbeb6a871	-0.35675386
162	0x3f0da008	0.55322313
163	0x3f27ae5e	0.6550044
164	0x3f67c3a7	0.90532917
165	0xbeafa42e	-0.34304947
166	0xbeb6bd77	-0.35691425
167	0xbf1dc88b	-0.6163413
168	0xbef73ff8	-0.48290992
169	0xbef502b8	-0.47853637
170	0xbf3fb191	-0.7488032
171	0x3d4ea527	0.05045047
172	0xbec20df2	-0.37901264
173	0x3c3c5129	0.011493959
174	0xbea304e9	-0.31839684
175	0xbed22498	-0.41043544
176	0x3cb0c96b	0.021580419
177	0xbef2c920	-0.4741907
178	0x3d057fcc	0.03259258
179	0xbf1c50d6	-0.61060846
180	0x3f559dc0	0.8344383
181	0xbea71863	-0.32635793
182	0xbee8d138	-0.4547212
183	0xbf2f01bc	-0.6836202
184	0xbee5f426	-0.44912833
185	0x3f321cf1	0.6957541
186	0x3f383d48	0.7196851
187	0x3d285b53	0.04110272
188	0xbb564ce6	-0.0032699644
189	0xbf2c948e	-0.67414176
190	0xbb90c45c	-0.004417939
191	0x3f11e7a0	0.56994057
192	0x3cad620d	0.021164918
193	0xbefa4c09	-0.48886135
194	0xbef93393	-0.4867216
195	0xbee30024	-0.44336045
196	0xbeb99648	-0.36247468
197	0xbf24bed2	-0.6435367
198	0x3f4f944f	0.81085676
199	0x3f39f14b	0.7263381
200	0xbef2f76e	-0.474544
201	0x3f48137c	0.7815473
202	0x3d2a010f	0.041504916
203	0x3f1c930b	0.6116187
204	0xbfecc34f	-1.8497103
205	0x3cd738bb	0.026272168
206	0xbee3fffa	-0.44531232
207	0xbec23411	-0.3793035
208	0x3f57a8ef	0.8424215
209	0xbf39ad7a	-0.7253033
210	0x3c834515	0.016024152
211	0xbeddc003	-0.43310556
212	0xbeba919f	-0.36439225
213	0xbeb04c74	-0.3443333
214	0xbee336c5	-0.44377723
215	0xbea33184	-0.31873715
216	0xbeb81df8	-0.35960364
217	0xbeb15221	-0.34632972
218	0xbeb4e143	-0.3532811
219	0x3c3817a0	0.011236101
220	0x3f4dd2fb	0.80400056
221	0x3f3940a3	0.7236425
222	0xbeaeae29	-0.3411725
223	0xbb42d185	-0.0029726934
224	0xbeb7f437	-0.3592851
225	0xbec12d21	-0.37729743
226	0xbeb40722	-0.35161692
227	0x3f342fcb	0.70385426
228	0xbeb2d1d7	-0.3492572
229	0x3f331343	0.69951266
230	0x3d3286f4	0.043585733
231	0x3caf5d54	0.021406807
232	0xbec08806	-0.37603778
233	0xbead2c28	-0.3382275
234	0xbed90bc5	-0.42391792
235	0xbeb23673	-0.34807166
236	0x3fadab49	1.3567897
237	0x3c72f234	0.014828254
238	0x3f135415	0.57550174
239	0xbea716b8	-0.3263452
240	0xbee20d6b	-0.44150862
241	0xc00051da	-2.0049958
242	0x3f3527ab	0.70763654
243	0x3f3315c4	0.69955087
244	0xbebc46e3	-0.36772832
245	0xbec05d2a	-0.3757108
246	0xbfdfb7b9	-1.7477943
247	0x3f5c5f13	0.8608257
248	0xbea1a1f0	-0.3156886
249	0xbeb79b79	-0.35860804
250	0xbcfcb316	-0.030847114
251	0x3f65dd38	0.8979068
252	0x3f36ad69	0.7135835
253	0xbf4b8f8a	-0.795159
254	0xbf17c22f	-0.59280676
255	0x3f17ba2b	0.59268445

fc1.weight f4 [256, 8]
0	0xbdcb045b	-0.0991294
1	0xbe342538	-0.17592323
2	0x3e80ab48	0.25130677
3	0xbd9018f6	-0.07036011
4	0x3ea6215c	0.32447326
5	0x3e251e29	0.16124786
6	0xbe0cc68f	-0.13747619
7	0x3e1ec190	0.15503526
8	0x3d265472	0.040607877
9	0x3d8d4e20	0.06899667
10	0xbebbf58e	-0.3671078
11	0x3ed0c33f	0.4077396
12	0x3ea8d440	0.32974434
13	0x3e89662c	0.26835763
14	0xbe7a982f	-0.24472116
15	0xbcee0f90	-0.029060155
16	0xbea13ec9	-0.31493214
17	0xbe9c9d91	-0.30588964
18	0x3ea89820	0.32928562
19	0x3d93863d	0.07203338
20	0xbccf4ad6	-0.02530424
21	0xbc0ea1b2	-0.008705543
22	0xbdd95fa9	-0.10613949
23	0xbeb7d517	-0.35904762
24	0xbe753569	-0.23946156
25	0x3e2b9d43	0.1675921
26	0xbec534dd	-0.38516894
27	0xbcacc409	-0.02108957
28	0x3e124811	0.14285304
29	0x3e60dfc8	0.21960366
30	0xbebb3c73	-0.36569557
31	0xbe825219	-0.2545326
32	0x3e2da1f6	0.16956314
33	0x3e451d74	0.19249517
34	0xbeaa5af6	-0.33272523
35	0xbe6085e7	-0.2192608
36	0x3e857925	0.26068988
37	0x3d96be26	0.07360487
38	0xbed9c2ea	-0.4253152
39	0xbec56bb8	-0.38558745
40	0x3ddd1fd1	0.10797084
41	0x3e5efbf2	0.21775797
42	0xbe5cba67	-0.21555482
43	0x3e4228d7	0.18960892
44	0x3dd71f71	0.10504044
45	0x3e6fe80f	0.23428367
46	0x3e28a64c	0.16469687
47	0x3ec3cf76	0.38244218
48	0x3dddf0b8	0.10836929
49	0x3dba88b8	0.09108108
50	0x3eae1b1d	0.3400506
51	0xbe1b9139	-0.15192117
52	0x3d88d717	0.0668165
53	0x3e59f45a	0.21284619
54	0x3e594a9c	0.21219867
55	0xbd0ae173	-0.03390641
56	0xbe53a725	-0.2066923
57	0xbdd3fd14	-0.10351005
58	0x3ea70fe9	0.32629326
59	0x3c40b932	0.011762904
60	0x3e95a118	0.29224467
61	0xbe0847e9	-0.13308682
62	0xbea7371c	-0.32659233
63	0x3ed0d580	0.40787888
64	0x3dc38a90	0.09547913
65	0x3d46a758	0.048499435
66	0xbeb8aa37	-0.36067364
67	0xbdbb91b5	-0.09158651
68	0x3e8c15f8	0.2736051
69	0x3eac93b3	0.33706436
70	0xbf01835a	-0.5059105
71	0xbee83b1a	-0.4535759
72	0x3e382733	0.17983703
73	0x3eafb71b	0.34319386
74	0xbe845eee	-0.25853676
75	0x3e643cdf	0.22288845
76	0xbd584df2	-0.05280871
77	0x3e9a9c46	0.30197352
78	0x3d079367	0.03309956
79	0x3dd2c79a	0.10291977
80	0xbea69d5d	-0.32541934
81	0x3d165481	0.036701683
82	0xbe22734c	-0.15864295
83	0x3d9ea465	0.077461995
84	0x3e6b54a9	0.22981514
85	0xbeb893af	-0.36050174
86	0x3e487110	0.1957438
87	0xbe961e54	-0.29320014
88	0x3e001296	0.1250709
89	0xbd8c2226	-0.06842451
90	0x3e6bdcd3	0.23033457
91	0xbe7c469a	-0.24636307
92	0xbe62d528	-0.22151625
93	0xbeab3b50	-0.3344369
94	0xbda210de	-0.079133734
95	0xbe7496e3	-0.23885684
96	0xbe3eb464	-0.18623501
97	0xbc1c16b0	-0.0095268935
98	0x38c01c27	9.160517e-05
99	0xbea04bc3	-0.31307802
100	0xbe951649	-0.29118565
101	0x3eb64548	0.35599732
102	0xbeba529a	-0.36391145
103	0xbeb55ad4	-0.3542086
104	0x3d630f01	0.05543423
105	0x3e3edb38	0.18638313
106	0xbe05e9e1	-0.13077499
107	0xbdc2b1ee	-0.09506594
108	0x3c1029bb	0.008799012
109	0xbe48fa56	-0.19626746
110	0xbe592e71	-0.21209122
111	0x3d1f01f9	0.03882024
112	0xbe7e19c4	-0.24814516
113	0x3de2bc6b	0.11071094
114	0xbe357bcd	-0.17723008
115	0xbd9acb00	-0.075582504
116	0x3dda7ed3	0.10668721
117	0x3d499610	0.049215376
118	0xbe389234	-0.18024522
119	0xbe9fd545	-0.312174
120	0x3cf10956	0.029423397
121	0xbdb64249	-0.08899362
122	0x3e2c99e6	0.16855583
123	0x3e2508bb	0.16116612
124	0xbe8cb18c	-0.27479208
125	0x3e27945a	0.16365185
126	0xbef507ab	-0.47857413
127	0xbe83673d	-0.25664702
128	0x3d92acdc	0.071618766
129	0x3ebbafc9	0.3665755
130	0xbe5dfec7	-0.21679221
131	0x3dfaabb9	0.12239785
132	0x3db1b3e7	0.08676892
133	0xbcf43cbb	-0.029814115
134	0x3cf909f8	0.030400261
135	0xbf0c998f	-0.5492181
136	0xbe9f2ad9	-0.31087378
137	0xbe7d26b1	-0.24721791
138	0x3b0a0d1c	0.0021064943
139	0x3cc4b2e9	0.024011092
140	0x3e5a9e26	0.21349391
141	0xbeccad7f	-0.39976117
142	0xbd982c18	-0.07430285
143	0xba55ce86	-0.00081560796
144	0x3e7cb0e5	0.24676855
145	0xbe4beb02	-0.19913867
146	0xbe2c3c32	-0.16819838
147	0x3e13c174	0.14429265
148	0x3e619939	0.22031106
149	0x3e32b3d4	0.17451411
150	0x3eadde18	0.33958507
151	0x3e451722	0.19247106
152	0x3d577237	0.05259916
153	0xbe906ca2	-0.2820788
154	0xbe0f9d23	-0.14024787
155	0x3de58164	0.1120632
156	0xbeb7c1e6	-0.3589012
157	0x3db43249	0.08798654
158	0xbde05290	-0.109532475
159	0x3da5d8aa	0.08097966
160	0x3d684279	0.05670402
161	0x3e8fd916	0.2809531
162	0x3d153c3b	0.036434393
163	0xbdb94123	-0.09045627
164	0x3e9dc950	0.30817652
165	0xbe5fff06	-0.21874627
166	0xbce7b540	-0.028284669
167	0xbeaccdd1	-0.33750775
168	0xbe3ca052	-0.18420532
169	0xbc07b8c4	-0.008283798
170	0xbed5f235	-0.41786352
171	0x3dee14aa	0.11625035
172	0x3e360021	0.17773487
173	0x3d049a68	0.032373816
174	0xbe99e4a9	-0.30057266
175	0xbdaa352e	-0.083109245
176	0x3e721d08	0.23643887
177	0x3d8d5273	0.069004916
178	0x3e00aeb6	0.12566647
179	0xbeaabb31	-0.3334594
180	0xbe81e2ef	-0.2536845
181	0xbdb97ac8	-0.09056622
182	0xbd879097	-0.06619375
183	0xbdf4b3b6	-0.1194834
184	0x3dbae7bf	0.09126233
185	0x3e6f80f5	0.23389037
186	0x3dffe2b3	0.12494411
187	0xbdb51ad3	-0.08843007
188	0xbd9224b9	-0.071359105
189	0x3ea50253	0.32228336
190	0xbf24a7f8	-0.643188
191	0xbf230b46	-0.63689077
192	0x3e5766f8	0.21035373
193	0x3e13af2d	0.14422293
194	0x3e392642	0.18081
195	0xbe8aced3	-0.2711092
196	0x3da95edf	0.08270048
197	0xbe95e88a	-0.29278976
198	0xbecb05db	-0.39652905
199	0xbd8c4a07	-0.06850057
200	0x3d5c8a02	0.053842552
201	0x3e47eb34	0.19523317
202	0x3d924a3a	0.07143064
203	0xbe926c32	-0.2859817
204	0xbea2bb0b	-0.31783327
205	0x3d3c18b8	0.04592201
206	0x3e3c36c1	0.18380262
207	0x3dc0d3d1	0.09415401
208	0x3e8343cc	0.25637662
209	0xbe90b892	-0.28265816
210	0x3e074076	0.13208184
211	0x3e313b7f	0.17307852
212	0xbeb884ab	-0.36038718
213	0xbe2b31ff	-0.16718291
214	0xbdda697e	-0.10664652
215	0xbe479ba8	-0.19492972
216	0x3e70e291	0.23523928
217	0x3e9274d6	0.28604764
218	0xbdef6c40	-0.11690569
219	0x3d1b0a9a	0.037851907
220	0x3e7c814f	0.24658702
221	0xbd94bce1	-0.07262588
222	0xbec1fb8a	-0.37887222
223	0x3ca56e0e	0.02019408
224	0x3df25f91	0.11834634
225	0x3de5db76	0.112234995
226	0x3e290a68	0.16507876
227	0xbe874ed9	-0.26427343
228	0xbd8d3636	-0.068951055
229	0x3e323030	0.17401195
230	0xbf0df20a	-0.5544745
231	0xbea41b5b	-0.3205212
232	0x3d6a6690	0.057226717
233	0x3ca7d803	0.020488745
234	0x3ea00421	0.3125315
235	0x3da71ba1	0.08159567
236	0x3e80e3fd	0.2517394
237	0xbdd35d5c	-0.10320541
238	0x3d917103	0.071016334
239	0xbe9b32e9	-0.3031228
240	0x3cb87dcf	0.022520928
241	0x3e19c244	0.15015513
242	0xbed3c145	-0.4135839
243	0x3e4870f5	0.1957434
244	0x3e17e2aa	0.14832559
245	0x3e965f9a	0.29369813
246	0x3e9f138e	0.31069607
247	0xbdb9436d	-0.090460636
248	0xbebb80ef	-0.36621806
249	0x3d87719f	0.066134684
250	0x3dbc0a69	0.09181673
251	0x3e5042a8	0.20337927
252	0x3da642e3	0.081182264
253	0xbd9b1ed3	-0.07574239
254	0x3e9a18de	0.30097097
255	0x3eba10fe	0.3634109

fc1.bias f4 [256]
0	0x3eb0996e	0.34492058
1	0xbeadf7b7	-0.33978054
2	0x3e2cc052	0.1687024
3	0xbcd403e7	-0.025880767
4	0x3e90be1a	0.28270036
5	0xbec6eb03	-0.38851175
6	0x3e2ae51f	0.16688965
7	0xbdd7b50e	-0.1053258
8	0x3e55e795	0.20889123
9	0x3dbf44d8	0.09339303
10	0xbe06d93b	-0.13168804
11	0xbe2d1765	-0.16903456
12	0xbe13cb63	-0.14433055
13	0xbeadd574	-0.33951914
14	0x3ea1d4eb	0.31607756
15	0x3eb4239b	0.35183415
16	0x3e47a85c	0.19497818
17	0xbe5262d4	-0.20545512
18	0x3d13c7e6	0.03607931
19	0xbe939a70	-0.28828764
20	0x3e723ee1	0.23656799
21	0x3e9cc909	0.30622128
22	0xbe86b18a	-0.26307327
23	0x3eaceff2	0.33776814
24	0xbe3ac0c0	-0.18237591
25	0xbeb42160	-0.35181713
26	0xbe10ea01	-0.14151765
27	0x3e2b56db	0.16732351
28	0x3d98debf	0.074643604
29	0x3ebde167	0.3708603
30	0xbe9049ee	-0.28181404
31	0xbedeabda	-0.43490487
32	0x3e56a354	0.20960742
33	0x3d8b97c3	0.068160556
34	0xbdf587d1	-0.119887955
35	0xbe944358	-0.2895763
36	0x3c422c5f	0.011851399
37	0x3d3f95e8	0.04677382
38	0x3dc876e1	0.09788299
39	0x3e87eedd	0.26549426
40	0x3e8bf025	0.27331653
41	0xbe8b7eea	-0.27245265
42	0x3e20c518	0.15700185
43	0xbb8c3357	-0.004278581
44	0x3e623b27	0.22092877
45	0x3ed355f3	0.41276512
46	0xbd376b35	-0.044779975
47	0x3eadfe7d	0.33983222
48	0xbb050012	-0.0020294231
49	0xbe45c8b9	-0.19314851
50	0xbe7cf7d0	-0.24703908
51	0xbd68f9af	-0.05687874
52	0xbe770cac	-0.24125928
53	0xbe4fc907	-0.2029153
54	0xbe7ecc64	-0.24882656
55	0xbd80e959	-0.062945075
56	0x3e89ae44	0.26890767
57	0x3e9ce259	0.3064144
58	0x3ecf2d35	0.40464178
59	0x3d0185f5	0.031621892
60	0x3e15a39f	0.14613198
61	0xbe641f91	-0.22277667
62	0x3dfa47fb	0.122207604
63	0xbe5f4bb3	-0.2180622
64	0x3ea2b5d6	0.31779355
65	0x3e1b9c65	0.15196379
66	0x3cb88873	0.022526002
67	0xbe4f6714	-0.20254165
68	0x3ea0ce15	0.31407228
69	0x3e45f876	0.19333062
70	0x3e2d9ce0	0.16954374
71	0x3e28b5b9	0.16475572
72	0xbddb2fe7	-0.10702496
73	0x3d35dac9	0.044398103
74	0x3d20fdf7	0.0393047
75	0xbcb05b3b	-0.021527877
76	0x3d9d88ec	0.076921314
77	0xbd6bb753	-0.05754788
78	0x3d4aadfd	0.049482334
79	0xbe9048a3	-0.28180417
80	0x3df30713	0.11866584
81	0x3dcba71a	0.099439815
82	0x3ece9206	0.40345782
83	0xbd5623a5	-0.052280087
84	0x3e185bfd	0.1487884
85	0xbdb82fcb	-0.08993491
86	0xbd483307	-0.04887679
87	0x3ecbc1e6	0.3979637
88	0xbe7eea6e	-0.24894115
89	0xbe113e4f	-0.14183925
90	0xbe47bcb3	-0.19505577
91	0x3e772799	0.24136199
92	0xbe4120c9	-0.18860163
93	0xbde19daf	-0.11016404
94	0x3ed88311	0.42287496
95	0xbdef0fcb	-0.11672934
96	0x3dea0cd0	0.11428225
97	0xbdf07f92	-0.11743082
98	0x3cb5e8c3	0.022205716
99	0x3e99dbc3	0.30050477
100	0xbef308b9	-0.47467592
101	0x3ed67d71	0.4189258
102	0xbda2b459	-0.07944555
103	0x3e7fd7f1	0.24984719
104	0x3eb0204f	0.3439965
105	0xbe3d0265	-0.18457945
106	0xbde1ea26	-0.110309884
107	0x3ecf7e82	0.40526205
108	0xbe6a4109	-0.22876371
109	0xbe9ad9ec	-0.30244386
110	0xbe837c9a	-0.25681
111	0x3ea7ba8a	0.32759506
112	0xbe990424	-0.29885972
113	0xbe1cfb01	-0.15330125
114	0x3ecb4b5b	0.3970593
115	0x374e14e2	1.2283419e-05
116	0xbdd73fce	-0.10510217
117	0xbe854707	-0.26030752
118	0x3d14fade	0.036372058
119	0x3c7e757c	0.01553094
120	0x3e3751f3	0.17902355
121	0x3e6c4528	0.23073256
122	0x3e5c5a90	0.21518922
123	0xbee259aa	-0.44209033
124	0x3e6ac038	0.22924888
125	0xbe9f030d	-0.31057015
126	0xbe8aac46	-0.2708456
127	0x3cb152be	0.0216459
128	0x3ec160c8	0.3776915
129	0xbe56add3	-0.20964746
130	0xbe939c3b	-0.28830132
131	0x3e1080d0	0.14111638
132	0xbe8e9e69	-0.27855232
133	0x3e65e398	0.22450101
134	0x3eac26b2	0.33623272
135	0xbe16adcc	-0.14714736
136	0xbd992c35	-0.07479135
137	0xbe1b395a	-0.15158597
138	0x3ef51188	0.47864938
139	0xbe59dc7f	-0.21275519
140	0x3bf08ecf	0.007341243
141	0x3e53a1ca	0.20667186
142	0x3e655e84	0.22399336
143	0xbbb6fc47	-0.005584273
144	0xbe917ba7	-0.28414652
145	0xbdfb0720	-0.12257218
146	0x3edba703	0.42900857
147	0xbe69c490	-0.22828889
148	0x3ea36d95	0.31919542
149	0x3e9fb43e	0.311922
150	0xbed6ca6f	-0.4195132
151	0x3d38fa7f	0.045160767
152	0xbe7d039b	-0.24708407
153	0x3c13daa9	0.009024301
154	0x3eab83bc	0.33498943
155	0xbe9d19d2	-0.30683762
156	0xbe7b19d4	-0.24521571
157	0xbe8ee374	-0.27907908
158	0xbedfc9e5	-0.4370872
159	0xbe96c844	-0.29449666
160	0xbca10b66	-0.019658756
161	0x3e048de5	0.12944753
162	0x3edcb3ef	0.43106028
163	0x3e3e0baf	0.18559144
164	0x3e4110ee	0.18854114
165	0x3ebc9f27	0.36840174
166	0xbeab5f8b	-0.3347133
167	0x3ec42e3b	0.3831652
168	0x3ea1e7b5	0.3162209
169	0xbe65d7d8	-0.22445619
170	0x3e9cfa5f	0.30659768
171	0xbe13d4f8	-0.1443671
172	0x3ed10492	0.408238
173	0xbe8f61db	-0.28004345
174	0xbd4d0a78	-0.050058812
175	0xbe86784c	-0.26263654
176	0x3eaca34b	0.33718333
177	0xbed1b8bf	-0.40961263
178	0x3e43ab95	0.19108422
179	0x3c0463e9	0.008080461
180	0x3d4836c8	0.04888037
181	0xbd78f13a	-0.060776927
182	0x3ed6f5c5	0.41984382
183	0xbe063cd4	-0.13109142
184	0xbda0489e	-0.07826351
185	0xbe653858	-0.22384775
186	0xbc7c28af	-0.015390559
187	0xbe5ab322	-0.21357396
188	0xbe9289fe	-0.28620905
189	0x3e13d93a	0.14438334
190	0xbe98176a	-0.29705364
191	0xbea56c3b	-0.32309136
192	0xbe0ba7c7	-0.1363822
193	0x3e5e08be	0.21683022
194	0xbeb164d6	-0.34647244
195	0x3d590977	0.052987542
196	0x3ba978b5	0.00517186
197	0xbebb012f	-0.3652434
198	0xbc9a6166	-0.018845271
199	0x3e48d75d	0.19613405
200	0x3e0c6234	0.13709337
201	0xbdd2a86c	-0.1028603
202	0x3e95a72a	0.292291
203	0x3d692556	0.056920372
204	0x3ecc663f	0.39921758
205	0xbe157e05	-0.14598854
206	0xbe1827fe	-0.14859006
207	0x3eaa209a	0.33227998
208	0x3ed61b58	0.41817737
209	0x3dbab742	0.09116985
210	0xbee274b1	-0.44229653
211	0x3c5d3e62	0.013503643
212	0x3e891f55	0.26781717
213	0xbead7c76	-0.3388402
214	0x3c9e2ef7	0.019309504
215	0x3e7c238f	0.2462294
216	0x3e64bf81	0.22338678
217	0x3e8b145e	0.27163976
218	0xbe008f54	-0.12554675
219	0x3eacdec0	0.33763695
220	0x3eac6c5e	0.33676428
221	0x3e8eed73	0.27915534
222	0x3ea9971b	0.33123097
223	0x3ec86c80	0.3914528
224	0x3e81c5d5	0.25346246
225	0x3ec08690	0.37602663
226	0xbe761cb7	-0.24034391
227	0x3ec420a0	0.3830614
228	0xbe0f3a53	-0.13987093
229	0x3e13bf88	0.14428532
230	0x3e91317e	0.28358072
231	0x3e2f7844	0.17135721
232	0x3ebec825	0.37262073
233	0x3deaa11c	0.114565104
234	0xbc3e127b	-0.011601086
235	0xbe0e170a	-0.13875976
236	0xbe230c11	-0.15922572
237	0x3e7900e4	0.24316746
238	0xbe8795c0	-0.26481438
239	0xbe80036a	-0.25002605
240	0xbdcd8974	-0.10035983
241	0xbed21c01	-0.4103699
242	0x3da351c0	0.07974577
243	0x3bceba7b	0.0063088513
244	0xbe808346	-0.25100154
245	0x3eb4df6d	0.3532671
246	0xbedd6824	-0.43243515
247	0x3e1e8f01	0.15484239
248	0xbcd9bf2d	-0.026580418
249	0x3e995a0c	0.29951513
250	0xbe9a9849	-0.3019431
251	0xbd152bba	-0.036418654
252	0xbea34d4c	-0.3189491
253	0x3eb6ffd3	0.35742053
254	0x3ec24cdc	0.37949264
255	0xbe1c35da	-0.15254918
