dqn/model/dqn_lunar_lander_ep2000.pth (torch, 21783 bytes, 6 tensors)

fc1.weight f4 [64, 8]
00000000: 324c b83e 39cb abbe 6e72 ed3e d3da dabe
00000010: 36f4 dbbe 0546 06bf 3e60 89bf 41b2 c23f
00000020: bf67 9dbf df54 773f 59c9 c93f ef40 74be
00000030: b26c 05bf 56c0 a73d a442 23bf fdb2 b9bf
00000040: 2bc9 39bf 92ae b6be 17b6 1b3e 8083 f63e
00000050: 961c 1c3f fe8f f9be 04cd 89c0 d149 763f
00000060: 20ba 4b3f 9ee5 8fbf 6970 17bd 9b37 3a3f
00000070: 6e24 4c3f 8440 2d3b 722e 00bd 5ab1 fd3e
00000080: fac9 12bf 4514 2cbc 5d1c 633f c2a7 71be
00000090: 2a1d 1d40 01ba df3f f731 c8be 50c4 5cbf
000000a0: 9be2 8ebf 2fa4 63bf e8be 9fbf 0cb5 cabe
000000b0: 170f 31bf 11c0 283e 5786 203e 7853 b43e
000000c0: e005 b93e 960d 99be ea8d cabe a392 d43d
000000d0: ce34 e0bf 0678 17bf 80b5 f53e 3f51 503f
000000e0: adf7 e83e 5b66 3c3e c37f bb3d e777 953d
000000f0: 345b c6bf 5847 73bf 3fa2 793f ed0f 173f
00000100: f746 32bf 648c 793d 51f8 1d3f f975 a9bf
00000110: 4592 573f 6523 363f 0d70 7ac0 77c6 0040
00000120: 1ccf 583e a289 aa3d b166 d03e 53eb 9cbf
00000130: 7817 39bf 4ad8 193f ecf8 403f d16a d0bf
00000140: 5385 80bf 1eb6 cb3e 22bd 8840 0384 e4bf
00000150: 74b0 0f3f 2bca b7be b3ff 043f c784 de3d
00000160: 3bbc a03c fa67 55bc 1ee3 cd3c 348f 8a3b
00000170: 6125 99c0 89b9 9f3d 8c0c 56bc fb38 98bb
00000180: d635 0540 3f87 abbd 79b4 fcbf ee27 45bf
00000190: 8e09 c4be 47a5 2ebf 81a0 423e e846 b33e
000001a0: 8220 3a3f 8b3d f03b c4fc 3fbf 9173 8cbd
000001b0: c837 103e 60f9 9fbf 074e bfbf 728c ab3f
000001c0: 0aa1 8a3e 2de2 4a3d 8f7e d43f d3a6 953f
000001d0: 0b5a 61bf 2def c43f ce36 c5bd 42e2 663f
000001e0: 511c 873f cd48 0dbf dde4 903e e49b 23c0
000001f0: 2c5b 523f d847 db3d dacb 0f3e 1fae 333e
00000200: 7bbf a1bd 6912 f23d e337 493e 5efc adbf
00000210: 917c 98bf 869b 0340 f7c1 1a3e 989b f03c
00000220: 4ac4 01bf cdc3 2e3c 2960 8e3f 6a84 dabf
00000230: 4c2f 843f 228f 2b3f 181e 81bf 08e3 49c0
00000240: 2ca7 4ebf 760c 1e3f 31c5 7abb d955 8dbf
00000250: 4055 493f 5884 b73f 8b54 0ac0 cd5e 75bf
00000260: b50b 28be ac44 513f 2c0f 2b3e 5186 21bf
00000270: d98e 4b3f 4b35 99bf 3c70 ae3e 525d 323f
00000280: 8de1 043f 8119 ea3c 82b4 9fbf 35af e23c
00000290: e521 c13e 808e 6cbe c804 c8be 99cb 023f
000002a0: 2913 0cbf a8f1 813e 86d0 0f3f 2e37 0440
000002b0: 383b f63d 5369 a83e 121d adbc 229b d33f
000002c0: 4a80 1140 04d6 1f3f c57d f33f 27ee 56be
000002d0: ec19 613d 08b8 643f 9543 2ebd aa6c 1a3e
000002e0: 3032 7cbe e48a 573e c562 fa3e d0b8 b63e
000002f0: bab2 b8bf a218 c4be 8184 883f 087e 72bf
00000300: 70df debf b25d f9be 24d9 0ec0 238f 043f
00000310: 7488 1abe 3b26 57bf 0bea 653e aa5e 9a3d
00000320: eef7 d53f 0894 54c0 4a3c 1140 a1cf d53f
00000330: 63ec bfbf 1a7c 3cbf 705f 5b3f db2a cd3f
00000340: ee1c fa3d 4621 9abf 0cdb abbb ee9a 94bf
00000350: 990b 00bf b042 ff3d f567 983f 681b 203f
00000360: d515 7e3f 8262 0d3e 9741 e4be 5a3b 7cbf
00000370: 6aaf 9b3f 7f32 fb3e 2dd3 ac3f 792e 51be
00000380: e432 573e c235 293f 485b 0cc0 c660 84bf
00000390: 48c4 7dbf 506f ccbe c32e d2bf d4ba 0dc0
000003a0: 7ff8 d33e e76c bd3e 66b3 abbf d0f3 dcbe
000003b0: 9d65 0ebf 16c8 6fbf 5742 9abf 8b19 cd3e
000003c0: 123f 60bd 02a3 b6be e2f0 84bf 38dc b63f
000003d0: 386c 2340 680e b1bd adcb 0cbf a0aa 953f
000003e0: 8714 3bbe 2e7c 473e 4cb7 27bf 5dc4 28bf
000003f0: 9923 763f ae10 edbe 6653 873f 08f3 bb3e
0.35995632 -0.33553484 0.46376365 -0.42745075 -0.42959756 -0.5245059 -1.0732496 1.5210649
-1.2297286 0.9661388 1.5764571 -0.23852895 -0.5211898 0.08190982 -0.6377356 -1.4507748
-0.7257258 -0.35680062 0.1520618 0.48147202 0.6098112 -0.4874267 -4.3062763 0.96206385
0.7958088 -1.1241949 -0.036972437 0.727411 0.7974309 0.002643616 -0.031294294 0.4954937
-0.5733944 -0.0105028795 0.88715154 -0.23599151 2.454905 1.7478639 -0.3910062 -0.8623705
-1.1162905 -0.889224 -1.2480135 -0.39591253 -0.6916365 0.16479518 0.15676247 0.35219932
0.36137295 -0.29893178 -0.39561397 0.10379531 -1.7516115 -0.59167516 0.47990036 0.8137397
0.45501462 0.1839842 0.09155228 0.0729826 -1.5496583 -0.95030737 0.9751319 0.59008676
-0.69639534 0.060924903 0.61707026 -1.3239127 0.84207565 0.7114776 -3.913089 2.0121133
0.21172756 0.083270326 0.40703347 -1.2259315 -0.72301435 0.60095656 0.75379825 -1.6282598
-1.0040687 0.39787382 4.2730875 -1.7852787 0.5612862 -0.3589643 0.51952666 0.10865169
0.019621005 -0.013025278 0.025132712 0.004228497 -4.785813 0.0779906 -0.013064515 -0.0046454645
2.081411 -0.083754055 -1.9742576 -0.7701405 -0.3828854 -0.68220943 0.1900654 0.35015035
0.72705853 0.0073315552 -0.74995065 -0.0685798 0.14083779 -1.2497978 -1.4945687 1.3402236
0.27075988 0.049532104 1.6601123 1.1691536 -0.8802802 1.5385491 -0.09629594 0.9018899
1.0555516 -0.5518921 0.2829961 -2.5563898 0.8217037 0.107070625 0.14042607 0.1754689
-0.0789785 0.11819918 0.19650225 -1.3592641 -1.1913015 2.0563674 0.15113054 0.029371068
-0.5069014 0.0106668 1.1123096 -1.707166 1.0326934 0.6701528 -1.0087309 -3.154482
-0.80723834 0.61737764 -0.0038264508 -1.1041824 0.78645706 1.4337263 -2.16141 -0.9584778
-0.16410716 0.8174541 0.16705006 -0.63095576 0.79514843 -1.1969389 0.34070003 0.69673645
0.51906663 0.028576614 -1.2476962 0.027671436 0.37721172 -0.23101234 -0.39066148 0.51091915
-0.54716736 0.25379682 0.56177557 2.065868 0.12023014 0.32892856 -0.021132026 1.6531718
2.2734551 0.62435937 1.9022757 -0.20989285 0.05495636 0.8934331 -0.04254492 0.15080515
-0.2462852 0.21049076 0.4890348 0.35687876 -1.4429543 -0.38300043 1.0665437 -0.9472356
-1.7411938 -0.48704296 -2.2320032 0.5178091 -0.15091115 -0.8404271 0.22452562 0.07537587
1.6716287 -3.321535 2.2693048 1.6703988 -1.4994015 -0.73626864 0.856925 1.6028703
0.12212549 -1.2041404 -0.0052446183 -1.1609781 -0.50017697 0.124638915 1.1906725 0.6254182
0.99252063 0.13807109 -0.4458129 -0.98528063 1.2162907 0.49061963 1.3501946 -0.20427884
0.21015507 0.6609765 -2.1930714 -1.0342033 -0.99127626 -0.39928675 -1.642052 -2.214528
0.41400525 0.36997148 -1.3414123 -0.43154764 -0.556238 -0.9366468 -1.2051495 0.4005855
-0.05474765 -0.3567124 -1.0386012 1.4285955 2.5534801 -0.08645326 -0.54998285 1.1692696
-0.1826955 0.19480965 -0.65514064 -0.65924627 0.9614807 -0.46301788 1.0572326 0.36708856

fc1.bias f4 [64]
00000000: d923 863e d566 38bf 3b7b 0c3f 6ee2 ae3f
00000010: 53e9 873e f5fc 163f dd23 a03e f4f6 03be
00000020: 1bce e3bc 0a92 d53e c061 523c 9faa b23b
00000030: 559e b23e d8db 68be 93d4 29bf 0f6b 6b3f
00000040: 3fb6 39be 52d9 2e3e fb25 4fbf b3e2 7dbe
00000050: 85f5 b23e d24b bfbe a91b a8be da17 f93e
00000060: a8d2 163e 5eb4 863b ca7f a4be 3573 8cbe
00000070: 6a61 073e 185b 383e 8036 2e3f cc09 1bbf
00000080: b8df e83e 4fac 0b3f bb98 473f 5271 9c3d
00000090: eb7e 95bd 6b3c 043e 4bf9 e3be ebaf 283e
000000a0: 5e51 ae3e 9162 803f dd20 aebf cf4a 133e
000000b0: 0254 d3be b098 44be d8d3 96bd 42b9 e4be
000000c0: f3cd 1abe bdfc 04bf 0546 843d 5f5d 00bf
000000d0: bea0 b7bc 51eb 9a3d 64da 29bf 817f 04bf
000000e0: e8d3 943d 97a7 f8bd e009 963e aeb5 2ebe
000000f0: fa5b 853e e11d 9ebe 054b f33e bf0c 15be
0.26199225 -0.7203191 0.54875535 1.3662851 0.265452 0.5897973 0.31277362 -0.12887174
-0.02780824 0.4171298 0.012840688 0.0054524685 0.34886423 -0.22740114 -0.6633999 0.91960233
-0.18135928 0.17075089 -0.8091733 -0.2479351 0.34952942 -0.37362534 -0.32833603 0.4865101
0.14728796 0.004110857 -0.32128745 -0.27431646 0.13220754 0.180035 0.6805191 -0.60561824
0.45483184 0.545598 0.77967423 0.07638802 -0.07299598 0.12913673 -0.44526133 0.16473357
0.34046453 1.003008 -1.3603779 0.14384006 -0.4127503 -0.1919887 -0.07364625 -0.4467259
-0.15117626 -0.5194815 0.06458668 -0.50142473 -0.022415515 0.07564414 -0.6634886 -0.51757056
0.072669804 -0.1214134 0.2930441 -0.17061493 0.26046735 -0.3088217 0.47518173 -0.14555643

fc2.weight f4 [64, 64]
00000000: e722 41bf 90f4 3d3f 83d9 81bf 9f9b fc3e
00000010: d930 a63f d84f 063f dc5d 73be fea1 3bbf
00000020: e7cb 62c0 dc97 943e 58e8 0abf 0dc3 e2bf
00000030: 8a65 533e 158c d8bf 79ea 613f cd35 a93f
00000040: 50ab 163f 15f6 99bd 8145 47bf 8131 58be
00000050: 90ce 1bbe d29f b6be de7e 98bd 2f0c 993e
00000060: d548 d63e c39a 87be 2574 783e dd65 613f
00000070: 6388 4f3f a88b 58c0 cbd7 dabe 71cb 5f3e
00000080: 4330 05c0 c724 2f3f 528c 253f 30e9 a0bf
00000090: b631 403d 36d4 96be 864f ef3d 4476 b8bd
000000a0: 6d94 823f ba5f 62be 3500 603f 104d 723f
000000b0: 0ea6 1dbe 8e02 9d3e 1d37 11bf 0b77 673e
000000c0: 04dc 7a3f 9bd1 12c0 ae14 cdbe 992f 6a3d
000000d0: 164a 2dc0 5d24 08be adb7 61bf 70f8 c53e
000000e0: d9b5 10bf 7fc5 933f f31e 023f 9540 8b3f
000000f0: 4de3 8d3e a19e 643f a831 5e3f 5b1b 1dbf
00000100: 3c1e 3fbf 9581 3ec0 4916 47be c079 853e
00000110: c54f 013f 9348 81bf c059 563b 07ba da3d
00000120: b648 893e dae0 a83f dacc 713d 0e4f afbd
00000130: c10d 9e3e cb4f c33f 92b4 99bd 92b7 60bf
00000140: 61b1 e2be c271 5cc0 c989 b53c ac1f adbd
00000150: e199 213e afcb 9c3e 24a0 41bf 5587 0d3f
00000160: ccf7 afbd acd1 0cc0 3edf d03e 947d 1a3f
00000170: 14d5 2ec0 ddd4 503e f743 82be be65 863e
00000180: f054 1cc0 7bb6 c9bf 2473 843f 80cf 433f
00000190: b46b 15c0 1d86 49c0 7016 85bc c128 4cbf
000001a0: 9e14 07c0 6247 a33e 051f 4fc0 d646 b43e
000001b0: 3071 ff3f 87ec 07c0 e529 95bf b80b 093e
000001c0: 1cd2 1f3f 0739 ba3d 7986 9e3e 3bec 673f
000001d0: e7a7 d33f 6ba6 8abd 1106 a63f be9a dabf
000001e0: 62de ed3f d7ab b5bf b16f 983c 83f4 22c0
000001f0: d66d 693d af19 04c0 27d6 2abf 5cbb 3fbe
00000200: 0b38 413e 3c60 6abf f4b8 d5be a4f6 f2be
00000210: c483 a7be ff7e 31bf 2bc0 1c3f 8755 233f
00000220: c160 403f 9467 32be 2153 bbbe 41ec 0bbf
00000230: 8f03 173f a7d7 a43f fdf5 123f 43d8 e73e
00000240: 2a93 67c0 a0e1 ae3f 9980 eb3f 9784 31bf
00000250: db13 a7bd 029d 4c3f 6fa7 f73f b7d8 40bf
00000260: 6d9b 443e aa5a 123f 18f5 b83e a898 843e
00000270: 2ad3 013f 1bc6 933d c255 f6be b7e9 793e
00000280: 0913 00bf b754 92bf 6713 c1be 51ab 503e
00000290: 1d95 763f d4fe 3dbf 3347 73bd 6366 43be
000002a0: 84f1 97bf b3de 9e3d c62b bfbf c36a 683f
000002b0: a6af 573f 3667 b2bf 1078 c43d 98de adbd
000002c0: c7a3 86bf b0d0 723f 949b c73d 7917 b63f
000002d0: 3d66 8a3f da51 c63e 04bf c53f 9cb7 02c0
000002e0: 15ba 0cc0 9830 0ac0 4cff babe 9821 8bbc
000002f0: fb2c 92bf 6bdf 45c0 ff61 1a3f c94b 5dbe
00000300: 1f91 13be f92c 633f 4855 7abf 4b28 ab3e
00000310: 646d 1d3f e8f4 1c3f bf7a e43e d134 253e
00000320: 43e2 5b3e fffb b33f 938d b7bf a3d0 51c0
00000330: aae1 063f 71e5 06bf c4a8 c63f 87c9 10bf
00000340: e9ce 3ebf f85e a03f 4bae ac3f fd65 18bf
00000350: 4d69 03be 20f7 fd3e 3e0e aa3f a31e 603f
00000360: de4f 093f abd0 0e3f fb40 0f3f 765e 033f
00000370: ac15 6a3f 30af c9bf 7ea3 d0bd faaf 3e3e
00000380: b163 f33e d397 96be bf08 863c 2a1b 0bbf
00000390: df6b 6e3e 4fc0 7b3f f6cd b53d 5f53 03bf
000003a0: 70b1 473f bf34 7abf cfff a83e 77fb 223f
000003b0: 725f 583f bda5 403f 56ab c33e 95f0 943f
000003c0: cf87 923e 9805 943d d3ec 62be c69f b0bf
000003d0: 3446 213f 6beb 8a3d 6176 e33c 4441 8cbf
000003e0: 9dce 88be 59a0 93bf 1d4d 833e ffa2 953f
000003f0: 6707 28bf 2cf6 20bf daf8 433f 0c4d 50c0
-0.7544388 0.742013 -1.0144504 0.4933748 1.2983657 0.5246558 -0.23766273 -0.73294055
-3.5436952 0.2902211 -0.5426078 -1.7715775 0.20644203 -1.691775 0.882484 1.3219544
0.5885515 -0.075176395 -0.7784043 -0.21112634 -0.15215516 -0.35668808 -0.07446073 0.29892108
0.4185244 -0.2648526 0.24263056 0.88046056 0.81067485 -3.383524 -0.42742762 0.2185495
-2.0810707 0.6841549 0.64667237 -1.2571163 0.046922408 -0.2945878 0.1168509 -0.090069324
1.0201546 -0.2210683 0.87500316 0.9464884 -0.15395376 0.30666012 -0.5672472 0.22604005
0.9799197 -2.2940433 -0.4005484 0.0571743 -2.7076468 -0.13295121 -0.8817089 0.38666105
-0.5652748 1.1544646 0.50828475 1.0879084 0.2771248 0.8930455 0.8679452 -0.61369866
-0.7465551 -2.976659 -0.19442095 0.2606945 0.50512344 -1.0100273 0.0032707304 0.10680013
0.26813287 1.3193619 0.059033252 -0.0856 0.30869868 1.5258726 -0.07505144 -0.87780106
-0.44275954 -3.4444432 0.022160428 -0.084533066 0.15781356 0.30624148 -0.7563498 0.55284625
-0.085921854 -2.2002974 0.4079532 0.60347867 -2.7317553 0.20393701 -0.25442478 0.26249498
-2.4426842 -1.5758814 1.0347638 0.76488495 -2.3346987 -3.1488106 -0.01624605 -0.79749686
-2.1106334 0.31890398 -3.2362683 0.35210294 1.9956417 -2.1238115 -1.165341 0.13383377
0.62429976 0.09092908 0.3096197 0.90594834 1.6535615 -0.06770023 1.2970601 -1.7078474
1.8583491 -1.4193066 0.018607946 -2.5461738 0.056989513 -2.0640676 -0.6673302 -0.18723816
0.18869035 -0.9155309 -0.4174267 -0.47453797 -0.32717717 -0.69334406 0.61230725 0.6380238
0.75147635 -0.17422324 -0.3658686 -0.5465737 0.58989805 1.2878312 0.574066 0.45282182
-3.6183572 1.3662605 1.839862 -0.6934294 -0.08158084 0.79927075 1.9347972 -0.7533068
0.19199915 0.5716959 0.36124492 0.25897717 0.50712836 0.0721552 -0.48112303 0.24405561
-0.50029045 -1.1432103 -0.37710115 0.20377852 0.9632128 -0.7421696 -0.059394073 -0.19082026
-1.187058 0.0775732 -1.4935234 0.90787905 0.84252393 -1.3937747 0.095932126 -0.08489722
-1.0518731 0.9484968 0.09746471 1.4225913 1.0812451 0.38734323 1.5448918 -2.0424566
-2.1988575 -2.159216 -0.365229 -0.016983792 -1.1419977 -3.0917614 0.6030578 -0.21610941
-0.14410828 0.887405 -0.9778638 0.3342918 0.6149504 0.613112 0.44624898 0.16133429
0.21473031 1.4061278 -1.434008 -3.2783592 0.52688086 -0.5269385 1.5520253 -0.56557506
-0.7453447 1.2528982 1.349069 -0.5953062 -0.12833138 0.49602604 1.3285596 0.8754675
0.5363749 0.5578715 0.5595853 0.5131601 0.9143932 -1.5756588 -0.10187434 0.18621817
0.47536996 -0.29412708 0.016361592 -0.54338324 0.23283337 0.98340315 0.088771746 -0.5129909
0.78005123 -0.97736734 0.33007666 0.63664955 0.8452064 0.75252897 0.38216656 1.163592
0.2861924 0.072276294 -0.22160654 -1.3798759 0.62997746 0.06783184 0.027766408 -1.0957417
-0.26720133 -1.1533309 0.2564477 1.1690367 -0.65636295 -0.6287563 0.7655159 -3.2547026

fc2.bias f4 [64]
00000000: 1e76 dc3e 8afd 43be 879d 56bf b856 3fbe
00000010: bfb1 84be cd3a c33e 8f5b 773d 4244 3fbf
00000020: ba96 c73e 964f 783e 4c6d 063f 076d 30bd
00000030: 89d7 79bd 0596 b6be 1146 ba3e a6b1 ccbe
00000040: d332 8bbd 336d bdbd afc9 9dbe 0ed2 923d
00000050: 4045 0b3d c992 eebe 70ea a9bd 0a8c 1cbe
00000060: 7b56 bc3d f9a0 ac3d 5251 a13d 526f 133f
00000070: b9e0 f9bd b5c9 5b3f 346e 9cbb e2c5 a6bf
00000080: 8f36 013f 903e 323e 2c40 c13e 240e 6a3d
00000090: c954 41bd 7f9a 9c3d 449d 27be 78a1 56bf
000000a0: 20b1 253f ed53 28bd 3d3c eebd ebe4 a13b
000000b0: 039b fa3e 957a 1f3e c84d 35bf 91bf 44be
000000c0: b666 0cbe 2efd 02bd bd97 3fbe 3120 75bf
000000d0: 7596 ba3e 92e7 b2bd eeae d23e 6f5c f03d
000000e0: 1e52 743d e3f6 203e 673c 72be b198 0bbe
000000f0: 32de 493d a99e 24be a24d 00bc 08c2 823e
0.43058866 -0.19139686 -0.8383412 -0.18685424 -0.2591686 0.381308 0.06039005 -0.7471353
0.38982183 0.2424911 0.52510524 -0.043072727 -0.060996566 -0.3566133 0.3638158 -0.39979285
-0.06796803 -0.09249344 -0.30817935 0.07168971 0.03400159 -0.46596363 -0.082966685 -0.15287796
0.09196182 0.084291406 0.07876839 0.57591736 -0.122010656 0.85854656 -0.0047738794 -1.3029139
0.50473875 0.17406678 0.37744272 0.05714239 -0.047199998 0.07646655 -0.16368586 -0.8384013
0.64723396 -0.041095663 -0.11632583 0.004940619 0.4894639 0.15574105 -0.7082181 -0.19213702
-0.13711056 -0.031979732 -0.18710227 -0.95752245 0.36442915 -0.08735575 0.41149086 0.1173638
0.059648626 0.1571918 -0.23655854 -0.13632466 0.049284168 -0.16076149 -0.007831009 0.2553866

fc3.weight f4 [4, 64]
00000000: c912 57bf 1f90 9b3f 543d 2bbf 44b4 38bf
00000010: a231 4cbf e98e c63f bb5f 753f f995 e8be
00000020: de48 03bf 7595 63bf 11fe af3f c0e5 dbbd
00000030: 702d ad3f d4c0 7fbf 3541 39bf a543 e53f
00000040: c64f 2dbd 0062 b1bd 9eca dfbf 6545 00bf
00000050: 3a81 8abd 793f 1040 95a3 323d 9342 0540
00000060: e6a9 b0be e5ba 9d3f d7af 983f e93d e03f
00000070: 619e b8bf 362d 913f a79b 02bf d974 0ac0
00000080: 317e 64bf 6300 f3be bcb6 8b3f 9bf3 d53f
00000090: cfa1 14bf 581f 903f 8002 723b 7dff 563f
000000a0: 2eb0 9a3f 08f9 99bf 5a82 24bf 8afc db3f
000000b0: 743f 0e3f 7317 c9be 4b0a bebf 41f0 833f
000000c0: 2495 563d 1746 45bd 2f1a df3f 87da 0cc0
000000d0: 02bc 513f 1267 e2bd 792a 913f 0d35 89bf
000000e0: 5ef6 c13d 4488 a9be 0b11 0ebf 035d 09be
000000f0: fe8a a73d c873 b83c 0987 da3a 49d3 103f
00000100: 9f2c 86bf e29a a83f 9835 3cbf 9cbc 67bf
00000110: 92a1 3ebf e085 cd3f b026 8b3f 7b8d cabe
00000120: 8435 31bf 7478 e1be 8fa5 963f f6f2 c3bd
00000130: 3ad0 bd3f 5158 6cbf 5d01 48bf e6fb db3f
00000140: 83a6 c7bd e0ee 563c dc70 d7bf 25ab 3ac0
00000150: bc3f ca3d 52f1 9740 2a66 c7bc befa 0940
00000160: 9be2 2ebf b017 8c3f 6893 943f 16a6 da3f
00000170: bab7 13c0 55f0 933f 69b5 25bf 9b00 e9bf
00000180: 6a98 8fbf 3724 dcbe 6150 9c3f c3f9 f23f
00000190: 2aed 09bf 1438 823f 0f84 67bd 22cb 81bf
000001a0: 8cf5 ad3f 2a2d 07c0 77b1 73bf f550 fb3f
000001b0: d413 353f 96c0 fcbe 2529 b9bf 602d 7e3f
000001c0: 622d c0bd f86c 0c3d 2a0c f33f 9a1f 48c0
000001d0: 9572 443f f564 f43c e904 913f 23ec bfbf
000001e0: 08d7 fe3c 3c1f a6bd 996f 2bbf 32de 0f3c
000001f0: 35b7 62bb c23b b7bd 2c9f 353d 1844 bd3e
00000200: 0d92 5dbf 0aef fb3f 1497 22bf 9ba0 3abf
00000210: 7012 17bf 1ae2 933f e25f 753f eb16 c9be
00000220: 12f3 20bf f0f6 2bbf 48f8 aa3f 5323 1ebb
00000230: 99c1 7b3f f9b7 88bf fef3 4dbf 9f52 c33f
00000240: 195c 3e3c 5571 24bd 31a6 bdbf a5c0 85bf
00000250: 375f a33c 8564 7e40 82d4 b43d 1b92 ef3f
00000260: 6324 c03e fac0 a23f c071 933f 530d cc3f
00000270: 3aa1 a7bf 5342 463f 33b9 20bf c117 5ac0
00000280: c741 84bf b461 86be bfb1 b13f 6d29 b63f
00000290: 95e7 62bf 442c ac3f 4fa1 633d ac0d e33f
000002a0: 5aaa 933f 6dda dfbf 8fa6 18be 68ff 1140
000002b0: bd55 8a3f e343 263f 28a2 afbf 603c 8f3f
000002c0: 6b97 d4bc acb9 723d 1ec7 d43f 9fa3 3dc0
000002d0: f53c 7e3f 8918 653d fd92 a63f f1de 9cbf
000002e0: 8508 61bd 0232 8cbf faf3 83bf 9ada 4d3d
000002f0: 3603 863d b2d7 ffbc 3670 a7bd 4091 263f
00000300: d229 55bf 872a 9fba 1726 30bf 4ebc 0cbf
00000310: 6cf7 34bf e2d7 cf3f b36a 843f aaf0 14bf
00000320: a596 b1be 6e95 8ebf f000 b43f 9c77 5abd
00000330: 2e85 a43f 0dd6 56bf d590 2dbf f161 eb3f
00000340: 264e bf3c e3f5 c73c feb5 d3bf 0414 193e
00000350: 388c 143d 7c35 6a40 dc34 b3bd b876 1640
00000360: cfd7 12be c779 973f 3d76 9c3f 33dd 783f
00000370: 092b 21be 89a9 8a3f 86c0 c2be b26d 2cc0
00000380: 8c84 46bf d270 03bf 0a6a 963f 86ad f43f
00000390: 9e2e 54bf a784 9e3f 78ae 8d3d 4506 01c0
000003a0: 03f8 813f d02c 203f 4f4e 20bf 860f fd3f
000003b0: 1801 193f f76d 01bf 4006 c03f 7c9b 843f
000003c0: a299 1cbc 29b2 823d 173f 0340 a019 03c0
000003d0: 2f84 473f e7aa c8bc 7159 953f 4f9b 7bbf
000003e0: 650c 89bd 8583 18bf e3e1 e9be f53b 613c
000003f0: 5999 d2bd 1806 2bbc 4ef6 0a3d 67a8 243e
-0.8401304 1.2153357 -0.66890454 -0.72150064 -0.79763234 1.5512363 0.958492 -0.4542692
-0.5128306 -0.8889993 1.374941 -0.10737181 1.3529491 -0.9990361 -0.72365123 1.7911268
-0.042312406 -0.0866127 -1.7483709 -0.5010589 -0.06762929 2.253874 0.043613035 2.0821884
-0.34504622 1.2322661 1.1928662 1.7518893 -1.4423333 1.1341922 -0.51018757 -2.1633818
-0.8925505 -0.47461233 1.0915141 1.6714967 -0.580594 1.1259565 0.003692776 0.83983594
1.2085016 -1.2029123 -0.642614 1.7186444 0.5556557 -0.39275703 -1.4846891 1.0307695
0.052388325 -0.048162546 1.7429866 -2.2008379 0.819275 -0.11054815 1.1341087 -1.0719315
0.09470819 -0.33111775 -0.55494756 -0.13414387 0.081808075 0.022516146 0.0016672324 0.56572396
-1.0482367 1.3172266 -0.7351928 -0.9052217 -0.74465287 1.605648 1.0871181 -0.39561066
-0.69222283 -0.4403721 1.1769274 -0.095678255 1.4829171 -0.9232226 -0.7812708 1.7186248
-0.097485565 0.013118476 -1.6831317 -2.9166958 0.098754376 4.748208 -0.024340708 2.155929
-0.6831452 1.0944729 1.1607485 1.7081935 -2.3080888 1.1557719 -0.64729935 -1.820331
-1.1218388 -0.4299638 1.221203 1.8982471 -0.5387751 1.0173364 -0.056522425 -1.0140116
1.359056 -2.1121316 -0.95192665 1.9634081 0.7073338 -0.4936568 -1.4465681 0.99287987
-0.09383656 0.03428361 1.8988087 -3.1269288 0.7673734 0.029833296 1.1329623 -1.4993938
0.031108394 -0.08111426 -0.6696716 0.008781003 -0.0034594063 -0.08946945 0.04434125 0.36966014
-0.8655098 1.9682324 -0.63511777 -0.72901314 -0.5901251 1.1553376 0.9584943 -0.39275298
-0.62870896 -0.6717367 1.335702 -0.0024129942 0.9834228 -1.0681144 -0.8045043 1.5259589
0.0116186375 -0.040147144 -1.4816343 -1.0449415 0.019942863 3.9748852 0.08829595 1.8716463
0.3752776 1.2715142 1.1519089 1.5941566 -1.3096077 0.7744495 -0.6278259 -3.4076998
-1.0332574 -0.26246417 1.3882369 1.4231392 -0.88634616 1.3451009 0.055573758 1.7738547
1.1536362 -1.7488533 -0.14907287 2.2812138 1.0807415 0.64947337 -1.3721361 1.11903
-0.025951108 0.0592591 1.6623266 -2.9631116 0.99311763 0.0559316 1.3013607 -1.2255536
-0.054939765 -1.0952761 -1.0308831 0.050257303 0.06543581 -0.031230781 -0.081756994 0.65065384
-0.8326694 -0.0012143411 -0.6880812 -0.5497483 -0.70690036 1.6237757 1.0345062 -0.58179724
-0.34685245 -1.1139352 1.4062786 -0.053336725 1.2853143 -0.83920366 -0.6779912 1.8389264
0.023352694 0.02440924 -1.6539915 0.14949042 0.036266536 3.6595144 -0.087503165 2.350996
-0.14340137 1.1834038 1.2223583 0.97212523 -0.15739073 1.0832988 -0.3803751 -2.6941953
-0.77546 -0.51344025 1.175111 1.9115455 -0.8288363 1.2384232 0.06918043 -2.0160077
1.0153812 0.6256838 -0.6261949 1.9770362 0.59767294 -0.5055842 1.5001907 1.035995
-0.009558113 0.063816376 2.0507257 -2.048439 0.7793607 -0.024495555 1.166792 -0.9828386
-0.06691817 -0.5957568 -0.4568015 0.013747205 -0.10283155 -0.010438465 0.0339263 0.16079865

fc3.bias f4 [4]
00000000: 9847 4d3f 22ab 833f 4a69 2abe 39f7 3a3f
0.8018737 1.02866 -0.16641727 0.7303348
