dqn/model/dqn_lunar_lander_2023-05-04_14-53-02.pth (torch, 22463 bytes, 6 tensors)

fc1.weight f4 [64, 8]
0.95442015 -1.4620643 -0.22373043 0.37114835 1.7488701 0.18035126 -0.2950522 0.48778704
-0.24816704 -0.9213483 0.062070098 -1.3370355 -0.38432544 -0.7354761 -1.5943029 0.8423794
-0.50661224 0.0566731 -0.61234665 -0.515413 -3.6803734 -0.38764223 0.20541495 0.5114058
0.18159579 -1.1291413 -0.25336617 -0.16941129 1.3716286 1.9384032 -2.0657246 -1.3716702
-0.2008491 -1.0155543 0.33909097 -0.8250282 0.21960668 -2.2997732 0.5596824 0.30692494
0.051596045 -0.24065985 -0.31432945 0.92431325 -0.5874907 0.41120458 -0.685773 -0.30373824
-0.11670751 -1.3117235 -0.24442422 2.6406124 -0.14818679 -0.21958788 0.6252281 0.72955614
0.44237486 0.35667974 0.17590673 -0.11559864 2.8097274 -0.10507496 1.0712948 -0.8219226
0.013363237 0.18316533 -0.1601349 0.38269988 1.6631379 0.8119133 1.1057867 -1.0541893
-0.688051 0.63967776 -1.3712991 0.8548022 1.7971972 -0.44792527 -0.138048 1.1988492
0.089368016 0.7695345 1.3976834 -0.84697825 -1.6453227 0.61993635 0.60138804 -0.68325144
1.705037 0.1353225 0.4080582 -0.62915957 0.21078296 0.2722342 0.08180147 0.23880546
0.03323272 -1.100131 0.42534605 -1.2075424 -0.48268452 -0.20430858 -1.1833228 -1.4661115
0.35757548 -1.9650809 0.4832004 0.95377916 -2.4188867 -0.344835 0.89391863 -0.892549
-0.11257843 -0.33933657 -3.1943517 0.08728154 0.11322016 0.068929106 0.047172982 -0.541383
-0.2655199 0.21914111 -0.1606085 0.53418374 0.93436027 0.017364271 0.5054118 0.6994182
0.58593327 0.40499207 0.6163413 -0.6487224 -1.0659473 1.3558134 0.008799874 0.04073616
-0.07991985 0.22037077 -0.38803098 -1.2541958 2.1626296 0.61584145 -1.1926254 -0.7225109
-0.014133941 0.35858497 -1.4331322 -0.6785451 -2.2040327 -1.9042332 -2.9157393 -0.056619164
0.22238281 -1.1699836 -0.79833174 1.1362408 1.4158657 0.5105146 0.70826954 1.1384649
-0.4446032 -0.4941867 -0.15223925 -1.3073035 0.8707013 0.26861188 0.5227073 0.27918065
-0.7351515 -3.8185601 2.977539 0.7637642 -0.6557074 0.16803817 1.0409349 0.056909166
-1.0907114 0.090818346 0.5590116 0.94647396 -1.368068 0.58746934 -1.26136 -2.618481
-1.668594 -0.79467094 -1.0100251 -0.6238502 0.70323724 0.5183946 0.12664527 0.03371728
-0.3798034 0.48340687 -0.029301815 -1.0903232 1.4024137 0.6223627 -1.1881268 -0.44997674
-0.8481814 1.3893186 -0.04578133 -0.9652384 0.32151487 -0.018272748 -1.872131 -2.3297157
0.3911644 -0.042028435 -0.7786738 -0.2357742 0.78035736 1.010255 0.91850746 0.61474687
0.21755572 -0.19344282 -0.3248979 -0.06897883 -1.1233749 -1.4095145 -0.11987141 1.0565667
0.26494482 -0.41872868 1.4448667 -0.81998914 -2.0858006 -1.0886939 -0.7649028 1.3567075
0.31304818 0.37654677 -0.39850318 -0.78437006 1.0230032 -1.1076313 -2.714113 -0.0946607
0.25344026 -0.15438457 -0.6998458 -1.4598099 0.51336205 -0.1912041 0.13440934 0.21094547
0.26667023 -0.4848846 -0.6804635 -1.3503064 0.07638382 1.0206356 0.99789155 -0.40906763
00000000: e154 743f ec24 bbbf 9719 65be 2807 be3e
00000010: fada df3f 00ae 383e 1511 97be 39bf f93e
00000020: 801f 7ebe 7bdd 6bbf 373d 7e3d fb23 abbf
00000030: 4ec6 c4be 2948 3cbf 1e12 ccbf 2da6 573f
00000040: 57b1 01bf 0d22 683d c0c2 1cbf 1bf2 03bf
00000050: 3d8b 6bc0 0b79 c6be 4c58 523e 7eeb 023f
00000060: 3ff4 393e b487 90bf 36b9 81be 277a 2dbe
00000070: 8791 af3f 991d f83f d534 04c0 e492 afbf
00000080: 63ab 4dbe affd 81bf 559d ad3e 0c35 53bf
00000090: 93e0 603e 7c2f 13c0 5947 0f3f 4425 9d3e
000000a0: 6056 533d 896f 76be caef a0be cb9f 6c3f
000000b0: ca65 16bf 6889 d23e d28e 2fbf 9483 9bbe
000000c0: 5904 efbd 8ee6 a7bf 584a 7abe cbff 2840
000000d0: 47be 17be a5db 60be f30e 203f 31c4 3a3f
000000e0: f57e e23e ba9e b63e e520 343e fbbe ecbd
000000f0: 93d2 3340 8a31 d7bd 3020 893f 8569 52bf
00000100: 7af1 5a3c b18f 3b3e 67fa 23be 3df1 c33e
00000110: b4e1 d43f 8dd9 4f3f 6b8a 8d3f adef 86bf
00000120: 1c24 30bf ecc1 233f bb86 afbf 51d4 5a3f
00000130: 8f0a e63f 7656 e5be 745c 0dbe e473 993f
00000140: 9406 b73d 3700 453f 4ae7 b23f 91d3 58bf
00000150: ef99 d2bf 26b4 1e3f 91f4 193f 91e9 2ebf
00000160: a73e da3f fb91 0a3e 01ed d03e 9a10 21bf
00000170: 7dd7 573e 4862 8b3e 8787 a73d 6b89 743e
00000180: 081f 083d 18d1 8cbf f5c6 d93e c090 9abf
00000190: 6d22 f7be 4536 51be 1f77 97bf 8ba9 bbbf
000001a0: 2214 b73e c587 fbbf 0b66 f73e df2a 743f
000001b0: 0acf 1ac0 378e b0be dad7 643f 177e 64bf
000001c0: 858f e6bd 86bd adbe 4270 4cc0 aac0 b23d
000001d0: f9df e73d b42a 8d3d 7538 413d 1498 0abf
000001e0: 39f2 87be 8766 603e 8e76 24be 44c0 083f
000001f0: 3c32 6f3f 843f 8e3c ab62 013f 120d 333f
00000200: b9ff 153f 1f5b cf3e 8bc8 1d3f ac12 26bf
00000210: f670 88bf 4b8b ad3f 592d 103c f6da 263d
00000220: 05ad a3bd e0a8 613e ffab c6be 7d89 a0bf
00000230: 8668 0a40 c9a7 1d3f f3a7 98bf 79f6 38bf
00000240: 0c92 67bc 7398 b73e e070 b7bf 22b5 2dbf
00000250: df0e 0dc0 eabd f3bf 799b 3ac0 7fe9 67bd
00000260: 52b8 633e 06c2 95bf 785f 4cbf 5770 913f
00000270: 163b b53f 16b1 023f 2751 353f 38b9 913f
00000280: 08a3 e3be 0a06 fdbe 9be4 1bbe b955 a7bf
00000290: 48e6 5e3f 7f87 893e 25d0 053f c4f0 8e3e
000002a0: e432 3cbf 4a63 74c0 0090 3e40 0d86 433f
000002b0: 71dc 27bf 3312 2c3e 5b3d 853f 9619 693d
000002c0: 6e9c 8bbf f8fe b93d 621b 0f3f 1e4c 723f
000002d0: da1c afbf 6464 163f 3f74 a1bf 3195 27c0
000002e0: 7d94 d5bf 8e6f 4bbf 8148 81bf a6b4 1fbf
000002f0: 5b07 343f 82b5 043f 4caf 013e 211b 0a3d
00000300: 9775 c2be 1b81 f73e 5c0a f0bc b68f 8bbf
00000310: 4b82 b33f 2953 1f3f 8a14 98bf 5a63 e6be
00000320: 6b22 59bf 31d5 b13f 3485 3bbd dd19 77bf
00000330: 999d a43e bbb0 95bc fda1 efbf 101a 15c0
00000340: b346 c83e 0226 2cbd 2b57 47bf cb6e 71be
00000350: 80c5 473f 0950 813f 4e23 6b3f 0d60 1d3f
00000360: edc6 5e3e e015 46be 0459 a6be c644 8dbd
00000370: c0ca 8fbf f96a b4bf 247f f5bd 943d 873f
00000380: d9a6 873e 9b63 d6be 64f1 b83f cfea 51bf
00000390: c27d 05c0 525a 8bbf abd0 43bf 97a8 ad3f
000003a0: da47 a03e bdca c03e 9c08 ccbe 7acc 48bf
000003b0: c5f1 823f ddc6 8dbf 07b4 2dc0 78dd c1bd
000003c0: ecc2 813e fd16 1ebe 1829 33bf 0ddb babf
000003d0: b26b 033f 02cb 43be 9aa2 093e 1702 583e
000003e0: 0089 883e cb42 f8be db32 2ebf d7d6 acbf
000003f0: 1f6f 9c3d 30a4 823f d275 7f3f 5071 d1be

fc1.bias f4 [64]
-1.0990583 -0.37660918 0.23792155 0.033212308 -0.30193242 -0.6796868 0.35579196 -0.30778995
-0.11999527 -0.50742126 0.015311024 -0.34365082 0.49528736 0.103365175 0.8255124 0.3392381
0.5043543 0.5712118 -0.7360085 -0.3951016 0.5081898 0.85917306 0.17982732 0.23567979
0.24631025 0.106882185 -0.17607336 0.28547865 -0.46441138 0.4881837 0.20784962 -0.3687637
0.08849763 0.28517002 0.054274816 0.3355637 -0.72533685 0.03014357 0.40726617 -0.19499363
0.44285414 -0.28575492 0.10622242 0.031307038 -0.010426579 0.22844632 -0.04941848 0.03116345
0.4367023 0.2305599 0.2429428 0.4757841 -0.10269556 -0.41474834 -0.12908317 -0.1410339
0.13790731 0.27594727 -0.032374404 0.45334184 0.10096655 0.68089443 0.063794605 0.04954204
00000000: f1ad 8cbf ebd2 c0be b5a1 733e a109 083d
00000010: e396 9abe f4ff 2dbf 5d2a b63e a596 9dbe
00000020: 15c0 f5bd 5ce6 01bf 17db 7a3c 00f3 afbe
00000030: 4e96 fd3e 1fb1 d33d c854 533f 9eb0 ad3e
00000040: 5d1d 013f f03a 123f 0e6b 3cbf c24a cabe
00000050: ba18 023f c4f2 5b3f a724 383e 0b56 713e
00000060: c138 7c3e 0ce5 da3d 934c 34be 422a 923e
00000070: 54c7 edbe 37f3 f93e 88d6 543e 98ce bcbe
00000080: 3f3e b53d ce01 923e 454f 5e3d 01cf ab3e
00000090: adaf 39bf a6ef f63c 3185 d03e 69ac 47be
000000a0: c7bd e23e 784e 92be 248b d93d cf3b 003d
000000b0: 3ed4 2abc d5ed 693e 086b 4abd 7e4a ff3c
000000c0: 7297 df3e e517 6c3e ffc5 783e f999 f33e
000000d0: 0d52 d2bd e559 d4be 612e 04be 316b 10be
000000e0: 9337 0d3e f648 8d3e 069b 04bd 6c1c e83e
000000f0: 8dc7 ce3d 194f 2e3f bfa6 823d 98ec 4a3d

fc2.weight f4 [64, 64]
-0.8972213 0.77807575 0.9533083 0.49308404 0.182827 -0.53887445 -0.8534399 0.7169614
-0.77927285 -1.4855827 0.7652949 0.77246386 2.3319762 0.60651803 -0.11733421 0.64255625
0.6528906 0.68372524 -0.553431 -0.9929447 0.9067516 0.23178408 1.0337476 -0.52185416
0.51545197 -2.5027544 0.39664268 0.33312666 0.50579435 0.24358115 0.005038887 0.6943583
0.6108501 -0.20940962 -0.5628101 -1.2108054 -0.9935386 0.7082092 0.8169805 0.8606532
0.19567621 0.3169085 -1.3052555 1.4398314 0.014776875 0.4144877 0.2930913 0.21962072
1.3239064 -0.8993392 0.70931834 -1.1728622 -0.0026232176 1.2312652 0.3921901 0.43593344
0.69212663 0.832886 -1.8002315 0.5889404 1.6840571 0.74060637 1.0625216 0.40697768
-1.3182164 1.050492 -2.125522 -0.51183933 0.584855 0.14926994 0.4153303 1.5022898
1.2375895 1.241752 -0.6435112 0.14031631 0.6026183 -1.7540115 0.16588195 0.32498848
-0.5690473 1.0201485 -1.6827596 0.8003948 0.5338072 -0.056914628 0.89073664 0.013003013
0.6934965 -0.42747352 0.15687911 -0.22584514 -1.2252058 1.7012932 0.7569379 -2.004268
0.21632704 1.7931056 -0.095647775 0.094614714 0.904547 0.8923611 0.11740062 1.0978044
-0.48933703 -0.50740486 -0.2089635 0.68871737 0.27366546 -0.5888689 -0.048530668 0.4428417
-0.1148372 -0.17117496 -2.7078533 -1.8562797 -0.4671182 0.52291125 -1.2530918 -0.70890695
0.90715015 -0.61636 1.7713355 0.7262174 -0.009497564 -0.8520451 -1.1894664 0.2682456
0.72792166 1.2242988 0.047029674 -1.4625835 0.6529602 -0.22648878 0.21070895 -1.306081
0.50541925 0.7783191 -1.6885815 1.0712003 2.0101397 -0.4697836 -1.6734588 -0.06645408
-0.67612356 0.11867392 0.48669407 -0.7860927 -0.013574069 0.026579006 -3.3812656 -0.058835614
-0.31285584 -0.41569802 0.08061063 0.7758804 0.712037 -0.016345656 0.29332882 -1.7470028
-0.35259968 0.2853321 1.223618 0.80312675 2.1535792 0.7229477 0.19282643 0.9309616
-0.98006564 1.4588213 0.06861615 -0.02588814 0.91497284 0.36984366 0.08470672 -2.9323368
0.5829635 0.762326 0.4949158 -0.8613518 0.27136603 0.34051296 0.6682542 0.70598096
0.3490571 -1.325417 1.3787459 -1.0469749 0.13566902 -2.3582618 0.23962982 0.21441604
1.6888331 0.8217387 -0.82756865 0.4793795 0.28686976 0.7204989 -0.5008501 -1.1340852
-1.0361849 0.29393643 0.37741444 0.85109687 0.29024655 -3.3012643 -0.85277957 0.5035342
0.10129876 -0.39718994 0.7095963 -1.8770515 0.24832007 -0.11177689 0.53999984 0.90935355
-0.0551683 -0.017697768 0.84247494 0.36398253 0.29671744 -0.21270505 -1.2861385 0.44550452
-0.102021255 0.84260386 -0.9763089 -0.09204207 -0.47437832 0.6041558 -0.5521401 0.49792185
0.18475866 1.1576359 0.1544901 -0.6207266 0.7158173 0.26070014 -0.32632622 -1.8469939
-0.08451587 0.5886675 -0.17781681 0.15670632 0.7685219 -0.039766524 -0.2274916 0.812685
0.57696754 0.9327865 0.6808965 -0.50495696 0.49947968 0.035438217 0.19685039 -0.72321665
00000000: 4cb0 65bf f92f 473f 030c 743f 8375 fc3e
00000010: 0037 3b3e adf3 09bf 0a7b 5abf c88a 373f
00000020: 6d7e 47bf 9327 bebf 5eea 433f 31c0 453f
00000030: 193f 1540 c444 1b3f eb4c f0bd 917e 243f
00000040: d723 273f 9e08 2f3f a7ad 0dbf a031 7ebf
00000050: df20 683f ce58 6d3e d751 843f 3c98 05bf
00000060: a9f4 033f 212d 20c0 c014 cb3e 948f aa3e
00000070: bd7b 013f 566d 793e 3f1d a53b 77c1 313f
00000080: ac60 1c3f 7a6f 56be 5314 10bf acfb 9abf
00000090: 8c58 7ebf 334d 353f a225 513f c553 5c3f
000000a0: 585f 483e d541 a23e 9d12 a7bf 654c b83f
000000b0: b51a 723c bb37 d43e 1010 963e 41e4 603e
000000c0: c475 a93f 183b 66bf e395 353f 5920 96bf
000000d0: 4aea 2bbb 199a 9d3f 24cd c83e ab32 df3e
000000e0: 362f 313f 0438 553f fc6d e6bf ccc4 163f
000000f0: 2f8f d73f 6198 3d3f b500 883f 615f d03e
00000100: 51bb a8bf 8676 863f 8d08 08c0 e707 03bf
00000110: 0fb9 153f 38da 183e 2ca6 d43e 084b c03f
00000120: 5569 9e3f bbf1 9e3f 26bd 24bf 14af 0f3e
00000130: 3145 1a3f 7383 e0bf f5dc 293e e464 a63e
00000140: 15ad 11bf 3a94 823f ab64 d7bf ace6 4c3f
00000150: 97a7 083f 501f 69bd 5107 643f 970a 553c
00000160: fd88 313f cfdd dabe eba4 203e f343 67be
00000170: 8bd3 9cbf fac3 d93f afc6 413f ed45 00c0
00000180: d684 5d3e 7c84 e53f fbe2 c3bd 5cc5 c13d
00000190: 6490 673f c771 643f bc6f f03d db84 8c3f
000001a0: 628a fabe 49e5 01bf 87fa 55be c84f 303f
000001b0: e11d 8c3e 1dc0 16bf 18c8 46bd 26bc e23e
000001c0: c42f ebbd 7d48 2fbe 784d 2dc0 939a edbf
000001d0: 1e2a efbe 83dd 053f 5065 a0bf ed7a 35bf
000001e0: fe3a 683f c5c9 1dbf 1fbb e23f 62e9 393f
000001f0: ac9b 1bbc a11f 5abf 6f40 98bf 7d57 893e
00000200: 1359 3a3f d3b5 9c3f 30a2 403d f035 bbbf
00000210: 6628 273f adec 67be 16c4 573e aa2d a7bf
00000220: 2863 013f ec3f 473f 7023 d8bf 171d 893f
00000230: 21a6 0040 7a87 f0be e633 d6bf 1419 88bd
00000240: 6f16 2dbf 500b f33d f72f f93e 5f3d 49bf
00000250: c665 5ebc 37bc d93c a866 58c0 9dfd 70bd
00000260: a42e a0be 5fd6 d4be 3017 a53d 19a0 463f
00000270: 0f48 363f 53e7 85bc 322f 963e ca9d dfbf
00000280: f287 b4be 0d17 923e 849f 9c3f b799 4d3f
00000290: 3ed4 0940 1a13 393f 4b74 453e 8053 6e3f
000002a0: 95e5 7abf a8ba ba3f a086 8c3d 5d13 d4bc
000002b0: a93b 6a3f 265c bd3e b87a ad3d 68ab 3bc0
000002c0: 193d 153f cc27 433f 9b65 fd3e 8d81 5cbf
000002d0: 7df0 8a3e b757 ae3e b512 2b3f 2bbb 343f
000002e0: 9db7 b23e 44a7 a9bf bf7a b03f 4603 86bf
000002f0: d2ec 0a3e c3ed 16c0 8561 753e e18f 5b3e
00000300: af2b d83f 785d 523f 8adb 53bf 3b71 f53e
00000310: 98e0 923e 9e72 383f b637 00bf b429 91bf
00000320: b5a1 84bf d67e 963e 773c c13e 7ce1 593f
00000330: 329b 943e ea47 53c0 c34f 5abf 9ee7 003f
00000340: b975 cf3d 7b5c cbbe 1aa8 353f 3943 f0bf
00000350: 9e47 7e3e 48eb e4bd 6e3d 0a3f 65cb 683f
00000360: 28f8 61bd e9fa 90bc 70ac 573f eb5b ba3e
00000370: 59eb 973e 5acf 59be 30a0 a4bf 2b19 e43e
00000380: 85f0 d0bd e3b4 573f 61ef 79bf 8e80 bcbd
00000390: b7e1 f2be f4a9 1a3f 0e59 0dbf 9def fe3e
000003a0: 6031 3d3e 6a2d 943f a732 1e3e f0e7 1ebf
000003b0: cd3f 373f 7d7a 853e 3b14 a7be 4c6a ecbf
000003c0: a816 adbd eab2 163f 9c15 36be 9f77 203e
000003d0: dabd 443f 39e2 22bd 8ff3 68be 200c 503f
000003e0: 25b4 133f 19cb 6e3f 3c4f 2e3f dc44 01bf
000003f0: cdbb ff3e aa27 113d 2693 493e ba24 39bf

fc2.bias f4 [64]
0.2695687 -0.37243488 -0.63575625 -0.15169653 0.28986812 -0.32844523 -0.4397789 -0.58947545
0.43496433 -0.06565119 -0.23428729 -0.15880346 -0.39961076 0.6269248 -0.31324193 0.10382047
-1.1411244 -1.0292827 0.24867977 -0.26958907 0.44890046 -0.1763224 -0.28337666 -0.04687938
-0.32012993 0.0138382595 -0.77815443 0.48696 0.065629914 0.07884624 -0.15438868 -0.670515
0.08365712 0.3601034 0.06441258 -0.27448228 -0.06542922 0.57421356 0.3521929 -0.2624012
0.1989998 -0.5750766 -0.54001105 -0.18935202 -0.21165612 0.9124609 -0.6780258 -0.3956399
-0.28757304 -0.050271943 -0.4346178 0.23835199 0.35008696 -0.10503664 0.629941 -0.5628186
-0.24012788 0.61731255 0.0025252588 0.6516326 0.022408305 -0.11122776 0.03514312 0.27820414
00000000: e904 8a3e c9af bebe ecc0 22bf 5656 1bbe
00000010: 9869 943e f929 a8be b32a e1be dde7 16bf
00000020: a5b3 de3e 2274 86bd 02e9 6fbe 609d 22be
00000030: c899 ccbe 257e 203f 3f61 a0be d49f d43d
00000040: 5d10 92bf 89bf 83bf e9a5 7e3e 9407 8abe
00000050: 48d6 e53e dc8d 34be bf16 91be 9804 40bd
00000060: 12e8 a3be deb9 623c 2135 47bf d252 f93e
00000070: fa68 863d 237a a13d 1118 1ebe dfa6 2bbf
00000080: 6d54 ab3d 795f b83e beea 833d f188 8cbe
00000090: c1ff 85bd a9ff 123f a152 b43e 7359 86be
000000a0: 9bc6 4b3e 3838 13bf 2a3e 0abf 7fe5 41be
000000b0: 62bc 58be 0a97 693f 1993 2dbf 5091 cabe
000000c0: c63c 93be f4e9 4dbd 3986 debe 8b12 743e
000000d0: 993e b33e 731d d7bd d043 213f e114 10bf
000000e0: 15e4 75be 3208 1e3f d07e 253b 65d1 263f
000000f0: 9f91 b73c 61cb e3bd 3bf2 0f3d c670 8e3e

fc3.weight f4 [4, 64]
1.5133666 2.3759882 -0.92620486 -0.10016027 1.9671067 -0.07936634 -0.3887413 -0.13527276
-0.10459894 1.5911136 0.87870497 -0.039085515 -0.41934308 0.88898927 -0.17034179 1.3763943
-2.4275475 -1.9396251 0.91242665 -0.41259596 1.2000242 -1.4081012 0.24066249 0.094812945
-0.030196667 1.7899551 -1.1866335 1.0678564 0.26808482 -0.4936439 0.076904126 -0.47045055
-0.2137691 0.6778284 1.0268321 1.8742653 0.19156376 2.1365554 -0.9245409 -0.50764924
1.2207775 -1.1655446 -0.5317764 -0.013862134 -0.35819525 -0.35080948 -0.5927994 -0.68672836
2.5083687 -0.8290973 -0.610474 1.1192486 -0.60075647 -0.0051390515 0.91671866 -0.8477204
-0.4375432 1.2044414 -0.02720066 1.5039101 -0.3781261 1.1222765 1.5938845 1.2909954
1.6099666 2.3862514 -0.9909538 -0.4496129 1.7500545 0.013693886 -0.5533971 -0.2726275
-0.49564436 1.6744481 0.7181083 -0.07932949 -0.8445976 0.83418363 -0.39250273 1.4236071
-2.177803 -2.2016723 0.78160936 -0.03061441 0.83256006 -0.81604546 -1.5933064 0.05741516
0.3171078 1.4729602 -1.2279329 1.1378565 1.1213205 -0.574535 -0.023909453 -0.5532676
0.14850146 -0.23165683 0.9838891 1.8683424 0.33183053 1.9860123 -1.1078924 0.11334953
1.2183362 -1.1465927 -0.57286155 0.10471496 -0.49766967 -0.050354853 -0.676584 -0.76582044
3.2103527 -0.52635 -0.34677175 1.067652 -0.7713606 0.031208858 1.0049509 -1.0384196
-0.5903732 1.2842096 -0.091814205 1.7051646 -0.9612632 0.9911158 1.5868086 1.5065439
1.432651 2.4223292 -1.1915677 -0.8024112 1.7131603 0.23565051 0.30503887 -0.51728725
-0.35134998 1.7840521 0.00038317137 0.06298965 0.27437428 0.7467102 -0.11452377 1.3396083
-1.8161676 -2.0091357 1.1478145 0.9037499 1.148083 -1.5370064 -1.4177909 -0.12459043
0.10936955 2.1399312 -1.0550591 1.0396278 -0.11802364 -0.24987453 -0.059486326 -0.5701746
-0.26103702 1.2625042 0.5959642 2.0656528 -0.05602122 2.136795 -0.99875414 0.09056659
1.2709322 -1.3552766 -0.23799089 -0.0875643 -0.31516653 -0.4778064 -0.5069517 -0.6984569
2.991559 0.21983066 -0.12553613 1.2993399 -0.46588382 -0.044702295 1.0816661 -1.6679424
-0.3774147 1.2429246 -0.013597359 1.6739482 0.05283304 1.2245651 1.6467093 1.168437
1.4410241 2.359834 -0.955274 0.16364852 1.98671 -0.76431566 -0.91784596 0.08076595
0.38894182 1.4791783 1.0319784 0.0023877025 0.6352417 0.9684088 0.33944792 1.0535579
-1.7455031 -2.2571414 1.0029888 -0.56230295 1.2955246 -1.9808767 0.53994983 -0.10724299
-0.3423675 2.1360955 -1.0996124 1.1261855 -0.28085378 -0.34231052 -0.15486369 -0.44598213
-0.69919395 1.8715591 1.395306 2.1188858 -0.3417393 2.3026857 -0.8415854 -0.9508025
1.2659082 -1.0954036 -0.4220581 0.025896154 -0.33231002 -0.82819545 -0.7190055 -0.5321389
2.1826482 -0.97482866 -0.5902364 1.2561382 -0.36067945 0.028484851 0.71584433 -0.6872604
-0.49467495 1.2702178 0.092815965 1.8525604 -0.10107736 1.288924 1.3548554 1.0823866
00000000: ffb5 c13f 3110 1840 c31b 6dbf d420 cdbd
00000010: 27ca fb3f d28a a2bd 1a09 c7be f184 0abe
00000020: f837 d6bd 9ca9 cb3f cff2 603f 2218 20bd
00000030: 23b4 d6be cd94 633f 146e 2ebe b02d b03f
00000040: f05c 1bc0 a345 f8bf cb94 693f c73f d3be
00000050: 659a 993f a93c b4bf 3a70 763e 4a2d c23d
00000060: 005f f7bc 401d e53f 9be3 97bf 85af 883f
00000070: 6a42 893e e5be fcbe e97f 9d3d e5de f0be
00000080: 49e6 5abe 2986 2d3f 3c6f 833f ede7 ef3f
00000090: 4a29 443e 53bd 0840 b6ae 6cbf 4df5 01bf
000000a0: 7042 9c3f 9130 95bf 8022 08bf 011e 63bc
000000b0: 5e65 b7be 4d9d b3be b4c1 17bf 6ecd 2fbf
000000c0: 1d89 2040 b83f 54bf 0648 1cbf 8a43 8f3f
000000d0: 2dcb 19bf 7d65 a8bb 13ae 6a3f 3404 59bf
000000e0: aa05 e0be 232b 9a3f ebd3 debc 2080 c03f
000000f0: bf99 c1be c2a6 8f3f 6804 cc3f 563f a53f
00000100: 6313 ce3f 58b8 1840 26af 7dbf a933 e6be
00000110: c901 e03f 525c 603c 6fab 0dbf d595 8bbe
00000120: 19c5 fdbe 5154 d63f f2d5 373f 8077 a2bd
00000130: 8c37 58bf 0f8d 553f 1ef6 c8be c238 b63f
00000140: 2061 0bc0 33e8 0cc0 8d17 483f 12cb fabc
00000150: a822 553f 5be8 50bf 77f1 cbbf 292c 6b3d
00000160: f45b a23e f689 bc3f e82c 9dbf 48a5 913f
00000170: 6e87 8f3f ba14 13bf c2dd c3bc f2a2 0dbf
00000180: c410 183e 7337 6dbe 28e0 7b3f d825 ef3f
00000190: b1e5 a93e a735 fe3f 6bcf 8dbf cc23 e83d
000001a0: 71f2 9b3f 8dc3 92bf 0ea7 12bf cc74 d63d
000001b0: 8fce febe e440 4ebd 9c34 2dbf cf0c 44bf
000001c0: 6b76 4d40 e0be 06bf 118c b1be d2a8 883f
000001d0: e377 45bf b8a9 ff3c 3ba2 803f efea 84bf
000001e0: b322 17bf fb60 a43f 1609 bcbd d542 da3f
000001f0: 5815 76bf c4b9 7d3f 8b1c cb3f 6ed6 c03f
00000200: 1c61 b73f 7107 1b40 4a85 98bf d26a 4dbf
00000210: d648 db3f 5e4e 713e 0e2e 9c3e f06c 04bf
00000220: 25e4 b3be d25b e43f 64e4 c839 b800 813d
00000230: c97a 8c3e 6628 3f3f 708b eabd 4978 ab3f
00000240: 2e78 e8bf ae95 00c0 96eb 923f 275c 673f
00000250: 62f4 923f a0bc c4bf 2c7a b5bf 4429 ffbd
00000260: 25fd df3d a2f4 0840 2d0c 87bf 8612 853f
00000270: 61b6 f1bd 1cdf 7fbe efa7 73bd f6f6 11bf
00000280: a5a6 85be bd99 a13f 1c91 183f a833 0440
00000290: 8276 65bd 40c1 0840 5aae 7fbf fa7a b93d
000002a0: e8ad a23f b479 adbf e2b3 73be e954 b3bd
000002b0: 825d a1be 0aa3 f4be 96c7 01bf 12ce 32bf
000002c0: b475 3f40 4a1b 613e 8b8c 00be c550 a63f
000002d0: 5388 eebe c119 37bd 0974 8a3f 237f d5bf
000002e0: 803c c1be 2718 9f3f 75c7 5ebc ef43 d63f
000002f0: 7567 583d 8dbe 9c3f 5fc7 d23f 588f 953f
00000300: 7a73 b83f 8507 1740 d68c 74bf 7a93 273e
00000310: 834c fe3f 31aa 43bf f4f7 6abf 9e68 a53d
00000320: 6223 c73e b755 bd3f de17 843f 007b 1c3b
00000330: 339f 223f a4e9 773f 1ecc ad3e fcda 863f
00000340: a56c dfbf 0175 10c0 f061 803f 16f3 0fbf
00000350: c0d3 a53f 5e8d fdbf 273a 0a3f 36a2 dbbd
00000360: cb4a afbe cab5 0840 19c0 8cbf d926 903f
00000370: 11cc 8fbe 5343 afbe 9694 1ebe c557 e4be
00000380: 60fe 32bf 408f ef3f 6399 b23f d39b 0740
00000390: 74f8 aebe 345f 1340 2472 57bf cb67 73bf
000003a0: 4809 a23f 2f36 8cbf 0018 d8be 2c24 d43c
000003b0: 8a24 aabe 9e04 54bf bf10 38bf 413a 08bf
000003c0: 82b0 0b40 5f8e 79bf bc19 17bf 23c9 a03f
000003d0: faaa b8be 1059 e93c 9341 373f 4cf0 2fbf
000003e0: 0946 fdbe 7f96 a23f 4c16 be3d b320 ed3f
000003f0: a601 cfbd 76fb a43f e76b ad3f a58b 8a3f

fc3.bias f4 [4]
0.4754939 0.12515871 0.31648582 0.60965765
00000000: f073 f33e 9b29 003e 6e0a a23e 8612 1c3f
