dqn/model/dqn_lunar_lander_2023-05-03_15-28-39.pth (torch, 22463 bytes, 6 tensors)

fc1.weight f4 [64, 8]
-0.00038276074 -0.062064305 1.8870574 -0.68976825 0.005635057 1.7636507 -0.671773 0.02403238
-0.20793577 0.2685152 -0.21730474 -0.8401039 1.6216284 0.20906289 0.73257643 -0.2800281
1.4073793 -0.117054604 0.57670844 0.06375474 -0.9407687 0.50429326 -1.0260022 -1.9057788
0.16458334 1.4071615 1.9353396 0.28167105 -0.7139411 -0.20664798 -1.3350066 -0.45013475
0.28256807 0.32432896 -0.019846264 1.3552772 0.93916714 1.8520851 -0.047006432 0.11315372
-0.6473913 -0.6804946 -0.5453711 -0.73818356 -2.3071747 1.0539633 0.54175705 -2.6078072
0.48103276 0.13294515 -1.4009767 -1.301189 -0.87400156 0.27563962 -0.27745116 1.3289769
0.03347779 0.20384793 0.5041631 -0.73242176 -1.7187325 -0.09943777 -0.02311464 -0.481041
0.013096246 -0.14640556 2.5130155 -2.2095885 -0.010996518 -0.20937718 -1.4134023 1.387078
0.46882755 -0.16254587 0.17479818 -2.2794857 -0.3002218 -1.054141 -1.1092743 -0.42742324
0.02632105 0.0010969942 0.010531838 0.037661634 4.2917166 -0.21622019 -0.03880836 1.7747858
-0.25468776 0.17536503 1.7494527 2.3694208 -1.0883068 0.17008412 -0.1923136 1.0794655
-0.5018991 -0.67949975 -0.33287868 -0.82264245 1.5028976 1.8130226 1.2024807 0.7515242
-0.011985924 -0.49962702 -0.9590718 -1.1923852 -0.62529415 0.28814515 1.1660957 -1.2338141
-0.3450555 -0.46994242 -0.36057734 0.14494026 0.42232272 -0.9079036 0.5075248 -0.34978935
0.80092114 -3.272493 -1.8214928 -0.4714706 0.05222469 0.12391726 0.06081977 -1.0345203
0.19340332 -0.2544641 -0.16455337 -0.6933889 -2.654787 -0.26242438 0.5031775 -0.7618008
-0.89979666 -0.2925508 -0.56803834 -0.9422886 0.010125737 0.31193534 0.79983157 0.6395667
2.3165371 0.34933856 1.5775492 -1.0211328 -0.4539867 -0.06409051 -0.40658557 0.04834983
0.24441905 0.19927046 1.0491819 -0.85999084 -0.097170524 -0.19750442 -1.4557512 1.1876376
0.05508675 -0.42357287 0.11409524 -0.55865854 -1.4491901 -1.4317652 1.1587356 1.3200462
1.0434856 0.19153428 -0.27631417 0.036497544 1.7192601 0.6686908 1.6048248 -0.50010306
0.06545191 -0.62034076 0.47903174 -0.9441696 -1.5022042 -1.8195152 -1.3777534 0.19257377
-0.06390723 -1.0989867 0.5314586 -0.95740163 1.2731019 -0.8274038 -1.8525811 0.47154546
-0.48030657 -0.81020665 1.1468143 2.8901298 -0.13404553 0.7320734 0.42088985 0.86600107
1.8167796 -0.15077311 -0.027858283 0.118970186 -0.82413983 1.3479195 -1.4001857 -0.6919275
0.087760076 0.243219 0.9942758 0.3052654 2.169809 0.63427323 -0.2823815 0.092497945
-0.3040459 0.45813122 0.5189941 0.043850422 -0.7815923 1.2773069 -1.3124908 0.26563627
1.8535168 -1.180564 -2.6240928 -0.32366392 0.399908 -0.6663465 -0.10429415 0.48859042
0.18802692 0.32223803 0.553317 -0.43182355 -0.12613305 1.6831148 -3.246298 0.65707654
-0.6520866 0.22454569 1.0575694 -0.8905414 0.44180617 0.6497102 -0.85146254 -0.8790124
0.8585936 -0.0061255014 -0.7333853 0.18738642 0.5870761 0.2561895 1.0304008 1.0894309
00000000: 47ad c8b9 2437 7ebd 198b f13f a794 30bf
00000010: 49a6 b83b 4ebf e13f 51f9 2bbf 8edf c43c
00000020: 1ded 54be d37a 893e 2285 5ebe 0d11 57bf
00000030: 8591 cf3f 9514 563e 218a 3b3f d85f 8fbe
00000040: 0125 b43f 53ba efbd 2aa3 133f d891 823d
00000050: 38d6 70bf 5d19 013f 0a54 83bf 8ff0 f3bf
00000060: 8988 283e de1d b43f 35b9 f73f 3037 903e
00000070: d8c4 36bf 879b 53be 7fe1 aabf 1078 e6be
00000080: c3ac 903e 720e a63e a294 a2bc b979 ad3f
00000090: 426d 703f 2011 ed3f d189 40bd 23bd e73d
000000a0: 70bb 25bf e534 2ebf 719d 0bbf 99f9 3cbf
000000b0: c0a8 13c0 45e8 863f 97b0 0a3f 50e6 26c0
000000c0: ed49 f63e c622 083e 3453 b3bf 5c8d a6bf
000000d0: 91be 5fbf a320 8d3e 140e 8ebe ea1b aa3f
000000e0: 0220 093d 83bd 503e d510 013f fe7f 3bbf
000000f0: 6dff dbbf 08a6 cbbd ea5a bdbc 024b f6be
00000100: a391 563c 57eb 15be 3fd5 2040 e669 0dc0
00000110: bd2a 34bc f966 56be 5eea b4bf c68b b13f
00000120: 2a0a f03e 6d72 26be 4bfe 323e 18e3 11c0
00000130: acb6 99be 18ee 86bf b3fc 8dbf 38d7 dabe
00000140: 3e9f d73c 04c9 8f3a bb8d 2c3c 1643 1a3d
00000150: be55 8940 d368 5dbe 84f5 1ebd 2e2c e33f
00000160: 6f66 82be e492 333e 11ee df3f 97a4 1740
00000170: a34d 8bbf 882a 2e3e dbed 44be ed2b 8a3f
00000180: 767c 00bf b2f3 2dbf 136f aabe b298 52bf
00000190: f35e c03f 2011 e83f e3ea 993f e463 403f
000001a0: 9c60 44bc 1dcf ffbe bb85 75bf 14a0 98bf
000001b0: 4713 20bf c387 933e a042 953f 9fed 9dbf
000001c0: 1dab b0be 4b9c f0be 989d b8be 386b 143e
000001d0: af3a d83e 5f6c 68bf 25ed 013f 9717 b3be
000001e0: 2b09 4d3f 8670 51c0 ad26 e9bf 9864 f1be
000001f0: 8ee9 553d 55c8 fd3d 271e 793d 296b 84bf
00000200: 850b 463e 1e49 82be ae80 28be ef81 31bf
00000210: 08e8 29c0 7d5c 86be 3ed0 003f 6105 43bf
00000220: 1359 66bf 38c9 95be f66a 11bf d339 71bf
00000230: 6be6 253c fdb5 9f3e c3c1 4c3f a5ba 233f
00000240: 2542 1440 81dc b23e 22ed c93f 7bb4 82bf
00000250: f270 e8be e341 83bd fc2b d0be 790a 463d
00000260: fd48 7a3e 8e0d 4c3e 984b 863f 5c28 5cbf
00000270: 5701 c7bd 993e 4abe 0e56 babf 8204 983f
00000280: a5a2 613d 8bde d8be c4aa e93d 3f04 0fbf
00000290: 107f b9bf 1544 b7bf 7351 943f 46f7 a83f
000002a0: f090 853f 9021 443e 0d79 8dbe 737e 153d
000002b0: b710 dc3f 522f 2b3f e66a cd3f c106 00bf
000002c0: a70b 863d a7ce 1ebf a643 f53e 19b5 71bf
000002d0: 3a48 c0bf e0e5 e8bf 395a b0bf 0f32 453e
000002e0: cbe1 82bd 99ab 8cbf ac0d 083f 4618 75bf
000002f0: 01f5 a23f bcd0 53bf 6121 edbf 686e f13e
00000300: beea f5be b469 4fbf d0ca 923f e3f7 3840
00000310: 3b43 09be 2a69 3b3f e07e d73e 3fb2 5d3f
00000320: 3c8c e83f 4464 1abe 0e37 e4bc a4a6 f33d
00000330: d4fa 52bf a088 ac3f 4939 b3bf 2922 31bf
00000340: 8ebb b33d 670e 793e dc88 7e3f bf4b 9c3e
00000350: 27de 0a40 bb5f 223f 4f94 90be 906f bd3d
00000360: e7ab 9bbe 2d90 ea3e ccdc 043f 809c 333d
00000370: 6f16 48bf cb7e a33f b3ff a7bf 7a01 883e
00000380: 0a40 ed3f b91c 97bf 23f1 27c0 47b7 a5be
00000390: bec0 cc3e af95 2abf 2c98 d5bd 8628 fa3e
000003a0: 218a 403e 62fc a43e 2fa6 0d3f fa17 ddbe
000003b0: 0629 01be 4e70 d73f 59c3 4fc0 2b36 283f
000003c0: 26ef 26bf 4eef 653e 6f5e 873f 85fa 63bf
000003d0: 6b34 e23e 6853 263f 73f9 59bf f506 61bf
000003e0: cacc 5b3f 6eb8 c8bb 24bf 3bbf 3ae2 3f3e
000003f0: 9f4a 163f 452b 833e 2ce4 833f 7972 8b3f

fc1.bias f4 [64]
0.6442694 0.14310205 -0.054476023 0.2408271 0.30288303 -0.4607168 -0.13919705 0.39263844
0.021612301 -0.03617045 0.00869679 -0.3707694 -0.3521929 0.16230923 0.447704 0.30495897
0.22453608 0.33109373 -0.42029545 -0.40472874 -0.23462357 -0.26623768 -0.58206517 0.2072743
0.31224102 0.17411181 0.21625349 0.21005099 -0.2947286 -0.3746228 -0.37600005 0.061706163
-0.47437915 -0.36770457 -0.10157894 0.41712606 -0.12483486 -0.0120928725 0.21751578 0.023464374
-0.36726183 -0.3023579 -0.35976228 0.121992335 -0.06144123 0.20746489 0.39316782 -0.25331688
0.4896213 0.6022322 0.25306705 -0.14954968 -0.4925369 -0.26648578 -0.008213068 -0.33126435
0.3737087 0.08894061 0.13150625 0.38820893 0.009874951 0.41466185 0.48933616 0.04565097
00000000: d7ee 243f 5889 123e 4022 5fbd 619b 763e
00000010: 7c13 9b3e 13e3 ebbe ac89 0ebe e807 c93e
00000020: 480c b13c 7727 14bd fb7c 0e3c 7dd5 bdbe
00000030: a152 b4be 6434 263e 7539 e53e 9523 9c3e
00000040: c9ec 653e 1e85 a93e f730 d7be 9b38 cfbe
00000050: 2941 70be 4e50 88be 3902 15bf b73f 543e
00000060: 0ede 9f3e 5e4a 323e 8e71 5d3e 9b17 573e
00000070: abe6 96be 8fce bfbe 1483 c0be 9abf 7c3d
00000080: d3e1 f2be c643 bcbe 9f08 d0bd 8c91 d53e
00000090: 6ba9 ffbd 2f21 46bc 75bc 5e3e 5c38 c03c
000000a0: be09 bcbe a8ce 9abe c332 b8be 1ed7 f93d
000000b0: cda9 7bbd ad71 543e 4b4d c93e c0b2 81be
000000c0: a5af fa3e e42b 1a3f 0192 813e 8d23 19be
000000d0: cc2d fcbe d370 88be 1b90 06bc 7b9b a9be
000000e0: bf56 bf3e 7f26 b63d 93a9 063e 52c3 c63e
000000f0: 8cca 213c 8f4e d43e 458a fa3e 83fc 3a3d

fc2.weight f4 [64, 64]
-0.25218788 0.2618809 -0.34502262 -2.8695204 -0.5988437 1.7511542 -0.06872619 0.80405986
-1.1075896 3.9557576 -2.0086074 2.745084 0.5087798 0.92598784 -1.2021246 -0.043030787
1.4630301 0.6824244 -2.2047803 -0.2043353 -0.22662497 0.80028963 -0.07577263 -1.2712578
-2.2991922 3.3714287 -0.8592304 -2.395253 1.9663118 1.134362 0.28936377 -0.7201205
-0.7656119 3.5332568 0.01704167 -0.8268276 -0.0029603452 0.123603866 -1.6123267 0.28362554
-1.2580745 -0.74548185 -3.8993428 -1.1571306 -1.9124242 2.2114594 -4.9821177 -3.9019074
-1.012464 0.37166372 0.62745833 -0.99424607 -0.97267956 -0.98154664 0.9020328 -0.3283733
-0.44402513 -1.0881268 3.3333583 0.40055162 2.2818825 1.0483431 -1.6677722 -3.9729435
-0.31689855 0.7039421 -0.96512955 -0.03973466 -1.1670569 0.9028678 0.48477152 0.081440106
-0.43423867 0.2954092 1.6094136 -0.19575329 -1.6185911 -0.8412559 -0.7115924 -1.0403908
0.22196774 -1.8302934 0.66270024 0.6921958 -1.9306654 0.99072045 -0.50639904 -1.3070916
2.0518672 -0.05855993 0.15188192 -0.21942826 1.798612 1.1943653 0.51554406 -0.20314486
0.22708637 0.35475639 1.7845695 0.2135354 -1.2028829 1.0039021 -0.05207468 0.23000404
0.27452672 0.0950824 0.45194635 -0.8476282 0.44377196 -2.541084 0.042554844 0.57210183
-0.4276669 0.047426242 0.58181125 0.16464697 -0.5733147 -0.596469 0.47878432 0.027688676
-1.399374 -1.3467162 0.37251285 0.018061642 0.9679372 1.3285184 -0.91175824 0.0135579435
1.0788137 -0.042657178 0.59129155 -0.45900598 -0.26412192 0.8876472 -0.39433736 0.7381064
2.4771583 -1.261219 0.5221915 0.76395893 -0.23554447 1.5443909 0.7705812 0.8923163
0.9564606 -0.412823 -3.19115 -0.061800394 0.47832748 1.0217593 0.15862574 1.1629915
-0.4844543 -0.95819247 -1.5512048 -1.0426841 1.019202 -0.8825314 1.9361631 0.3114472
-0.14443418 -1.0846146 -0.54156905 -0.8412226 1.0677682 -0.02225341 0.35360593 0.11410011
0.78161436 -0.5315409 -3.0302558 -0.39913136 -3.2454784 0.38256198 -0.7278802 0.4911713
0.45350358 -1.2411402 -0.41578934 -0.62331855 0.5986194 1.0099417 0.63508373 -0.060665548
1.5648918 0.7791049 0.14302303 -3.3652601 0.7924189 0.25945836 -2.3368669 0.8237815
-0.15545174 -0.8851657 1.1857789 -0.8884929 -0.6795673 1.5344514 -0.54974633 -0.09472798
-0.016778674 0.56478196 -0.9393277 -1.5820408 0.9279833 1.2596843 -0.8960291 -0.17518465
-0.35121632 1.9144526 -1.5681076 -1.1845285 0.03984568 -0.08995285 1.0927356 0.82031155
-0.6039609 -1.2390884 -0.8277433 -0.41400748 -5.291801 1.5695934 -0.55664545 -0.1766263
-0.20724744 0.22993083 -3.7768686 0.31176403 -2.532189 -0.21569596 -0.2500439 -0.8401797
-0.26374263 1.3154894 0.47614837 -1.5627636 0.7283178 -0.8523048 0.45768625 -0.37589902
-2.5081613 -0.9278465 -0.8817731 -0.13581054 -0.6391922 0.74114275 -0.39030543 -1.4373398
1.3244735 -0.21538877 -0.51544386 0.6032487 -1.1538262 -1.2524333 0.41082707 -0.1513213
00000000: c51e 81be 4115 863e cea6 b0be 39a6 37c0
00000010: d24d 19bf d225 e03f 51c0 8cbd ded6 4d3f
00000020: 7fc5 8dbf 222b 7d40 068d 00c0 75af 2f40
00000030: 653f 023f 8a0d 6d3f 38df 99bf 0d41 30bd
00000040: 9244 bb3f 5eb3 2e3f 1f1b 0dc0 463d 51be
00000050: 6010 68be c8df 4c3f ae2e 9bbd 93b8 a2bf
00000060: f725 13c0 7dc5 5740 86f6 5bbf d34b 19c0
00000070: 1bb0 fb3f c632 913f 7d27 943e d159 38bf
00000080: 24ff 43bf e120 6240 f99a 8b3c f9aa 53bf
00000090: 5a02 42bb 0624 fd3d b960 cebf 5e37 913e
000000a0: 9608 a1bf e6d7 3ebf d58e 79c0 db1c 94bf
000000b0: 51ca f4bf 8d88 0d40 826d 9fc0 dab8 79c0
000000c0: 6c98 81bf b54a be3e 1ca1 203f e986 7ebf
000000d0: 8701 79bf a446 7bbf 9feb 663f 8c20 a8be
000000e0: 4357 e3be bd47 8bbf be55 5540 1a15 cd3e
000000f0: 5d0a 1240 1b30 863f 8f79 d5bf b544 7ec0
00000100: 8740 a2be 8d35 343f bb12 77bf d0c0 22bd
00000110: 1f62 95bf 5822 673f f933 f83e 12ca a63d
00000120: 8854 debe e03f 973e 4401 ce3f 8d73 48be
00000130: fe2d cfbf 8c5c 57bf eb2a 36bf 872b 85bf
00000140: 834b 633e 0e47 eabf b9a6 293f be33 313f
00000150: 0b20 f7bf db9f 7d3f 5ea3 01bf c74e a7bf
00000160: cb51 0340 8adc 6fbd ef86 1b3e cdb1 60be
00000170: eb38 e63f f6e0 983f b2fa 033f 3505 50be
00000180: 5489 683e a1a2 b53e c66c e43f 06a9 5a3e
00000190: 11f8 99bf dd7f 803f 424c 55bd 2e86 6b3e
000001a0: c48e 8c3e 90ba c23d 8365 e73e 29fe 58bf
000001b0: 1436 e33e 1fa1 22c0 fd4d 2e3d 4475 123f
000001c0: 28f7 dabe 0542 423d 95f1 143f 3799 283e
000001d0: c1c4 12bf 31b2 18bf 3823 f53e 5dd3 e23c
000001e0: b01e b3bf 3261 acbf 01ba be3e 02f6 933c
000001f0: bbca 773f e40c aa3f fd68 69bf 2322 5e3c
00000200: 9116 8a3f 4bb9 2ebd e25e 173f d502 ebbe
00000210: fd3a 87be d93c 633f 96e6 c9be 8bf4 3c3f
00000220: c389 1e40 a06f a1bf 58ae 053f d092 433f
00000230: 9232 71be 9aae c53f cf44 453f d76e 643f
00000240: 9ada 743f 895d d3be cd3b 4cc0 6922 7dbd
00000250: 57e7 f43e 02c9 823f c96e 223e e8dc 943f
00000260: 650a f8be 1a4c 75bf e18d c6bf ac76 85bf
00000270: 3675 823f 94ed 61bf 31d4 f73f 0276 9f3e
00000280: 8ee6 13be a7d4 8abf 45a4 0abf 5d5a 57bf
00000290: a1ac 883f c94c b6bc d60b b53e 52ad e93d
000002a0: e117 483f 1013 08bf b6ef 41c0 f25a ccbe
000002b0: ebb5 4fc0 2adf c33e 5b56 3abf ce7a fb3e
000002c0: 9f31 e83e afdd 9ebf 57e2 d4be ce91 1fbf
000002d0: 1f3f 193f c545 813f d994 223f 707c 78bd
000002e0: 604e c83f 6b73 473f a174 123e 6c60 57c0
000002f0: f7db 4a3f bad7 843e 3a8f 15c0 58e3 523f
00000300: be2e 1fbe 389a 62bf 9ac7 973f 4574 63bf
00000310: 1ff8 2dbf e768 c43f 2dbc 0cbf be00 c2bd
00000320: 6e73 89bc 8d95 103f c877 70bf 5080 cabf
00000330: 5090 6d3f 563d a13f 2a62 65bf 9b63 33be
00000340: a0d2 b3be c80c f53f c0b7 c8bf a19e 97bf
00000350: 3935 233d 3339 b8bd c3de 8b3f f0ff 513f
00000360: 2e9d 1abf 739a 9ebf fce6 53bf caf8 d3be
00000370: 6f56 a9c0 70e8 c83f 5180 0ebf 86dd 34be
00000380: ac38 54be fd72 6b3e 37b8 71c0 899f 9f3e
00000390: 620f 22c0 67df 5cbe c105 80be 0416 57bf
000003a0: 4609 87be f561 a83f b8c9 f33e a308 c8bf
000003b0: 0973 3a3f a630 5abf da55 ea3e d675 c0be
000003c0: b785 20c0 5987 6dbf e2bb 61bf eb11 0bbe
000003d0: 1aa2 23bf 88bb 3d3f 1dd6 c7be c0fa b7bf
000003e0: 5988 a93f e08e 5cbe 21f4 03bf 826e 1a3f
000003f0: 94b0 93bf bc4f a0bf ed57 d23e f9f3 1abe

fc2.bias f4 [64]
-0.6910222 -0.39580092 0.257941 -0.8458735 0.49801055 -0.37664035 -0.1441352 -0.1424024
0.7722524 0.5389543 -0.57228684 -0.12540992 -0.5440006 0.37917584 0.3902955 0.20335831
-0.16862841 0.07024645 -0.112621926 0.33392274 -0.03178221 -0.08637017 0.3271148 -0.044545025
0.84291035 0.3030859 -0.2972108 0.4694799 -0.65404713 0.18149547 -0.10659275 -0.46909508
0.6722465 0.509054 0.1309452 0.25832707 0.22256945 -0.39188525 0.38696212 0.015407093
0.28780133 0.31368592 0.06525633 -0.14904425 -0.16793911 -0.12456125 0.6096103 0.2881207
0.39970684 -0.5273338 -0.12431328 0.2259065 0.19205534 0.2530927 -0.043716185 -0.6952757
-0.49332932 -0.0047930563 -0.7603483 0.32560328 0.59691536 0.23643704 -0.32668123 -0.025934914
00000000: d5e6 30bf 6ba6 cabe d810 843e 2a8b 58bf
00000010: 3dfb fe3e 01d7 c0be 2e98 13be efd1 11be
00000020: 55b2 453f e9f8 093f 6481 12bf 756b 00be
00000030: a043 0bbf 5623 c23e d0d4 c73e 293d 503e
00000040: edac 2cbe 5fdd 8f3d 53a6 e6bd ecf7 aa3e
00000050: 102e 02bd d8e2 b0bd 977b a73e d874 36bd
00000060: f9c8 573f 132e 9b3e 042c 98be ab5f f03e
00000070: a26f 27bf f3d9 393e 4d4d dabd 3b2d f0be
00000080: 5918 2c3f 5d51 023f 8016 063e 7243 843e
00000090: 3fe9 633e 2fa5 c8be e61f c63e 086e 7c3c
000000a0: b25a 933e 719b a03e 1ca5 853d 0e9f 18be
000000b0: 3bf8 2bbe f819 ffbd 6c0f 1c3f 8e84 933e
000000c0: 60a6 cc3e 59ff 06bf f697 febd 0954 673e
000000d0: 28aa 443e 5e95 813e be0f 33bd 97fd 31bf
000000e0: a995 fcbe 120f 9dbb 30a6 42bf 79b5 a63e
000000f0: 72cf 183f 8d1c 723e c342 a7be 7575 d4bc

fc3.weight f4 [4, 64]
2.9664788 1.0064842 2.0400367 -2.636803 1.071846 0.9881075 -0.20468277 -1.1236674
-1.2156566 0.5677019 -0.74014044 -0.57583976 -0.84024113 0.3690193 1.1600276 0.14616905
-0.94594145 0.08456063 -0.6885874 0.65697414 -0.20873277 -0.1019455 1.3415103 -0.043592613
-0.42547455 -0.79923105 -0.25929722 0.971788 -0.46355617 -0.70369554 -1.0380039 -1.0949874
0.868389 -0.39812025 -0.5782105 0.7687142 1.0985415 -1.9898838 0.69770306 1.1173383
0.6900171 1.1716583 -0.0935169 -0.04618894 1.9422585 -0.37927976 0.66469294 -0.79373443
3.3225498 -0.32773167 -0.5268163 -0.34848198 0.33889866 -1.1836998 0.078779936 -0.73410404
-0.65524435 0.07584328 -0.9757674 0.20221592 0.78073996 1.5292262 0.21018137 -0.07854999
2.3651388 1.0181997 2.1446867 -1.7877187 0.87024546 1.3706555 -0.46362767 -1.4858049
-1.0355501 0.88131267 -1.0590125 -0.6874 -0.87250865 0.3769883 1.1762804 0.10400483
-1.6727623 0.0027618113 -0.83391756 1.0150093 -0.20287505 0.033571802 1.1366143 0.012872885
-0.22920457 -1.014619 0.091414966 1.0753119 -0.88613075 -0.32898483 -0.81662536 -0.72454715
0.8429531 -0.5903422 0.6520557 0.77193 1.3403419 -1.086508 0.43279687 1.1748977
0.7795584 0.7583512 0.08021157 -0.0022284144 1.9613285 -2.5277014 0.7402418 -1.0971876
3.4926395 -0.4179755 -0.30082017 -0.3301568 0.44532618 -1.2462492 -0.013898136 -0.64631253
-0.88434726 0.07602903 -0.59532756 0.19978999 0.5142856 1.5288132 -0.012552173 0.036213122
2.3086224 0.99264896 2.5682902 -1.9992725 0.6770045 0.98809004 -0.14513458 -1.1868472
-1.5666864 0.7311764 -0.52123386 -1.0929271 -0.71098393 0.46737528 1.1582885 0.5621747
-0.6240633 -0.043266058 -0.8950309 0.6007354 0.31131282 -0.08654329 1.520141 -0.03787044
-0.55909985 -1.0623752 0.08997524 0.4372975 -0.8904179 -0.4365865 -0.75295997 -1.123697
0.4812116 -1.1875063 -0.50644827 0.5406462 1.4095852 -0.49197686 0.71271986 1.0454075
0.85556686 1.0219345 0.044449814 0.069273 1.2952752 -0.10190486 1.0268055 -0.8876157
3.3052764 -0.85915035 -0.6770912 -0.22833733 0.52963096 -1.1843963 -0.02010702 -1.4105703
0.079620145 -0.07612682 -1.0356714 0.51631624 1.1509193 1.5599177 -0.89616287 0.007989684
2.9130628 0.8384476 2.1003695 -2.901823 1.2641646 0.6930073 -0.18665966 -0.8803152
-1.0384891 0.3683051 -0.55607104 -0.5978988 -0.3939689 0.5388178 1.3961581 0.06300792
-1.0829579 -0.0018271495 -0.60033184 0.33260292 -0.20771429 -0.00487534 1.2989476 0.00814172
-0.6277119 -0.75966835 -0.88072085 1.0062088 -0.19391963 -0.79962134 -0.5673413 -1.0599269
0.86497307 -0.11664178 -1.1036919 0.5037894 1.1646988 -2.4543815 1.0505731 1.1475232
0.664848 1.5488796 0.06651242 -0.08111834 1.7811081 1.3509262 0.7451094 -0.96532923
3.3808556 -0.57486963 -0.8481356 -0.56393147 -0.0851497 -1.4535922 -0.018290691 -0.9153426
-0.38363716 -0.018711716 -1.2817364 0.18286191 0.8509721 1.5924695 0.3480742 -0.08136706
00000000: cada 3d40 79d4 803f f68f 0240 61c1 28c0
00000010: 4032 893f 9df4 7c3f 5c98 51be 55d4 8fbf
00000020: a39a 9bbf e954 113f d879 3dbf 3c6a 13bf
00000030: 0b1a 57bf 19f0 bc3e c97b 943f 57ad 153e
00000040: 3829 72bf 202e ad3d 4447 30bf 752f 283f
00000050: 0bbe 55be cdc8 d0bd 9cb6 ab3f 2b8e 32bd
00000060: cdd7 d9be 689a 4cbf 9bc2 84be 19c7 783f
00000070: 3c57 edbe 6425 34bf 50dd 84bf 8c28 8cbf
00000080: be4e 5e3f 6bd6 cbbe 9a05 14bf 74ca 443f
00000090: 029d 8c3f 83b4 febf ab9c 323f f104 8f3f
000000a0: f6a4 303f e6f8 953f ca85 bfbd 9d30 3dbd
000000b0: ed9b f83f f530 c2be 5129 2a3f 2e32 4bbf
000000c0: a8a4 5440 72cc a7be 6fdd 06bf 3b6c b2be
000000d0: 2084 ad3e 7a83 97bf 6057 a13d 3eee 3bbf
000000e0: 18be 27bf b953 9b3d e4cb 79bf b111 4f3e
000000f0: 93de 473f afbd c33f c939 573e d1de a0bd
00000100: 6f5e 1740 5e54 823f 8c42 0940 f7d3 e4bf
00000110: 68c8 5e3f a471 af3f 9b60 edbe db2e bebf
00000120: e88c 84bf b59d 613f b98d 87bf 72f9 2fbf
00000130: ba5c 5fbf 9c04 c13e 5b90 963f 7c00 d53d
00000140: 131d d6bf 81ff 343b 9f7b 55bf d3eb 813f
00000150: 7abe 4fbe 9682 093d 947c 913f cbe8 523c
00000160: 9ab4 6abe 09df 81bf c537 bb3d d2a3 893f
00000170: 77d9 62bf b370 a8be 5c0e 51bf ec7b 39bf
00000180: c6cb 573f ab20 17bf 1fed 263f 349d 453f
00000190: 5390 ab3f b212 8bbf 8d97 dd3e 0c63 963f
000001a0: 2491 473f 4e23 423f f745 a43d 970a 12bb
000001b0: d00c fb3f dcc5 21c0 7d80 3d3f a570 8cbf
000001c0: 6887 5f40 e200 d6be 1a05 9abe 500a a9be
000001d0: cb01 e43e 1885 9fbf 02b5 63bc bd74 25bf
000001e0: 9564 62bf 1cb5 9b3d 6367 18bf bf95 4c3e
000001f0: 39a8 033f 27b0 c33f a1a7 4dbc 3654 143d
00000200: 78c0 1340 3e1e 7e3f de5e 2440 29e8 ffbf
00000210: 2b50 2d3f 78f3 7c3f 299e 14be 9cea 97bf
00000220: 2e89 c8bf 602e 3b3f 956f 05bf 09e5 8bbf
00000230: 0b03 36bf d04b ef3e cc42 943f aeea 0f3f
00000240: 9dc2 1fbf c037 31bd bf20 65bf ccc9 193f
00000250: 6564 9f3e 9c3d b1bd fb93 c23f 091e 1bbd
00000260: 2b21 0fbf e9fb 87bf f044 b83d 75e5 df3e
00000270: 6df2 63bf 4488 dfbe fcc1 40bf 4ed5 8fbf
00000280: 5e61 f63e 3500 98bf 98a6 01bf ca67 0a3f
00000290: 4a6d b43f 64e4 fbbe cf74 363f eacf 853f
000002a0: 6e06 5b3f c0ce 823f 0211 363d 01df 8d3d
000002b0: 94cb a53f 7fb3 d0bd 5d6e 833f c83a 63bf
000002c0: a689 5340 47f1 5bbf d955 2dbf 43d1 69be
000002d0: e595 073f 4c9a 97bf 7ab7 a4bc 918d b4bf
000002e0: e30f a33d 61e8 9bbd e190 84bf 4d2d 043f
000002f0: 5351 933f 62ab c73f ee6a 65bf 2ae7 023c
00000300: 9f6f 3a40 80a4 563f 746c 0640 78b7 39c0
00000310: 25d0 a13f ed68 313f b623 3fbe 565c 61bf
00000320: 36ed 84bf 7c92 bc3e ac5a 0ebf e50f 19bf
00000330: 4bb6 c9be f7ef 093f 4fb5 b23f 4c0a 813d
00000340: 5d9e 8abf f77c efba 59af 19bf ee4a aa3e
00000350: 0eb3 54be 51c1 9fbb ea43 a63f d964 053c
00000360: bab1 20bf a079 42bf ec76 61bf 73cb 803f
00000370: de92 46be fcb3 4cbf 483d 11bf afab 87bf
00000380: e06e 5d3f e3e1 eebd c745 8dbf 58f8 003f
00000390: da14 953f 9614 1dc0 2e79 863f 0ae2 923f
000003a0: 7b33 2a3f b041 c63f aa37 883d 5f21 a6bd
000003b0: 5afb e33f 26eb ac3f 7dbf 3e3f d11f 77bf
000003c0: f05f 5840 a82a 13bf 6a1f 59bf d05d 10bf
000003d0: f762 aebd 4f0f babf 5cd6 95bc e553 6abf
000003e0: 176c c4be 5049 99bc f00f a4bf 2740 3b3e
000003f0: 4fd9 593f 0ad6 cb3f c836 b23e c6a3 a6bd

fc3.bias f4 [4]
0.12595269 -0.13555223 0.5754354 0.549739
00000000: bef9 003e 34ce 0abe bc4f 133f b2bb 0c3f
