dqn/model/dqn_lunar_lander_2023-05-02_17-06-36.pth (torch, 21783 bytes, 6 tensors)

fc1.weight f4 [64, 8]
0.30039766 0.21313721 -0.854907 -0.029126484 1.2926948 -1.422722 -1.3254664 0.807806
-0.14803419 0.021383723 -0.65203714 0.35698706 1.1009895 1.7967613 0.1288102 0.9209856
0.014782917 -1.4320654 -0.5956599 -1.7684021 1.1656085 0.52632695 0.88346606 0.33650053
0.00055027497 -0.26788792 -0.5381228 -0.640024 1.9799504 1.0197564 -0.8315329 -1.6282375
0.18170962 -0.13661312 -0.5213466 -1.4127499 -0.023363922 -0.825275 0.47903728 0.048252065
-0.13888058 0.32053438 0.23796616 -0.3494038 -0.2392032 -0.93318456 -2.4667826 -0.72473586
-0.48704442 0.13433634 -0.552754 2.2354183 0.25624627 0.25449237 0.1050069 1.2631612
-0.77794087 -0.23736955 -1.063151 0.19718258 2.9525654 0.8661071 0.4045781 -0.27043194
-0.13052426 -0.24446702 0.15563913 -1.5788225 -0.31595147 -0.043588825 0.2872539 -0.44048563
0.72516817 0.82880557 -2.3943322 -0.2085953 0.054927085 0.006371638 -0.3598867 0.0033968275
0.015137049 -0.22647306 0.25590867 -0.10588276 0.3942869 2.1499221 0.56709146 -0.017645072
-0.13416387 0.16658293 1.1313148 2.2667096 1.5275563 0.6863313 -0.48611757 0.69447124
0.13972773 -0.010068934 -0.5677512 -0.22799896 -0.5409271 -0.6399097 0.09525687 1.1179143
0.01655351 0.012179959 -0.93485624 1.8359122 0.002699049 0.103296824 0.81532294 1.0839504
0.78220624 0.33950782 0.97817016 -0.49549377 1.0896633 0.97686106 -0.1330741 -2.1146069
0.035446707 -0.2685388 1.199089 3.8765247 -0.22155434 -0.18094324 0.9383927 0.7258008
0.01713975 -0.091683365 -0.1330522 0.12451858 0.31381667 -0.99515706 0.8646199 0.16903989
-0.43118387 -0.5047302 0.5792961 -1.0692345 -0.70767117 0.015431247 -1.8446547 -0.3224548
0.74611336 0.6422813 -1.6520733 0.24989256 -3.2877095 -0.5700125 0.050291944 1.8778703
0.32580003 -0.14291939 0.5255741 -1.726233 -0.40320605 -0.14063235 -1.6536329 0.28980213
0.014619528 -0.19539249 0.7050629 -0.7926377 -2.3335707 -0.8868917 -1.0139112 0.94521594
-0.26107228 0.6084321 0.10019754 0.012387146 -1.0191616 0.5318453 0.3871972 -1.2271246
0.6937879 -0.22314353 0.866357 -0.040522896 0.54551435 0.5250372 -1.0216258 1.1566082
-0.86520886 -0.38049114 0.2394329 0.1478314 -0.031078756 -0.5396733 0.69411945 0.38613737
0.10139201 0.5279459 -0.38744423 1.1653165 1.1874685 -0.096616104 0.54217446 -0.72748464
0.012726821 0.0027518412 -0.05053781 0.015514098 4.1529784 -0.11424111 0.8244793 0.11250258
0.6009597 0.019163692 0.083753355 -0.85920805 0.028426286 -0.621576 0.045377675 -1.535921
1.718398 -0.38562196 0.5968754 -0.42680553 -1.4683181 0.045406945 -0.26539066 -0.49624148
0.14557822 -0.68839085 -0.54491997 -0.8887376 -0.032005146 -0.33132353 -1.1218554 -1.7853863
-0.13304532 -0.3897714 0.38978106 -0.115894146 -0.6671343 -0.7400693 -1.0687397 1.0237397
0.010679429 -3.6985195 -1.6750513 -1.4859267 0.0476945 0.36984524 0.52072877 0.63670796
0.110695295 -0.3514278 1.1830183 -0.85084575 -0.34870076 -0.3321633 0.432593 0.42473087
00000000: b9cd 993e a440 5a3e 2fdb 5abf aa9a eebc
00000010: 0677 a53f c11b b6bf e2a8 a9bf 60cc 4e3f
00000020: 4696 17be eb2c af3c e8eb 26bf 02c7 b63e
00000030: 39ed 8c3f 46fc e53f d2e6 033e b6c5 6b3f
00000040: 0c34 723c eb4d b7bf 2b7d 18bf 005b e2bf
00000050: a932 953f 5dbd 063f d52a 623f cc49 ac3e
00000060: 5440 103a 9b28 89be 6ac2 09bf 9dd8 23bf
00000070: 046f fd3f 6187 823f 57df 54bf 166a d0bf
00000080: 1612 3a3e 4fe4 0bbe f976 05bf fdd4 b4bf
00000090: b265 bfbc 3945 53bf 6044 f53e f5a3 453d
000000a0: b636 0ebe 151d a43e 67ad 733e 0ee5 b2be
000000b0: aff1 74be 2fe5 6ebf c4df 1dc0 4a88 39bf
000000c0: e35d f9be 778f 093e 4981 0dbf 1811 0f40
000000d0: b632 833e d34c 823e dc0d d73d 44af a13f
000000e0: 2227 47bf 0111 73be 5515 88bf 3bea 493e
000000f0: d5f6 3c40 32b9 5d3f dc24 cf3e 0e76 8abe
00000100: 27a8 05be 9055 7abe dd5f 1f3e db16 cabf
00000110: 64c4 a1be 328a 32bd f112 933e 5587 e1be
00000120: 9fa4 393f 9a2c 543f bd3c 19c0 029a 55be
00000130: 39fb 603d 2cc9 d03b 1243 b8be 4f9d 5e3b
00000140: 6301 783c 8ee8 67be 7606 833e 0fd9 d8bd
00000150: f9df c93e 5398 0940 e82c 113f 668c 90bc
00000160: 4162 09be b794 2a3e ecce 903f c511 1140
00000170: f786 c33f 68b3 2f3f 67e4 f8be dec8 313f
00000180: c914 0f3e 2cf8 24bc 2558 11bf 8f78 69be
00000190: 337a 0abf 1fd1 23bf 0916 c33d d117 8f3f
000001a0: 3a9b 873c 738e 473c bd52 6fbf 2cff ea3f
000001b0: 87e2 303b 498d d33d 01b9 503f e3be 8a3f
000001c0: ab3e 483f f8d3 ad3e 5c69 7a3f 5cb1 fdbe
000001d0: 167a 8b3f 9113 7a3f 9444 08be b855 07c0
000001e0: 9130 113d eb7d 89be c07b 993f fb18 7840
000001f0: 24df 62be 2f49 39be 813a 703f 15ce 393f
00000200: a968 8c3c 7dc4 bbbd d63e 08be 9903 ff3d
00000210: 94ac a03e 9dc2 7ebf bb57 5d3f cb18 2d3e
00000220: 22c4 dcbe 0036 01bf c04c 143f addc 88bf
00000230: f029 35bf 57d3 7c3c a51d ecbf cc18 a5be
00000240: 4901 3f3f 8c6c 243f 2377 d3bf d6e3 7f3e
00000250: d569 52c0 57ec 11bf edfe 4d3d 0e5e f03f
00000260: 43cf a63e 7659 12be 068c 063f 34f5 dcbf
00000270: 0671 cebe ed01 10be 3eaa d3bf f260 943e
00000280: bf86 6f3c f814 48be 017f 343f 4eea 4abf
00000290: 3959 15c0 560b 63bf d8c7 81bf acf9 713f
000002a0: 44ab 85be 35c2 1b3f 5e34 cd3d 75f3 4a3c
000002b0: e373 82bf 0327 083f b63e c63e 6b12 9dbf
000002c0: 159c 313f bd7f 64be 93c9 5d3f 56fb 25bd
000002d0: d4a6 0b3f d768 063f a2c4 82bf bd0b 943f
000002e0: 547e 5dbf bccf c2be e62d 753e 1d61 173e
000002f0: e098 febc 0828 0abf d0b1 313f ccb3 c53e
00000300: 9da6 cf3d 7627 073f 175f c6be 1729 953f
00000310: f8fe 973f aade c5bd f2cb 0a3f 6f3c 3abf
00000320: 2884 503c 3c58 343b bc00 4fbd d82e 7e3c
00000330: 33e5 8440 3ef7 e9bd 1311 533f c167 e63d
00000340: 7fd8 193f 2dfd 9c3c e186 ab3d 0ff5 5bbf
00000350: 3ede e83c 9b1f 1fbf f1dd 393d 0f99 c4bf
00000360: 77f4 db3f 3e70 c5be d4cc 183f 4186 dabe
00000370: d9f1 bbbf a2fc 393d 49e1 87be 5d13 febe
00000380: 7512 153e 623a 30bf e07f 0bbf 4f84 63bf
00000390: d417 03bd 3da3 a9be f598 8fbf 8a87 e4bf
000003a0: 083d 08be 1e90 c7be 6291 c73e e959 edbd
000003b0: 50c9 2abf 2f75 3dbf 76cc 88bf e709 833f
000003c0: c6f8 2e3c 8bb4 6cc0 1568 d6bf d932 bebf
000003d0: 4f5b 433d 5b5c bd3e 7b4e 053f 4bff 223f
000003e0: 37b4 e23d 58ee b3be 256d 973f 07d1 59bf
000003f0: e888 b2be 4f11 aabe d47c dd3e 5376 d93e

fc1.bias f4 [64]
-0.22539644 0.3199627 -0.114707276 0.38803366 -0.042719275 0.6961771 -0.4567647 0.36451805
0.24879573 0.22890781 0.34566972 -0.56932384 -0.4854708 0.0019288362 0.4112602 0.002983965
0.32206827 -0.40440163 -0.03460313 0.0913066 -0.5398757 1.2367328 0.1789936 0.4434434
0.5570841 0.0018856981 0.23635702 0.14851056 0.22159655 0.25240576 0.2161204 0.06211101
0.004874276 0.7923502 -0.01842764 -0.6728702 0.34606832 -0.37622926 0.17142217 0.36821985
-0.13991375 -0.74270564 0.28632143 0.20829225 0.44407335 -1.126663 0.78820515 -0.03923219
-0.15475202 -0.0010462634 0.38032597 0.27467468 0.47411892 0.124377415 0.34262398 0.47954196
0.12413608 0.30092967 0.03645335 -0.15763815 0.21304156 0.5645763 -0.49267703 -0.10278979
00000000: 53ce 66be 27d2 a33e a6eb eabd 59ac c63e
00000010: 68fa 2ebd aa38 323f 10dd e9be 1ca2 ba3e
00000020: 4fc4 7e3e cf66 6a3e 9ffb b03e 35bf 11bf
00000030: a18f f8be 01d1 fc3a b290 d23e a08e 433b
00000040: 22e6 a43e bb0d cfbe 03bc 0dbd f4fe ba3d
00000050: 4b35 0abf 434d 9e3f 194a 373e 030b e33e
00000060: 109d 0e3f 8729 f73a 9307 723e 2713 183e
00000070: 35ea 623e 543b 813e ab4e 5d3e 1d68 7e3d
00000080: 64b8 9f3b 76d7 4a3f 90f5 96bc 3941 2cbf
00000090: de2f b13e 1fa1 c0be 4b89 2f3e 5087 bc3e
000000a0: 8d45 0fbe f521 3ebf b998 923e 904a 553e
000000b0: 955d e33e 7e36 90bf d0c7 493f efb1 20bd
000000c0: 5077 1ebe c622 89ba 16ba c23e 29a2 8c3e
000000d0: b7bf f23e 96b9 fe3d 696c af3e 8686 f53e
000000e0: 0f3b fe3d 7413 9a3e 1c50 153d e56b 21be
000000f0: 9127 5a3e 1388 103f 2a40 fcbe 7483 d2bd

fc2.weight f4 [64, 64]
0.8836554 -2.7351677 0.96949446 -0.2626317 0.4309503 -2.299612 1.219361 -0.93139297
-0.116900705 -1.4854065 -0.00078731036 -1.2876449 0.08298449 -3.3579717 0.6142727 -2.903936
0.43114948 -1.4250815 -2.7706218 -1.0219625 -2.2244678 -0.03635961 -0.88876647 -0.7336384
-0.06725411 0.030036276 1.4618033 1.1660259 1.6338621 -1.3191043 -1.5651104 0.6293862
-2.6630957 -1.8362663 -1.7568954 -3.163714 -0.37597966 -1.2912227 0.88700044 -2.8097966
0.9985538 0.6497297 0.13583589 1.1632888 0.5290376 1.5751492 -3.1881146 0.5477233
-3.198749 0.9199136 0.38276097 -1.2158595 0.33228862 0.71394604 0.18506837 -1.798304
0.095053986 -1.1012688 -0.83364683 1.4293506 -1.4421464 -0.13177331 -0.012291357 0.07195189
-0.2227533 0.39784783 1.4456506 0.30990773 -0.96165746 0.08829715 0.72957706 -0.61620545
-0.98353434 0.65933925 0.73216015 -0.4763706 0.07353619 -1.1696504 -0.18128525 0.04445287
0.1503719 -1.8972837 -0.39066064 -0.8594232 0.90475774 0.2207281 0.59025973 -0.05581594
1.005038 0.25177166 0.40837222 0.48749575 0.4751557 -0.40002596 0.7551719 0.44577527
0.7936698 -0.67861044 0.08825997 1.0330604 1.3682446 0.7457587 -0.13096647 0.32378104
0.47483715 0.66392756 0.5401724 -0.35935763 0.39113274 -2.0493941 -0.16132331 -1.5505881
0.0038728383 0.6343165 -1.4761165 0.17560345 0.59610987 0.36917272 1.1401465 -0.069337346
0.016886309 0.31223717 0.6782253 0.5957299 0.3758007 0.13616408 -0.48302484 -1.4747655
-0.4896109 0.029768521 -0.22996601 0.6755766 0.8278676 0.6398623 0.54893136 -0.41936564
1.0404418 0.588906 0.15232736 -0.026639437 0.63165766 -0.32648152 0.8088004 0.2632384
-0.31999487 0.02124405 0.65275127 1.0060098 -0.32008308 0.5268879 0.07466464 -0.32736987
-0.22202443 1.5922236 0.44688493 -0.7483006 -0.2311082 -0.47957498 0.64986914 0.05858669
0.6101087 0.30878288 1.359282 -0.84878623 -0.29890412 0.63475066 -0.33703288 0.39449838
-0.4408929 0.7167763 -0.0681719 0.7970561 0.07496536 -2.2931738 0.10370149 0.4392637
-0.47612458 1.3093777 0.43748116 -0.2815558 -0.08474391 -0.17281684 1.2246733 0.6498745
0.8972821 -0.267582 -0.19297358 0.5253949 0.5983801 0.5123294 -0.60562754 0.45794606
0.04869791 -0.12684669 0.040282745 -0.03840168 -0.15664916 -0.12682724 0.037901364 -0.054523617
-0.0019227181 -0.116457954 -0.035054486 -0.095962234 -0.102653265 -0.0942816 -0.18850139 -0.11687175
0.025173845 0.030027403 -0.09036905 -0.009360603 0.07418734 0.051983334 -0.07424412 -0.02366023
-0.0069920793 -0.08317674 -0.0888864 -0.071172275 0.050748263 0.03917179 0.08971906 -0.06883964
0.050681595 0.023290217 -0.11007535 0.10052796 -0.12701249 0.0012594319 -0.059066787 0.03946717
0.06977885 0.0294003 -0.045557126 0.039656904 0.016981157 -0.02855008 -0.0461153 -0.07630034
-0.09145968 -0.11611411 -0.17830266 0.016814075 -0.10746392 -0.13373584 -0.21464758 -0.075120695
-0.1076996 -0.06811821 -0.121214405 0.042490363 -0.057731204 0.03368185 -0.010081032 -0.12325583
00000000: 3e37 623f fd0c 2fc0 ca30 783f aa77 86be
00000010: 85a5 dc3e d82c 13c0 0514 9c3f c56f 6ebf
00000020: a369 efbd cd21 bebf 8163 4eba 8cd1 a4bf
00000030: c6f3 a93d 02e9 56c0 fa40 1d3f 16da 39c0
00000040: a0bf dc3e 1269 b6bf de51 31c0 abcf 82bf
00000050: ae5d 0ec0 d0ed 14bd 3386 63bf bacf 3bbf
00000060: 86bc 89bd a30e f63c 5f1c bb3f 5640 953f
00000070: 6522 d13f 69d8 a8bf 8a55 c8bf 741f 213f
00000080: 2970 2ac0 c60a ebbf f3e1 e0bf 4a7a 4ac0
00000090: 6880 c0be c946 a5bf 7612 633f b5d3 33c0
000000a0: 39a1 7f3f b054 263f 9018 0b3e a6e6 943f
000000b0: 026f 073f 7d9e c93f 120a 4cc0 9837 0c3f
000000c0: 4eb8 4cc0 757f 6b3f 3ff9 c33e 49a1 9bbf
000000d0: bc21 aa3e 2bc5 363f 9082 3d3e d32e e6bf
000000e0: aaab c23d 60f6 8cbf e169 55bf f6f4 b63f
000000f0: 4198 b8bf 95ef 06be b061 49bc 835b 933d
00000100: 7119 64be b6b2 cb3e 140b b93f 3aac 9e3e
00000110: 2f2f 76bf 23d5 b43d 90c5 3a3f a4bf 1dbf
00000120: e8c8 7bbf 75ca 283f d96e 3b3f d9e6 f3be
00000130: 249a 963d 1bb7 95bf d7a2 39be 3614 363d
00000140: 17fb 193e 31da f2bf ac04 c8be 2903 5cbf
00000150: 349e 673f 8c06 623e 431b 173f 419f 64bd
00000160: 16a5 803f 37e8 803e 2a16 d13e 0b99 f93e
00000170: 9c47 f33e 34d0 ccbe f252 413f a83c e43e
00000180: f22d 4b3f 6ab9 2dbf a5c1 b43d 533b 843f
00000190: a422 af3f 0bea 3e3f 131c 06be a1c6 a53e
000001a0: db1d f33e 28f7 293f bd48 0a3f b9fd b7be
000001b0: 8d42 c83e 4629 03c0 f031 25be ac79 c6bf
000001c0: 72cf 7d3b 9162 223f 63f1 bcbf 64d1 333e
000001d0: a89a 183f 3504 bd3e 52f0 913f bd00 8ebd
000001e0: 2855 8a3c 8ddd 9f3e 2ca0 2d3f c181 183f
000001f0: f368 c03e 996e 0b3e 084f f7be 1ec5 bcbf
00000200: 48ae fabe 1ddd f33c 367c 6bbe 97f2 2c3f
00000210: 22ef 533f 04ce 233f c486 0c3f 18b7 d6be
00000220: 322d 853f 8bc2 163f b4fb 1b3e f33a dabc
00000230: 51b4 213f 9628 a7be 8b0d 4f3f 2fc7 863e
00000240: 5ed6 a3be 0008 ae3c b51a 273f eec4 803f
00000250: eee1 a3be 20e2 063f c6e9 983d 069d a7be
00000260: 5f5a 63be fccd cb3f 1ace e43e a190 3fbf
00000270: a1a7 6cbe da8a f5be d35d 263f 99f8 6f3d
00000280: 1530 1c3f ca18 9e3e f4fc ad3f 0e4a 59bf
00000290: f609 99be 057f 223f 938f acbe b1fb c93e
000002a0: b7bc e1be a77e 373f b69d 8bbd de0b 4c3f
000002b0: 7087 993d 5cc3 12c0 7261 d43d 2ce7 e03e
000002c0: 9ac6 f3be b099 a73f 88fd df3e 1528 90be
000002d0: 378e adbd e6f6 30be 18c2 9c3f 2d5e 263f
000002e0: 48b4 653f 8200 89be de9a 45be 4880 063f
000002f0: 702f 193f 0528 033f 680a 1bbf e877 ea3e
00000300: 7677 473d 19e4 01be 85ff 243d 144b 1dbd
00000310: a368 20be 00df 01be 763e 1b3d 2854 5fbd
00000320: b703 fcba 8281 eebd 4b95 0fbd d987 c4bd
00000330: e03b d2bd b616 c1bd 8206 41be 755a efbd
00000340: 6139 ce3c 07fc f53c 6913 b9bd 375d 19bc
00000350: 88ef 973d 7aec 543d 4d0d 98bd 19d3 c1bc
00000360: d01d e5bb 9158 aabd 130a b6bd c5c2 91bd
00000370: 69dd 4f3d 9972 203d a0be b73d ccfb 8cbd
00000380: 8197 4f3d 20cb be3c 2f6f e1bd 9ae1 cd3d
00000390: 900f 02be 8613 a53a 04f0 71bd 54a8 213d
000003a0: 37e8 8e3d e6d8 f03c 1c9a 3abd 476f 223d
000003b0: 111c 8b3c dbe1 e9bc 66e3 3cbd 5a43 9cbd
000003c0: 364f bbbd 3ccd edbd f994 36be acbd 893c
000003d0: 0b16 dcbd 0cf2 08be 93cc 5bbe e1d8 99bd
000003e0: 9c91 dcbd 8f81 8bbd 423f f8bd 600a 2e3d
000003f0: 8e77 6cbd fbf5 093d ea2a 25bc 8d6d fcbd

fc2.bias f4 [64]
-0.59385103 0.12995948 0.60928726 -0.007535881 -0.075013176 0.33158207 -0.066967025 0.12603088
0.35169956 0.24239972 -0.32782415 -0.6423268 0.26548767 -0.10580175 -0.12772442 0.3030148
0.17680928 -0.32717025 -0.20251848 0.0169769 -0.0074129286 -0.1200454 0.16907221 -0.13488005
-0.19087148 -0.51318955 0.3067711 -0.09801279 0.22006705 -0.1407138 0.23830028 -0.05278089
-0.7223844 -0.11339582 0.46856642 -0.049949292 -0.0023493932 -0.1588961 0.18052575 -0.21536042
0.11438499 -0.03007517 0.44760197 -0.6361538 0.07421174 -0.05114754 -0.8531728 -0.104490146
0.6964116 -0.20494139 0.46390092 0.14349893 0.04875178 0.06065927 -0.25722882 0.17216508
-0.35296667 0.4202761 0.5838439 0.17758226 -0.05431355 0.22793216 0.49587357 0.1849845
00000000: 9f06 18bf 1914 053e 40fa 1b3f 8def f6bb
00000010: 82a0 99bd 20c5 a93e 0226 89bd 3d0e 013e
00000020: f711 b43e a237 783e 91d8 a7be 876f 24bf
00000030: 00ee 873e 97ae d8bd 31ca 02be c224 9b3e
00000040: 7e0d 353e dc82 a7be 0161 4fbe 2413 8b3c
00000050: 27e8 f2bb 5dda f5bd 4421 2d3e ff1d 0abe
00000060: d073 43be 6460 03bf 1a11 9d3e eeba c8bd
00000070: 4259 613e 4717 10be fd04 743e c630 58bd
00000080: 2fee 38bf 113c e8bd f0e7 ef3e a197 4cbd
00000090: 47f8 19bb a9b5 22be bedb 383e 7187 5cbe
000000a0: ad42 ea3d 3460 f6bc 162c e53e fada 22bf
000000b0: 53fc 973d 1580 51bd 8869 5abf eefe d5bd
000000c0: 0848 323f 28dc 51be 6c84 ed3e 62f1 123e
000000d0: f2af 473d db75 783d 7fb3 83be 0b4c 303e
000000e0: 0cb8 b4be 6e2e d73e cb76 153f 20d8 353e
000000f0: e377 5ebd 0c67 693e 24e3 fd3e 946c 3d3e

fc3.weight f4 [4, 64]
-3.3159692 0.8872683 0.69459176 -0.021067232 -0.313238 2.27832 -0.14488883 -0.42618328
1.0998355 -0.2028093 -0.1520674 -1.3819531 -0.3838845 -0.6092519 -0.04725528 -0.6193854
-0.39059144 -1.543012 -0.7989123 0.048221223 1.0856501 0.112060204 -1.4327737 0.0837594
-1.5860975 1.3901954 -1.3098238 -0.016756395 -1.2110932 -0.10176571 -0.32517698 0.0006182987
-1.756404 -0.01270321 0.76136684 -1.1699969 -0.033008903 -0.10277818 -0.031197142 -0.9351083
-0.4098648 -0.12560974 -0.18313229 -1.2304037 -0.045030165 0.09503773 -0.6199988 0.10451636
1.114863 -0.9921209 -1.0444449 0.2941436 0.0012845112 0.117698975 -0.78475696 0.94133395
-0.87181544 1.0698775 0.7644879 -1.9752237 -0.08709393 -1.0341407 -0.73339874 -0.47397658
-2.4160035 1.236737 0.70911396 -0.018169843 -0.045833133 2.6659684 0.36358613 -0.75332713
1.1133703 -0.088746324 0.39617842 -1.3113209 0.109973155 -1.0987025 0.08491619 -0.42941484
-0.7447279 -1.4803686 -0.7877534 -0.0006620357 0.96169555 0.0708507 -1.1390442 -0.08141637
-1.0154105 1.3328937 -1.6233929 -0.03098884 -1.2411665 -0.11280276 -0.27274206 -0.3356584
-1.7961775 -0.03660167 0.7688556 -1.7394294 -0.019523926 -0.09079951 -0.5184557 -0.7680992
0.038497627 0.089454174 -0.657271 -1.5033957 0.08834568 0.07118565 -0.5784806 0.03271851
1.0321429 -1.1968935 -0.8550732 0.63703406 -0.11240146 1.0423943 -1.3321104 1.1008086
-0.84967625 0.9615571 0.64074135 -2.1231208 0.078577586 -0.869051 -0.9745731 -0.73490316
-3.116746 0.64470017 0.7765167 0.013678915 0.19818337 2.8237596 0.16235287 0.51755
1.1295818 -0.6203023 0.09819858 -1.8476299 -0.17376809 -0.5769195 0.05476456 -1.2730509
-0.18475747 -1.8473545 -1.110474 0.071509816 1.0858526 0.033063643 -1.1350255 -0.109593466
-1.4244043 1.7043092 -1.2337078 -0.022710068 -1.079706 0.1118214 -1.0179778 -0.1405843
-1.8777747 0.020669239 0.84906274 -0.91611814 -0.29425445 0.044695098 -0.00574648 -1.2110739
-0.5751616 0.046743646 -0.85634005 -0.81870437 0.015611052 0.053559218 -1.1002775 0.016501995
1.0714484 -1.0592909 -1.0166421 -0.819067 0.014986172 0.46463054 -0.31507665 0.8183817
-0.893541 1.1706113 0.71464026 -1.7613034 -0.002828091 0.0701451 -0.7829154 0.029445784
-3.0251322 0.5348649 0.7429417 0.10176239 -0.6760826 2.1304786 -0.5336889 -0.34824032
1.2813596 -0.0049536577 -0.6788933 -1.1136869 -0.85859054 -0.7900342 0.08140201 -0.6309345
0.2026904 -1.6119275 -0.7007173 0.0064774603 1.3144639 0.009441524 -1.395781 -0.05811278
-1.2798321 1.418799 -1.0959095 -0.040140495 -1.323884 0.037317358 -0.1881216 -0.31994498
-1.762646 0.033162482 0.7129275 -0.80555046 -0.44999525 0.09980521 -0.08980985 -1.0428103
-0.37381443 0.10565705 0.30630264 -1.0746921 -0.052968018 0.09846255 -0.7920026 0.050698668
1.04692 -0.8316794 -1.0599059 -0.25272903 0.057134815 -0.83184403 -0.35512316 0.7062448
-0.8610053 1.0875133 0.91355306 -1.5554878 -0.052892115 -1.4583461 -0.40368727 -0.37987423
00000000: d738 54c0 0424 633f c4d0 313f 3095 acbc
00000010: bb60 a0be ffcf 1140 bd5d 14be b234 dabe
00000020: 69c7 8c3f 3ead 4fbe 8eb7 1bbe d7e3 b0bf
00000030: 828c c4be eff7 1bbf c18e 41bd 0b90 1ebf
00000040: 9afb c7be 6b81 c5bf 8485 4cbf 9e83 453d
00000050: 95f6 8a3f d27f e53d 2165 b7bf 0c8a ab3d
00000060: 3e05 cbbf ecf1 b13f 4ea8 a7bf b544 89bc
00000070: 1a05 9bbf 8a6a d0bd 997d a6be 5315 223a
00000080: d9d1 e0bf 2021 50bc f0e8 423f 75c2 95bf
00000090: 5834 07bd 5e7d d2bd 2691 ffbc 4263 6fbf
000000a0: cdd9 d1be d79f 00be 0887 3bbe de7d 9dbf
000000b0: 8d71 38bd 24a3 c23d 3eb8 1ebf ac0c d63d
000000c0: d5b3 8e3f a3fb 7dbf 5fb0 85bf fd99 963e
000000d0: 0b5d a83a 290c f13d d5e5 48bf 43fb 703f
000000e0: 4c2f 5fbf bff1 883f 7bb5 433f 21d4 fcbf
000000f0: 4d5e b2bd b95e 84bf 05c0 3bbf 0fad f2be
00000100: cd9f 1ac0 664d 9e3f 7e88 353f ecd8 94bc
00000110: 86bb 3bbd 3a9f 2a40 f627 ba3e 0cda 40bf
00000120: eb82 8e3f a2c0 b5bd e6d7 ca3e 5dd9 a7bf
00000130: 9b39 e13d 49a2 8cbf 8ae8 ad3d 43dc dbbe
00000140: 7da6 3ebf b87c bdbf 35aa 49bf 778c 2dba
00000150: ae31 763f 2c1a 913d 33cc 91bf a0bd a6bd
00000160: f9f8 81bf 439c aa3f 57cb cfbf 4fdc fdbc
00000170: 8bde 9ebf 2205 e7bd d9a4 8bbe 6bdb abbe
00000180: 25e9 e5bf a2eb 15bd b8d3 443f 9fa5 debf
00000190: a4f0 9fbc 18f5 b9bd 83b9 04bf 26a2 44bf
000001a0: b0af 1d3d c033 b73d ea42 28bf 456f c0bf
000001b0: 94ee b43d c8c9 913d 4e17 14bf d803 063d
000001c0: 421d 843f ce33 99bf 14e6 5abf aa14 233f
000001d0: bd32 e6bd 2d6d 853f 9882 aabf 4ce7 8c3f
000001e0: 6284 59bf 9b28 763f a007 243f 36e1 07c0
000001f0: 49ed a03d 207a 5ebf 9f7d 79bf 9d22 3cbf
00000200: c478 47c0 120b 253f ccc9 463f 871d 603c
00000210: 95f0 4a3e 7ab8 3440 d53f 263e 287e 043f
00000220: 2396 903f 22cc 1ebf 561c c93d 237f ecbf
00000230: 43f0 31be ffb0 13bf ce50 603d 55f3 a2bf
00000240: 1031 3dbe 1d76 ecbf 0324 8ebf bd73 923d
00000250: 38fd 8a3f be6d 073d 8448 91bf 8a72 e0bd
00000260: e152 b6bf ce26 da3f 23ea 9dbf 770a babc
00000270: ce33 8abf 9e02 e53d 194d 82bf 55f5 0fbe
00000280: ec5a f0bf 8952 a93c 2d5c 593f b886 6abf
00000290: 85a8 96be 3512 373d f84c bcbb 7804 9bbf
000002a0: ca3d 13bf 4476 3f3d 1a39 5bbf 9c96 51bf
000002b0: 7fc5 7f3c e960 5b3d e5d5 8cbf 312f 873c
000002c0: 3925 893f d896 87bf 5421 82bf 60ae 51bf
000002d0: 9088 753c 0ee4 ed3e ba51 a1be 7781 513f
000002e0: 1abf 64bf 97d6 953f aaf2 363f 6472 e1bf
000002f0: 7e57 39bb 3ca8 8f3d 256d 48bf 4938 f13c
00000300: c49b 41c0 e8ec 083f 6d31 3e3f cd68 d03d
00000310: c013 2dbf c359 0840 d69f 08bf 8e4c b2be
00000320: 9703 a43f 4b52 a2bb f4cb 2dbf 4b8d 8ebf
00000330: 97cc 5bbf ae3f 4abf 19b6 a63d ec84 21bf
00000340: 128e 4f3e a453 cebf 3562 33bf e040 d43b
00000350: 5a40 a83f 9fb0 1a3c f4a8 b2bf ab07 6ebd
00000360: 8ad1 a3bf 359b b53f c346 8cbf 5c6a 24bd
00000370: 0875 a9bf 16da 183d f3a2 40be d4cf a3be
00000380: 629e e1bf 62d5 073d 6b82 363f 8e38 4ebf
00000390: c765 e6be ad66 cc3d 3aee b7bd cf7a 85bf
000003a0: 9b64 bfbe b962 d83d b3d3 9c3e 838f 89bf
000003b0: fef4 58bd bca6 c93d afc0 4abf 68a9 4f3d
000003c0: 7901 863f f1e8 54bf ffaa 87bf b365 81be
000003d0: 3206 6a3d bbf3 54bf b4d2 b5be 76cc 343f
000003e0: d86a 5cbf a333 8b3f 9dde 693f 391a c7bf
000003f0: 67a5 58bd 16ab babf 19b0 cebe e07e c2be

fc3.bias f4 [4]
0.42955118 0.11506478 0.26050475 0.88189375
00000000: 22ee db3e 15a7 eb3d e160 853e cac3 613f
