ppo/model/ppo_lunar_lander_ep1000.pth (torch, 9137 bytes, 7 tensors)

actor.0.weight f4 [64, 8]
000000 1f 6f d8 3d ee 43 08 be dd f7 c9 be ad 24 df bd
       0.1056807 -0.13307163 -0.39446917 -0.10895667
000010 50 e6 1a 3f eb 5e 03 3e 15 9a 58 bb 59 3f ef bc
       0.6050768 0.12829177 -0.0033050824 -0.029205011
000020 f6 6e 5b bc 73 23 c3 bc 0c 13 68 be 65 86 88 3f
       -0.013393154 -0.023820614 -0.22663516 1.0666014
000030 eb fe 13 3f 5b a6 3c be ac 10 03 3f c7 ef 19 3f
       0.5781085 -0.18422835 0.51197314 0.60131496
000040 e2 d7 cb 3e 6e 36 7d 3e 0c b8 af 3e 66 f1 86 3e
       0.39813143 0.24727795 0.34320104 0.26356047
000050 b3 93 10 bf c9 fb 0f 3e bf dd c0 3e 9c 1b b8 3e
       -0.5647537 0.14060892 0.3766918 0.35958564
000060 33 a3 8d 3e 66 21 c6 3d 0a 59 1f bf b7 76 27 3f
       0.27663574 0.09674339 -0.6224524 0.6541552
000070 ee 73 c9 3e c6 79 df bc 49 c6 e2 bd 65 be 42 3f
       0.3934626 -0.027279746 -0.11072976 0.7607177
000080 7c 36 50 be ad a4 99 3e d2 aa f6 be 52 ca a5 3f
       -0.20333284 0.3000845 -0.481772 1.2952368
000090 49 67 c3 3c 0c b1 66 3c 54 5d a1 be ac 9a f1 3d
       0.023852961 0.014080297 -0.31516516 0.117970794
0000a0 04 c3 65 3e 49 b6 e6 3d 68 e9 f4 3e d6 81 64 bf
       0.22437674 0.11265237 0.47834325 -0.89260614
0000b0 34 39 4e bf 84 9c 21 3e 56 c5 44 3e 8b 0c c4 3d
       -0.80556035 0.15782362 0.19215903 0.09572705
0000c0 a1 5c a7 be fd 26 ec 3d 5e 97 43 bf ac 33 1d 3f
       -0.32687858 0.11530874 -0.76402843 0.6140697
0000d0 29 f4 18 3f 31 15 f4 bc 01 a2 a3 be df ba 1b 3d
       0.5974756 -0.029795261 -0.31959537 0.03802001
0000e0 1b 2f 3c 3e f6 6e d0 3e 06 3f d1 be 39 50 5e bf
       0.18377344 0.40709656 -0.40868396 -0.8684116
0000f0 7a c2 fe 3d c8 86 8a 3e b7 ec 47 be 53 26 2c be
       0.12439437 0.27055955 -0.19523893 -0.16811495
000100 8c f6 3d 3d 12 a9 54 3e 54 44 65 3f c2 3e 69 bf
       0.046377704 0.2076762 0.89557385 -0.91111386
000110 ff 37 16 bf 94 70 b2 3e dc b9 35 3e a5 f4 f5 be
       -0.58679193 0.34851515 0.17746681 -0.4803821
000120 09 a0 41 3d d0 67 28 3e de cb 3d bf c1 a6 86 3c
       0.047271762 0.16445851 -0.741392 0.016436936
000130 32 4e 0c 3f f2 23 ad 3d 58 d6 c7 3e 93 dc 0c 3c
       0.54806817 0.08454122 0.3903072 0.008597511
000140 32 1e 55 be 98 dd ba 3e 55 b6 d1 be 04 60 36 bf
       -0.208123 0.36497188 -0.4095942 -0.7124026
000150 1a 0e ea 3e cd 94 a1 3d 3a 55 04 3e b2 f7 01 bd
       0.45713884 0.078897096 0.12923136 -0.03173036
000160 be 4a 4f be 73 9b bb 3d 8c 20 ed be 67 0a 39 bf
       -0.20243356 0.09160509 -0.46313894 -0.722815
000170 09 31 a7 3d e9 4f ea 3d 16 4c 5a bc 4a e2 70 be
       0.081636496 0.11441023 -0.013323804 -0.23523822
000180 1f 32 2a bd 3d cb 83 bd 65 e9 1b 3d 57 42 35 3d
       -0.041551705 -0.06435249 0.03806438 0.04425272
000190 0a c1 a3 be 99 ab bb bc f4 35 f8 bb e1 e9 69 be
       -0.31983215 -0.022908973 -0.007574791 -0.22843124
0001a0 88 1a 76 3e 38 80 5d 3e a2 39 65 3f e7 3c 18 3f
       0.24033558 0.21630943 0.89541066 0.5946793
0001b0 59 da 2f bf ce 26 5e 3c 8f 0c c3 3e dc c8 aa 3e
       -0.6869255 0.013559056 0.3809552 0.3335637
0001c0 7a 70 18 3e 35 51 0f 3e 18 da 51 3e c9 a4 69 bf
       0.14886656 0.13995822 0.20493352 -0.9126707
0001d0 1a a7 b5 3c 44 19 59 bd eb d5 15 bd 85 e2 25 3c
       0.022174407 -0.05300261 -0.03658096 0.010124807
0001e0 6c f8 9e 3e 53 61 0b bf e0 72 50 3e 2b 34 88 3e
       0.31048906 -0.5444538 0.20356321 0.266023
0001f0 ac a5 cf 3d 9d ad b4 3d 08 06 d8 3e 74 2b 1d 3f
       0.10139021 0.088221766 0.421921 0.6139443
000200 ab ae 90 3e a5 ee 33 3e 90 b7 0e 3f 50 11 09 3f
       0.2825826 0.17571504 0.55748844 0.5354204
000210 f0 ef 31 bf 6b 8a 40 3e 0c 6b 3d 3d 46 39 c6 3d
       -0.6950674 0.18802802 0.046244666 0.09678893
000220 5b 30 05 3e 51 26 45 be 07 fb 91 bd 62 11 ab 3e
       0.13006727 -0.19252898 -0.07127958 0.334117
000230 50 8e 85 3c 87 ad ad 3e 8b f2 8f be 0d 42 94 3c
       0.016303211 0.33921453 -0.28114733 0.018097902
000240 70 8a 3a 3d 8a c1 98 3d b6 61 68 3e ce e0 19 bf
       0.04554218 0.0745879 0.22693524 -0.6010865
000250 cf db 26 be 3c 82 22 be 00 96 8d be db 3c 63 bd
       -0.16294788 -0.15869993 -0.27653503 -0.05547796
000260 d5 65 02 bd 9b d3 30 3e a2 4b 26 bf 8c dd 30 3e
       -0.031835396 0.17268221 -0.64959157 0.17272013
000270 e2 3e 3a 3f 03 34 d2 be 0d aa a0 bd 45 0f f4 3b
       0.727522 -0.41055307 -0.078449346 0.0074481093
000280 fa 92 34 3e 0d 6e ce 3d d0 24 0e bf 28 77 3e 3f
       0.17634192 0.10079584 -0.5552492 0.7440057
000290 62 50 d9 3e 9a 18 72 3d 28 c8 e5 3e ec 8b c4 3e
       0.4244414 0.059105493 0.4487927 0.38388002
0002a0 d5 43 5b 3d 72 c4 87 3e c8 df 28 3f 9d e0 d6 3d
       0.053531487 0.26517063 0.65966463 0.1049206
0002b0 e7 18 07 bf 03 0f c4 3d 4c 10 09 3e 47 54 b2 3e
       -0.5277237 0.09573176 0.13385123 0.34829924
0002c0 2e a8 a7 bd ba 77 05 3c a4 a7 e3 bd 86 ee 9a be
       -0.081863746 0.008146221 -0.11115959 -0.30260104
0002d0 dd e1 60 be 0d c7 58 be 59 ba 2b be c7 12 8a 3e
       -0.2196116 -0.21169682 -0.16770305 0.2696745
0002e0 85 67 6a 3e a5 61 ae 3e 4d 52 ac 3e 27 02 46 bf
       0.22891052 0.34058872 0.3365654 -0.77347034
0002f0 dc f6 4c bf 32 bf 55 3e a8 2e 88 be 2e bf 81 3d
       -0.8006418 0.20873716 -0.26598096 0.06335293
000300 16 6f 49 bd f3 38 e3 bc 78 01 0a bf 42 e1 10 3f
       -0.049178205 -0.027737116 -0.5390849 0.56593716
000310 13 45 1e 3f e3 68 0d be 3c 47 ee 3d 62 e9 dd 3e
       0.6182415 -0.13809542 0.11634681 0.4334212
000320 06 94 7d bd b4 f7 92 3e 3d a9 fb 3e 4a ce 1a 3f
       -0.061908744 0.28704607 0.49152556 0.6047102
000330 88 0a 2e bf 81 82 56 3e 81 6d 68 be 7a c0 83 3e
       -0.6798482 0.20948221 -0.22698022 0.25732785
000340 a3 12 5a 3e ab c6 89 3e 30 ae 91 be d7 c5 75 bf
       0.21296172 0.26909384 -0.28453207 -0.96005005
000350 aa 57 4e b9 c4 af 52 be 72 06 1d be 12 df 1f 3e
       -0.00019678348 -0.20574862 -0.1533449 0.15612438
000360 f9 a1 eb 3d 30 2d b8 3e 89 ad cf 3e 1b 6e 78 bf
       0.11505503 0.35971975 0.40562084 -0.9704301
000370 7b 8f e3 be bf 0c 01 bd 58 13 49 bd 42 9c b0 be
       -0.44445404 -0.031506296 -0.049090713 -0.34494215
000380 7e dd 46 3e 18 ae 1c 3e d7 87 0f bf 36 1b fc 3e
       0.1942043 0.15300786 -0.5606665 0.4923951
000390 93 96 bb 3e 2c 7f 85 bd 13 70 b8 3d 72 20 ab 3e
       0.36638317 -0.06518397 0.090057515 0.3342319
0003a0 96 0f ad 3e 83 76 84 be d7 33 2d be 32 bb 42 be
       0.33800954 -0.25871667 -0.16914307 -0.19016722
0003b0 cb d6 07 3f fe 07 41 be b1 c0 9c 3e e7 5d 39 3f
       0.53062123 -0.18850705 0.30615762 0.7240891
0003c0 4e 4f 84 3e e9 dc b0 3d ae 7a 84 3e 82 49 51 3f
       0.25841755 0.08635885 0.25874847 0.8175279
0003d0 df 5f 2c bf f4 c4 81 3e 46 79 cb bc cc e6 ab 3e
       -0.6733379 0.25345576 -0.024838101 0.33574522
0003e0 e1 05 e7 3d 1c 85 6d bd 3e 04 28 3e 37 56 b5 bd
       0.11280418 -0.05798827 0.16407868 -0.08854335
0003f0 df 84 85 be 6f 58 35 bf 55 ea d7 3d b3 dc b4 bd
       -0.26077935 -0.70838064 0.10542742 -0.088311575

actor.0.bias f4 [64]
000000 53 03 a3 be 52 38 d9 3e f9 e7 21 be 45 ea 36 3e
       -0.31838474 0.4242578 -0.15811147 0.17862804
000010 1d 2b 8f 3c 49 bd ff 3e 03 50 70 3e d5 cb ab 3e
       0.017476613 0.499491 0.23468022 0.3355395
000020 75 2c e4 3e 85 4f fd bd fc 28 63 3e 21 b5 da 3e
       0.44565168 -0.12368683 0.22183603 0.42716315
000030 14 f1 25 be 3b ea cd 3d 2f dc 4c 3e aa f6 18 3e
       -0.16205245 0.100544415 0.20005868 0.14937845
000040 7f a8 4b 3d a2 88 bc be 96 7f db 3e 53 ea df 3e
       0.049721237 -0.36822993 0.42870778 0.43733463
000050 2c bf 62 3e 75 bf 7b be 9a ee 73 be a0 8c e7 3e
       0.22143239 -0.24584754 -0.23821488 0.45224476
000060 34 c2 a8 3e b9 18 89 bd 8c 32 fc 3d b0 01 6c 3e
       0.32960665 -0.066941686 0.123143286 0.23047519
000070 1f 07 9e 3d bc 52 46 3d fa b4 44 3e 09 88 c5 bb
       0.07716202 0.048418745 0.19209662 -0.0060281795
000080 7c 95 22 3b 1d 48 0d 3f a1 fe e5 3e 0b 6b cf 3d
       0.0024808338 0.5518816 0.4492083 0.10127839
000090 93 13 ae 3e 53 2e e6 be 94 34 c8 bd 76 2d a2 3e
       0.3399931 -0.44957218 -0.097756535 0.3167531
0000a0 2c 76 80 3e 9f c0 fb 3e 6a 57 e7 3e 21 71 9e 3e
       0.25090158 0.49170396 0.4518388 0.30945686
0000b0 b9 07 24 be 4c 43 18 bd 54 46 59 3e 0f 92 bc 3e
       -0.16018571 -0.037173554 0.21218234 0.36830184
0000c0 6b a7 d2 3e 75 a5 be 3d 06 e4 a8 3c 83 83 87 be
       0.41143355 0.09308902 0.020616543 -0.26467523
0000d0 e6 d7 c7 3e 9e 61 d1 bb a1 aa 81 3e 63 e3 23 be
       0.39031905 -0.0063898107 0.25325492 -0.1600471
0000e0 63 dd a6 bd 3a 44 7f 3e 9b 82 bd be 6a 92 29 3e
       -0.08147695 0.2492837 -0.37013707 0.16559759
0000f0 ba c2 f0 3d 76 e2 e5 bd 61 90 45 3e be 5d 43 3e
       0.11755891 -0.112248346 0.19293357 0.19078729

actor.2.weight f4 [4, 64]
000000 2e 03 66 3c 09 4f 0a 3f 89 a9 20 3e e2 e1 eb 3e
       0.014038844 0.5402685 0.15689673 0.46070772
000010 b1 db 63 3e c2 e7 ef 3b 19 f3 3b 3e 8f 7c 88 be
       0.22251774 0.007321329 0.18354453 -0.2665753
000020 9b 03 cf bd 41 bc b8 3d 08 68 80 bd 19 59 76 be
       -0.101081096 0.090202816 -0.062698424 -0.24057426
000030 89 7a 55 3d 94 1c 96 3e a8 53 16 be 06 91 8e 3e
       0.05211881 0.29318678 -0.1468035 0.2784502
000040 c1 18 5c 3e 06 c7 80 3e 65 07 2e be f1 3a 89 bd
       0.21493818 0.25151843 -0.16995008 -0.06700695
000050 03 c4 eb 3e 93 18 be 3d de 92 a2 3d ad 5c 7e be
       0.46047983 0.09282031 0.07938169 -0.2484004
000060 ac d1 be 3e d3 8e 64 3e c7 ba b3 bd b2 e8 9e be
       0.37269342 0.22320108 -0.08775859 -0.31036907
000070 9e 9b be 3e 85 7b c6 3e 7d c3 56 3e 3a f4 b9 bc
       0.37228101 0.38766113 0.2097301 -0.022699464
000080 cb e4 a6 3d 92 91 98 bd fb ed ba be 55 fb d3 3e
       0.081491075 -0.0744964 -0.3650969 0.4140269
000090 8c 98 8f be 32 75 cf 3d e9 9a e2 3b ba 70 3f be
       -0.28046072 0.10129775 0.0069154394 -0.18695346
0000a0 00 06 07 be 13 7d 49 be 5b f1 2e be 00 a6 af be
       -0.13185883 -0.19676618 -0.17084257 -0.34306335
0000b0 29 e6 86 3e 0f f2 90 3e 71 9f 2b bd 34 ac 84 bd
       0.26347473 0.28309676 -0.041900102 -0.06478158
0000c0 5e 76 25 be 66 d9 a5 be ad a4 d8 3d 02 06 97 3d
       -0.16158435 -0.32392424 0.105782844 0.07374193
0000d0 70 40 23 be 5d 80 83 3c 0a 07 52 be cd f4 34 3e
       -0.1594255 0.01605242 -0.20510498 0.17671509
0000e0 52 23 88 3c 84 9b 86 be 96 ed 83 bb b8 71 9b 3d
       0.016618405 -0.26290524 -0.004026125 0.075900495
0000f0 28 98 27 3e dc 60 6d bb c1 44 80 be 99 9a 41 3e
       0.16366637 -0.0036221063 -0.25052455 0.1890663
000100 fb 1a 8c 3c aa 93 22 3e 33 a1 20 3e 2a b1 59 3d
       0.017102709 0.15876642 0.15686493 0.053147472
000110 08 1d c9 3e 59 2b 84 3e 33 bf 38 be a7 40 9c be
       0.39279962 0.25814322 -0.18041687 -0.30518076
000120 e2 3e 94 3e 53 80 d1 be 2a 12 0d bf 7e 4f 8a be
       0.28954226 -0.40918216 -0.5510584 -0.27013773
000130 e1 c3 c2 3d 3e 72 03 3f c7 ed fb bd e2 e8 94 bd
       0.09510017 0.51346195 -0.12301212 -0.07270981
000140 90 ef 1b 3f a3 6e 0e 3d b8 f1 80 bc 9c 39 f4 be
       0.6091242 0.03477348 -0.01574026 -0.47700202
000150 70 3c 82 bd 41 e2 d6 3e c2 29 2a 3e 40 63 4a 3e
       -0.06359184 0.41969493 0.16617492 0.19764423
000160 03 91 4d bc 96 f4 ff 3e f2 d9 b3 be 95 d3 07 3e
       -0.0125467805 0.49991292 -0.35127217 0.13264306
000170 12 75 a1 bd 19 dd e8 bd 5f b9 e2 3e 20 aa c3 3c
       -0.078836575 -0.11370296 0.44282052 0.023884833
000180 17 77 c5 3e 1a a6 f7 be 92 60 90 be c0 5f 4a be
       0.3856742 -0.48368913 -0.28198677 -0.19763088
000190 65 57 20 bd 89 e4 8f 3d 11 81 cf 3e 11 12 79 3d
       -0.039145846 0.070260115 0.40528157 0.060808245
0001a0 0f 81 e9 3e bf 0e 89 3e c5 6c e4 bd 43 97 85 be
       0.45606276 0.26769063 -0.11153559 -0.26091966
0001b0 1d 3a ea bc d4 92 a7 3e be ff ee be bc e2 14 3e
       -0.028592164 0.32729208 -0.4667949 0.14539617
0001c0 bd 5a 1a bf 23 5d ab be 68 4e c1 3c bc a1 a5 3d
       -0.60294706 -0.33469495 0.023596957 0.08087489
0001d0 5d eb b5 be 77 65 1a 3f 74 c7 ad be a6 24 c1 3e
       -0.3553113 0.60311073 -0.33941233 0.37723273
0001e0 5b 33 d7 3e ea 28 3c be bd b1 a6 bc 7b bd ca be
       0.4203137 -0.18374982 -0.020348424 -0.39597687
0001f0 23 b6 c5 3e 82 48 2a be ee 6d 9b be 67 ac a9 3e
       0.38615522 -0.16629222 -0.30357307 0.33139345
000200 ed 9e 7a be d5 f7 28 bf ab 99 95 be 2e 4a 08 bf
       -0.24474688 -0.6600316 -0.29218802 -0.5323819
000210 5c 08 28 bf f5 58 9c 3e 60 1c cb be 6e 88 7e 3e
       -0.65637755 0.3053662 -0.39670086 0.24856731
000220 da 92 a1 3e 79 61 0d be 6f ad 89 3e 54 16 88 3e
       0.3155735 -0.13806714 0.26890132 0.26579535
000230 e4 7b 50 bd 8f 07 de be 1a ee f5 3e c1 8b 85 be
       -0.0508994 -0.43365142 0.4803322 -0.26083186
000240 ff 2d ca be ee 01 c5 bd a9 d2 7f 3e bb 58 48 be
       -0.39488217 -0.09619509 0.24982704 -0.19565098
000250 9a f6 0a bf 3c b0 c3 be 3f 71 aa 3a a9 bd 40 3e
       -0.54282534 -0.38220394 0.0013003721 0.1882235
000260 b9 0e 06 bf 6a 96 2a bf 22 43 db 3e 3a 8b cd 3e
       -0.52366215 -0.66635764 0.42824656 0.40145284
000270 65 c6 16 bf 0e 1a 92 be a8 60 ec be 37 ba 9f 3e
       -0.58896476 -0.28535503 -0.46167493 0.31196758
000280 b1 d0 fd be c2 1f fe 3c c9 ab 88 3e 35 a1 b8 be
       -0.4957328 0.031021003 0.26693562 -0.3606049
000290 8a 76 a3 3e 38 08 b0 bd 89 f2 a2 be 6d 0f b7 3e
       0.31926376 -0.085953176 -0.31825665 0.35753956
0002a0 b8 12 a7 bc 71 6b 57 3e 55 9a 51 3e 0b f1 9d 3e
       -0.020394668 0.2103708 0.20469029 0.30847964
0002b0 e7 a0 09 3b 7b af 1d bf fd 3a d3 3d 0d 89 ba 3e
       0.0021000446 -0.61595887 0.103139855 0.36432686
0002c0 82 cb f8 3d ea dd 98 3e fd 0a 29 be 4e 08 72 3a
       0.12148191 0.29856807 -0.16508098 0.0009232805
0002d0 7b a3 52 3d 44 84 07 bf 5b f5 ba 3e c2 05 f4 be
       0.05142544 -0.52936196 0.36515316 -0.47660643
0002e0 c5 5f f0 be e4 ad a0 3e d2 b2 23 be 9e 33 12 be
       -0.46948066 0.31382668 -0.15986183 -0.14277503
0002f0 95 86 f6 be b5 9d f1 be 73 61 59 3e 6c ed e0 be
       -0.48149553 -0.47190633 0.2122858 -0.4393114
000300 74 8d 42 3e 26 a3 c4 3e 11 4a bb bd e9 1f b4 3e
       0.18999273 0.38405722 -0.091449864 0.35180596
000310 6e 8f e5 3e 1d 3d 14 bf b4 7a ea 3e 74 c5 69 bd
       0.4483599 -0.5790575 0.4579674 -0.05707307
000320 5d c5 27 bf 61 f5 c6 3e 54 a5 fd 3d 88 38 01 3d
       -0.6553553 0.38859084 0.123850495 0.031548053
000330 f5 8c b5 3d aa 18 80 be c0 f1 78 be b6 59 70 bc
       0.08864776 -0.25018817 -0.2431097 -0.014669826
000340 3b 7b e7 3d 02 ca 96 3d fc 3a 15 be ad 68 e5 3e
       0.11302801 0.07362749 -0.14573282 0.44806424
000350 44 0b 93 3e cb ff 95 be fe 40 1f be 9c 75 0c bf
       0.28719532 -0.29296717 -0.15552136 -0.5486696
000360 f7 44 bb 3e 92 62 9d 3d 50 c1 92 bc 50 55 29 bf
       0.36576054 0.076848164 -0.017914444 -0.661458
000370 96 28 7e 3e c9 04 09 3d 45 42 12 3e af 1c 7e be
       0.2482017 0.03345183 0.14283092 -0.2481563
000380 c7 ba 10 be 7d 43 f4 3e e7 d6 33 bd dd ee ef 3e
       -0.1413375 0.4770774 -0.04390612 0.46861926
000390 58 60 32 be e8 4e df bd ee 3d 21 bd e8 59 c3 be
       -0.17419565 -0.10903722 -0.0393657 -0.3815453
0003a0 26 76 04 bf 18 22 2a bf 71 7d d3 3d c7 3e a6 3d
       -0.5174278 -0.6645827 0.103266604 0.081174426
0003b0 52 1c 65 be 66 54 bb bc 3b f1 44 3e fb a5 fe be
       -0.22374085 -0.022867393 0.19232647 -0.49736008
0003c0 a2 a2 9b 3e bb fe 98 3a a0 92 09 3e 34 7c cb bd
       0.30397516 0.0011672595 0.13434839 -0.09935799
0003d0 60 bb 3c 3e cb 9d fe bd 5c c0 1b 3e 18 df 32 3c
       0.18430853 -0.1243244 0.15210098 0.0109174475
0003e0 5a f9 70 3d 98 57 bb bd e3 b3 64 3e 05 70 c5 3e
       0.05883155 -0.091475666 0.22334246 0.38562027
0003f0 34 0e 5e bc 03 95 f8 3e d2 fe 02 3d a7 e3 8e bd
       -0.013553191 0.48551187 0.031981297 -0.06977015

actor.2.bias f4 [4]
000000 57 ad 61 bb 2a be 68 bd ed 32 5e 3e e6 90 f6 bd
       -0.0034435594 -0.05682198 0.21699114 -0.12039356

critic.0.weight f4 [64, 8]
000000 c1 84 94 be 35 f0 fd be f0 45 1d bc cb a8 f9 bd
       -0.29007533 -0.49597326 -0.009599194 -0.12190398
000010 cd 46 cd be ca 07 33 3e e7 5a 50 3e 84 65 a5 be
       -0.4009308 0.1748344 0.20347176 -0.32304013
000020 43 b0 21 3e 2d d0 ee be d0 ee df bd 25 5e b1 bd
       0.15789895 -0.466432 -0.10934222 -0.08660535
000030 d8 6b a2 3e 34 ba b5 bd 75 5f 8f 3d 88 65 ec bd
       0.31722903 -0.08873406 0.07000629 -0.11542803
000040 11 e0 4f be 60 c4 9d 3e 67 6b c3 be 5e f7 24 bc
       -0.20300318 0.30813885 -0.3816788 -0.010068743
000050 46 78 cb 3e 08 50 a8 3e e8 8e 62 bc 68 34 e7 bd
       0.397402 0.3287356 -0.013828017 -0.112892926
000060 f1 8d 11 3e db 25 1a 3e 11 05 e9 3d 2f 0b e9 be
       0.14214303 0.15053503 0.113779195 -0.45516345
000070 f1 c9 84 3e 7d 08 00 be e4 6d a7 bd 28 8e 0c 3e
       0.2593532 -0.12503238 -0.08175257 0.13726103
000080 f9 8e e5 be da e1 c1 3d 68 0f 9a 3e e6 ef 25 3d
       -0.44835642 0.09466906 0.3008988 0.040511988
000090 53 36 26 be 05 3c 9e 3e b2 fd 50 be d2 ea 7b be
       -0.1623166 0.30905166 -0.20409277 -0.24601296
0000a0 28 77 92 3e 6d 70 f3 be 96 38 0a be b7 91 39 3e
       0.28606534 -0.47546712 -0.13498148 0.18121992
0000b0 84 bb 3e bc 91 2c cb 3e 20 c7 ea 3c 63 6b 4c 3d
       -0.011641387 0.3968244 0.028659403 0.0499071
0000c0 31 59 ca 3e 96 ff be bc f7 79 45 be 14 c3 94 be
       0.39521173 -0.023315232 -0.19284807 -0.29055083
0000d0 2b 74 a7 3e d2 58 74 bd a0 8a f6 be 29 8f 9a 3c
       0.32705817 -0.05965502 -0.48152637 0.018867092
0000e0 af 31 c4 3e db 89 06 3e eb 06 61 bc c6 db a8 3d
       0.38319156 0.13138525 -0.0137345595 0.082450435
0000f0 5c 85 17 3f 5b 8f 1e 3f 8b 1c c5 bd f2 8d 82 3e
       0.59187865 0.61937493 -0.09624585 0.2549892
000100 5a 2f 4b 3e 0c 65 89 3d ee 86 77 3e fb 72 60 be
       0.19842282 0.06708726 0.24172565 -0.21918862
000110 27 a1 e2 be bf fa 92 be ba 94 ca bc 46 66 61 3e
       -0.44263574 -0.2870693 -0.024729121 0.2201167
000120 80 b3 a2 bd 1e ad 95 3e f8 b6 1d 3e b6 fa d5 bc
       -0.07944393 0.2923364 0.15401828 -0.026120525
000130 f2 41 8a be bf ae fb bd 58 f3 2a 3e 88 f6 b1 3e
       -0.27003437 -0.122891895 0.16694391 0.347584
000140 01 13 54 3e 03 4d 2c 3e 11 52 24 be 13 9b 18 3e
       0.20710374 0.16826253 -0.16046931 0.14902906
000150 8b 33 21 3e c5 32 97 bd 44 f0 4d 3e 63 cf 73 3d
       0.15742318 -0.073827304 0.20111185 0.05952395
000160 91 f9 51 be f2 c5 20 bd 24 44 94 3e 66 6f 05 3e
       -0.20505358 -0.039251275 0.28958237 0.13030776
000170 73 ba db be 64 f3 c1 3e da 55 c6 3e 99 44 55 bf
       -0.42915687 0.37881005 0.38737375 -0.83307797
000180 1f 47 98 3e d5 38 06 bf dd c8 c6 3e bb 05 ab bc
       0.2974176 -0.5243047 0.38825122 -0.020876756
000190 e0 f8 cd 3e a7 da 1d 3f dd d5 81 3e c3 4f fd 3d
       0.4022894 0.6166176 0.25358477 0.12368729
0001a0 07 0e 91 3d 7b cb e4 be aa a4 bb 3e cb 10 6f be
       0.07082754 -0.44686493 0.36649066 -0.2334625
0001b0 40 27 c5 3c e5 fb bf 3e e6 64 af bc 9c 06 04 3f
       0.024066567 0.37496868 -0.021410417 0.51572585
0001c0 23 bf 0d 3c a1 c1 df 3d ef 23 04 bd 49 6a 84 3e
       0.008651528 0.10925604 -0.03226083 0.2586234
0001d0 6d ce 31 bf 0a 4c a1 be 79 29 91 be c0 02 a8 3d
       -0.69455606 -0.31503326 -0.28351954 0.082036495
0001e0 5b cb 04 be 59 ae 80 bd cf 8b 09 3e 05 df 22 be
       -0.12968199 -0.06283254 0.13432239 -0.15905388
0001f0 cf 7c 15 bf e4 98 8e be 22 63 23 bc 1b 47 b4 3e
       -0.5839357 -0.2785102 -0.009972366 0.352105
000200 1c 99 44 be 66 d0 0f bf f3 21 3b 3e f2 9a b9 bd
       -0.19199032 -0.56177366 0.1827467 -0.090627566
000210 aa 4d c6 3d 21 c1 03 be fc 75 ff bd d1 55 40 3e
       0.09682782 -0.12866642 -0.124736756 0.18782736
000220 20 9e 10 3e fd 5f 98 bc dc db 48 3e 72 79 71 3e
       0.1412282 -0.018600458 0.1961512 0.23581484
000230 03 9c 70 be 22 e6 a0 3c 84 12 01 3e 98 a0 3b be
       -0.23497014 0.019640986 0.1260472 -0.1832298
000240 85 0c d8 3e f6 89 84 be a4 ed f4 bd 6f c3 de 3a
       0.42197052 -0.25886506 -0.11959389 0.00169955
000250 55 a9 d5 3c 37 0b 3d 3d e5 8a a3 3e e5 7a 71 3e
       0.02608172 0.046153273 0.31941906 0.23582037
000260 ed dc 4e be b3 2a 14 bd 14 ec a6 3d 31 6e 43 3e
       -0.20201464 -0.036173534 0.08150497 0.19085003
000270 27 85 a1 3a 76 03 97 3d 38 37 7f be 76 d3 2a be
       0.0012323008 0.07373707 -0.24923408 -0.16682228
000280 f7 03 66 3d 31 c7 4c bf 3f 77 48 3e 75 18 c3 be
       0.056156125 -0.7999144 0.19576739 -0.38104597
000290 1d 0b bf bd e7 7e f4 be d7 bd 7e 3e 2e f1 94 3d
       -0.093282916 -0.4775307 0.24877106 0.07272564
0002a0 a7 9d 9f bc bd a2 80 be 30 8f ca be 17 d8 ce 3d
       -0.019484354 -0.2512416 -0.39562368 0.100998096
0002b0 d2 3a f8 bb 7b ad 53 be b1 ea 39 3e 36 ff 86 3d
       -0.0075753713 -0.20671646 0.18155934 0.065916464
0002c0 ef 27 19 be b4 6b 54 be eb 1d 89 be c5 92 26 3d
       -0.1495664 -0.2074421 -0.26780638 0.040667314
0002d0 08 dd ca 3d fa 15 e1 3e 94 89 a3 3e 85 f2 0e be
       0.099054396 0.4396208 0.319409 -0.13959701
0002e0 66 28 e1 bd 5b d1 b8 be fd b4 3a 3d b7 e0 f2 3d
       -0.109940335 -0.36097226 0.04558276 0.11859267
0002f0 c0 1e f9 be 4c 9d 37 be ae 50 34 be 0f 16 0f 3e
       -0.48656273 -0.17931098 -0.17608902 0.13973258
000300 86 32 f0 bd a9 67 ef bc 4e 1f de 3e 12 d4 d8 3d
       -0.117283866 -0.029224234 0.4338326 0.10587324
000310 26 f1 a4 bd 0a 48 3b 3e eb a7 a8 3e be 85 40 3d
       -0.08053808 0.182892 0.3294061 0.047002546
000320 89 15 8c 3e 9e 89 3c be 9b ef 5f 3e cb 28 dd bd
       0.2736018 -0.18411872 0.21868746 -0.10798796
000330 53 48 8b bc 9a af e1 3e 12 5a 1d 3c 37 ed 16 3e
       -0.01700226 0.44079286 0.009603994 0.14738928
000340 1c 47 77 bd 83 3e 8f be e5 cc 71 be fd 4e ec be
       -0.06037055 -0.2797738 -0.23613317 -0.46154013
000350 ac ca 42 bc e2 1d 38 be 7e ae 8d bd cd e4 48 3e
       -0.011889141 -0.1798015 -0.06918047 0.1961853
000360 0c 6e 39 3e 6f b0 78 bf eb ad c3 3d 7b ab 28 be
       0.18108386 -0.97144216 0.095546566 -0.16471665
000370 4e 6c a3 3d 09 13 e1 3e a4 e7 71 3e 55 2a b7 3e
       0.07979642 0.43959835 0.2362352 0.35774484
000380 23 96 50 be 39 51 e8 be 0b 20 64 be cf 6a f4 3d
       -0.20369773 -0.45374468 -0.22277848 0.119344346
000390 40 ef bf 3d 6a 32 d3 3e da e8 91 3d 87 62 89 3c
       0.09371805 0.412494 0.07124491 0.016770614
0003a0 ff b1 cc bd cb f6 df be 9a 7e 3d 3e 1f 41 85 3d
       -0.099948876 -0.43742976 0.18505326 0.065065615
0003b0 4e f5 d6 bd 44 75 bb be 2f a4 26 3d 3e 9f 84 bd
       -0.10496007 -0.36612904 0.04068392 -0.064756855
0003c0 4c d6 fb bd 4e 94 ce be 64 3b 1a 3e b9 06 ee 3b
       -0.12296733 -0.40347522 0.15061718 0.007263985
0003d0 fd b2 2f 3e 9b bf d3 3e 1e e5 41 3e 3a 49 6f 3d
       0.17158122 0.4135712 0.18935058 0.058419444
0003e0 5e 0b 46 be 45 40 16 bf 8d 75 f8 3d 1e 3f 32 3e
       -0.19340274 -0.5869182 0.12131796 0.1740689
0003f0 7b df 44 be 5d b8 80 be 3d d4 25 be 63 c4 d2 be
       -0.19225876 -0.25140658 -0.16194244 -0.41165456

critic.0.bias f4 [64]
000000 3a 89 59 3d dd 70 06 bf bf 13 b8 be 2c f5 52 3e
       0.053109385 -0.52515966 -0.35952565 0.20601338
000010 fc 90 28 be d4 c0 3c be 8b 81 8a 3e 7b 9c 27 be
       -0.16461557 -0.18432933 0.27051958 -0.16368286
000020 c5 33 38 3e be 8e 17 be 12 32 06 bf de 43 84 bd
       0.17988499 -0.14800546 -0.5242015 -0.06458257
000030 b5 9b f0 be 8f 4d e8 be 71 ae 46 3d 08 15 21 b9
       -0.46993795 -0.45371673 0.048506204 -0.00015361991
000040 60 85 17 be a5 5e 0f 3e dc 6a 20 3e 21 47 d9 be
       -0.14796972 0.14000948 0.15665764 -0.4243708
000050 b0 ce 07 bf a8 f4 b0 be 60 eb a8 be 24 88 13 bf
       -0.53049755 -0.34561658 -0.32992077 -0.5762961
000060 73 e8 67 ba 1e 40 a7 be d5 4a a6 3e 2b 80 00 bf
       -0.00088465883 -0.32666105 0.32478967 -0.5019557
000070 63 07 fb be 19 fc cd be 22 e8 02 bf 0e bf c7 be
       -0.49029073 -0.40231398 -0.51135457 -0.3901295
000080 ff f6 6a bd d2 0b 44 bc 3c 01 9c be d6 86 12 bf
       -0.05736446 -0.011965709 -0.30469692 -0.57236993
000090 1c f1 16 3d ed 1b e1 3e 93 18 03 bf ff ab 1c bf
       0.036851034 0.43966618 -0.5120937 -0.61199945
0000a0 c3 a7 05 3e cc e3 cd be cf 82 66 bd bc e8 48 be
       0.13052277 -0.40212858 -0.056277093 -0.19620031
0000b0 cc 57 90 3e 1a 9d 9a be 45 bb c0 be 03 9d 9d 3e
       0.28191984 -0.30197984 -0.37642875 0.30783853
0000c0 66 92 19 bf d3 94 f9 be 7c f6 9c 3d 9e 32 da be
       -0.5998901 -0.48746356 0.07664201 -0.42616743
0000d0 e5 68 9e be 54 cc d7 be f0 8e 41 be 6c 60 9e bd
       -0.30939403 -0.42148077 -0.18902183 -0.07733235
0000e0 a4 5f 18 be 37 bf 59 3e 1b 09 85 be a4 32 11 be
       -0.14880234 0.21264349 -0.2598351 -0.14179474
0000f0 dd e6 ca bb b7 53 c4 be b3 0e 63 3d e7 a0 3d be
       -0.006192072 -0.3834512 0.05543394 -0.1851841

critic.2.weight f4 [1, 64]
000000 ab ef 07 3e 3a cd 39 bd f5 2f 70 be ea f3 93 3d
       0.1327502 -0.045361735 -0.23455794 0.07224257
000010 70 9b 31 3e 7c 97 3c be b2 3e c0 3d 66 09 9d be
       0.17344451 -0.18417162 0.09386958 -0.30671233
000020 0f ed 7a bc 38 3c b1 bd 32 e4 be bb c1 b0 af 3e
       -0.015315308 -0.08654064 -0.005825543 0.3431454
000030 aa ce b5 be 53 75 69 be 25 50 97 be 8f 86 d2 bd
       -0.35509235 -0.22798662 -0.29553333 -0.10279571
000040 6c e5 93 3c 77 45 ac 3c 10 2e d9 3c 9c 63 1c 3c
       0.018053733 0.021029217 0.026511222 0.009545233
000050 7a 85 d4 be 00 b2 aa bd 71 ee 6f be ed df ef be
       -0.41508085 -0.08334732 -0.23430802 -0.4685053
000060 ad f1 57 3d fd f0 9d bd f1 e6 11 3e 84 b0 f6 be
       0.052720714 -0.077119805 0.14248253 -0.48181546
000070 71 13 69 be 39 38 fb bd b0 3f ae be 3f 27 4d be
       -0.22761323 -0.12266583 -0.34032965 -0.20034502
000080 5a 2d 43 be 74 86 62 bc 36 33 b1 be f6 9f 75 be
       -0.19060269 -0.013826001 -0.34609383 -0.23986802
000090 b8 a7 3e bd 4b 3c d0 3d 86 30 2a be c0 39 76 be
       -0.046546668 0.1016775 -0.16620073 -0.24045467
0000a0 54 78 1f 3e 2e c0 cf be 6f 47 48 be d4 0a d9 bd
       0.15573245 -0.4057631 -0.195585 -0.105977684
0000b0 9a 09 a5 3d ce d7 89 bc 91 83 6f be 5f 6a 1a 3e
       0.08058472 -0.016826537 -0.23390032 0.1507964
0000c0 79 0a e4 be 30 94 e9 be ab 86 15 bd da f5 f7 be
       -0.4453924 -0.4562087 -0.036505383 -0.48429757
0000d0 de ea 41 be b8 f8 98 be c8 74 19 3e 31 3c 24 be
       -0.18937251 -0.29877257 0.14985955 -0.16038586
0000e0 ad 41 35 3c 74 31 21 bd a0 a1 a9 be 47 96 ae bd
       0.011063022 -0.039353803 -0.33131123 -0.08524757
0000f0 bb 22 19 be 05 f3 ed bd d4 05 1a be 6c b8 bd bd
       -0.14954655 -0.11618618 -0.15041286 -0.09263691
