ppo/model/ppo_lunar_lander_ep2000.pth (torch, 9137 bytes, 7 tensors)

actor.0.weight f4 [64, 8]
0.04813829 -0.9087131 -0.17394102 0.68523765 0.41859564 -0.0060555805 -0.022943104 0.19553046
-0.17282389 0.25397372 1.1458504 -0.56506646 -0.6112726 0.15510885 -0.38682202 0.016907685
0.5109038 -0.078746 -1.2029903 -0.31069544 0.72648466 -0.06859828 -0.54290473 -0.107260704
0.06149559 0.17672412 -0.28991967 -0.87878376 -0.17013875 0.28821632 0.04994332 -0.33899432
-0.07863698 -0.39168698 0.034505848 0.2866422 0.16329269 -0.08016781 -0.03480286 -0.17514145
-0.13625534 0.39327782 -0.20686103 -1.0277948 0.14287633 0.1096914 -0.20858555 -0.21928185
0.20304863 0.17862752 0.9377555 -0.7634904 -0.6908338 0.101728916 -0.38248548 0.042878088
0.052949354 0.4307729 0.8244533 -0.77495635 -0.18731329 -0.16817279 -0.19673942 0.0277754
0.055474266 0.3585092 -1.0151689 0.86214375 0.5914027 0.07523498 0.1320642 0.108825184
-0.14422302 -0.26086158 -0.7945138 -0.7192615 0.75693506 -0.111654446 -0.24338013 -0.18127772
-0.08605541 0.2966 -1.0792329 1.2028588 0.6640241 0.052057397 0.035700113 0.11824364
0.15225595 0.4969687 -0.5527812 -0.80105674 0.81837153 0.5124256 0.22242759 0.06494215
0.16621988 0.17869486 -1.1245953 1.192627 0.72196114 0.02446803 0.07593602 0.027449513
0.15252249 0.25045753 -0.54501575 -0.83731425 0.4532601 0.03275117 0.06928095 0.09811298
-0.16288373 -0.57912326 -0.052875765 0.0057901447 0.050421037 -0.120998256 0.103139736 0.1344453
-0.38065842 0.34880444 -1.1302108 -0.56040585 0.37280172 -0.13213767 -0.05374336 -0.15397732
0.15660346 0.023779724 -0.75423574 -0.41993394 0.5991771 -0.083381474 -0.094028674 0.046349466
0.037425183 0.47120792 -1.2039814 0.28275815 0.67237175 -0.25149974 -0.36750177 -0.09290265
-0.019962633 0.23062456 0.8010598 1.2758203 -0.87605923 0.07217404 0.3470585 0.20609611
0.14387879 0.5108537 -1.2943385 -0.7181154 0.6482078 -0.2508002 -0.20319505 0.09417183
-0.07357913 0.08294683 -0.568503 -0.9419664 0.53427535 0.28896883 0.22101788 -0.064811036
-0.056278605 0.174009 -1.0160544 -0.8664155 0.48018524 0.041858017 0.022378782 -0.011927353
0.75337446 0.04599543 1.781121 -0.29044753 1.050489 0.94857293 -0.18639946 0.17281741
0.060806677 -0.15306032 -0.16295126 -0.124972366 0.40024802 0.6216773 -0.028853223 0.077047594
0.0062932777 0.38014448 1.6004604 -0.59250665 -0.57898504 0.10940371 -0.30335784 0.14845262
0.13209529 -0.2124501 0.14008574 0.4226547 -0.12425971 0.10704252 -0.015077851 -0.102747925
0.48058018 0.1697182 1.9841679 -0.9586318 0.2563483 0.72378033 0.34928507 -0.16548431
0.106432214 0.26335672 1.155316 0.030935021 -0.8000359 -0.01308072 -0.14931062 -0.300237
-0.26037616 -0.23300028 1.2278484 0.10703145 -0.8046628 -0.10618212 0.32598317 0.2976788
-0.11116761 -0.47215426 -0.1815508 0.3056583 -0.20040677 -0.15287915 -0.54682463 0.015497156
0.11256693 0.45729008 1.2805741 -0.9894797 -0.7868759 0.106701665 -0.023177875 -0.025265181
-0.17267804 -0.022493428 -0.15193988 -1.0296584 0.006527853 0.01763146 -0.05261368 0.14554633
00000000: a82c 453d 6ca1 68bf 981d 32be bc6b 2f3f
00000010: 2b52 d63e e46d c6bb 2df3 bbbc 2339 483e
00000020: bff8 30be d808 823e 3aab 923f 32a8 10bf
00000030: 5c7c 1cbf dbd4 1e3e 890d c6be fc81 8a3c
00000040: 97ca 023f 9545 a1bd 96fb 99bf 7913 9fbe
00000050: e6fa 393f 417d 8cbd cefb 0abf 80ab dbbd
00000060: cde2 7b3d 2bf7 343e 5a70 94be f9f7 60bf
00000070: da38 2ebe 1791 933e 5e91 4c3d aa90 adbe
00000080: 6d0c a1bd 328b c8be 0156 0d3d c4c2 923e
00000090: 3336 273e 052f a4bd 728d 0ebd 4858 33be
000000a0: 8586 0bbe b65b c93e 61d3 53be c88e 83bf
000000b0: 2c4e 123e e2a5 e03d 7397 55be 6c8b 60be
000000c0: fbeb 4f3e 22ea 363e bf10 703f 1b74 43bf
000000d0: 7cda 30bf 4057 d03d 23d5 c3be efa0 2f3d
000000e0: 6ce1 583d 448e dc3e 5f0f 533f 8a63 46bf
000000f0: 0ecf 3fbe 7d35 2cbe 0f76 49be 3c89 e33c
00000100: fc38 633d 858e b73e 0ef1 81bf 74b5 5c3f
00000110: 2b66 173f cc14 9a3d d63b 073e bddf de3d
00000120: 33af 13be a68f 85be 4265 4bbf 8621 38bf
00000130: 7fc6 413f 16ab e4bd a438 79be dea0 39be
00000140: d23d b0bd f5db 973e 4e24 8abf 47f7 993f
00000150: 7cfd 293f 233a 553d 483a 123d b929 f23d
00000160: fce8 1b3e ae72 fe3e 1283 0dbf 0e12 4dbf
00000170: cc80 513f 532e 033f 0fc4 633e 6400 853d
00000180: 8b35 2a3e c9fb 363e bdf2 8fbf 00a8 983f
00000190: 72d2 383f 2e71 c83c 5884 9b3d cddd e03c
000001a0: db2e 1c3e f83b 803e 2786 0bbf 3a5a 56bf
000001b0: b511 e83e 1726 063d 2ce3 8d3d 75ef c83d
000001c0: feca 26be 6c41 14bf 4294 58bd 41bb bd3b
000001d0: 4a86 4e3d efcd f7bd ed3a d33d 07ac 093e
000001e0: a9e5 c2be 7f96 b23e bfaa 90bf c276 0fbf
000001f0: dedf be3e 194f 07be ff21 5cbd 3bac 1dbe
00000200: a85c 203e b2cd c23c 9815 41bf 9501 d7be
00000210: ac63 193f e8c3 aabd 1b92 c0bd f0d8 3d3d
00000220: 264b 193d 2a42 f13e 101c 9abf adc5 903e
00000230: 8e20 2c3f 93c4 80be 3129 bcbe bf43 bebd
00000240: ad88 a3bc d828 6c3e 4112 4d3f 144e a33f
00000250: 6b45 60bf fccf 933d a7b1 b13e dc0a 533e
00000260: f654 133e 4fc7 023f e2ac a5bf 69d6 37bf
00000270: f2f0 253f e268 80be 5d12 50be 29dd c03d
00000280: a8b0 96bd 07e0 a93d 6a89 11bf b624 71bf
00000290: 45c6 083f b9f3 933e 8352 623e a6bb 84bd
000002a0: 6584 66bd 6a2f 323e 120e 82bf 68cd 5dbf
000002b0: d7da f53e 5073 2b3d b553 b73c f26a 43bc
000002c0: 26dd 403f b465 3c3d c6fb e33f 8ab5 94be
000002d0: 6c76 863f add5 723f 80df 3ebe 0cf7 303e
000002e0: 6c10 793d d8bb 1cbe b2dc 26be 83f1 ffbd
000002f0: 4fed cc3e 3e26 1f3f 985d ecbc 21cb 9d3d
00000300: d737 ce3b 4ca2 c23e e3db cc3f 84ae 17bf
00000310: 5d38 14bf 0d0f e03d b851 9bbe f703 183e
00000320: fd43 073e 858c 59be a372 0f3e 3266 d83e
00000330: e07b febd 1c39 db3d 1709 77bc 816d d2bd
00000340: 9b0e f63e 9cca 2d3e 37f9 fd3f e568 75bf
00000350: 1640 833e ab49 393f 7ed5 b23e b874 29be
00000360: 22f9 d93d b1d6 863e 65e1 933f 716b fd3c
00000370: 27cf 4cbf 8450 56bc e2e4 18be aab8 99be
00000380: 0650 85be a097 6ebe 232a 9d3f 4e33 db3d
00000390: 62fe 4dbf 0376 d9bd 44e7 a63e 5b69 983e
000003a0: d8ab e3bd 34be f1be 74e8 39be 3f7f 9c3e
000003b0: 6f37 4dbe 5a8c 1cbe b3fc 0bbf c9e7 7d3c
000003c0: 7e89 e63d ed21 ea3e dae9 a33f 8b4e 7dbf
000003d0: b370 49bf 6786 da3d 87df bdbc edf8 cebc
000003e0: 83d2 30be 2344 b8bc 2196 1bbe d9cb 83bf
000003f0: 9ae7 d53b da6f 903c 7181 57bd 190a 153e

actor.0.bias f4 [64]
0.30710715 0.5019196 -0.2511898 0.28050005 -0.3190717 0.48625582 0.5166314 0.23744561
-0.04262976 -0.30180693 0.14571947 0.10213377 0.2668978 0.33159453 -0.2592948 0.33674824
-0.3572268 -0.32155892 0.30912986 0.6313885 0.5305477 0.43544146 0.14034341 0.07343698
0.45463568 -0.41114432 0.10295952 -0.23283386 -0.2105902 -0.4457543 0.50775176 0.49583927
0.3420208 -0.4049878 0.12703036 0.12920964 0.2759837 0.34234822 -0.002009455 -0.31274092
-0.37122613 -0.3736173 0.43423077 -0.14807081 0.20750351 -0.4296445 0.28717723 0.04886565
0.16908506 0.07277959 0.25953788 0.371904 0.4459869 -0.33837116 0.5765719 -0.29301757
0.33684924 -0.0585669 0.24967216 -0.012813245 0.017373398 0.5884669 0.2159477 -0.5367534
00000000: 263d 9d3e ce7d 003f f39b 80be b49d 8f3e
00000010: 5e5d a3be 86f6 f83e f541 043f f124 733e
00000020: 8b9c 2ebd 7086 9abe 7c37 153e 832b d13d
00000030: d4a6 883e c2c6 a93e 4ac2 84be 446a ac3e
00000040: 6ee6 b6be 5fa3 a4be 4546 9e3e ada2 213f
00000050: f9d1 073f 2ff2 de3e 2fb6 0f3e 2166 963d
00000060: 02c6 e83e 8281 d2be 71dc d23d 006c 6ebe
00000070: f5a4 57be e839 e4be 05fc 013f a5de fd3e
00000080: 5a1d af3e 905a cfbe 3f14 023e 884f 043e
00000090: bc4d 8d3e 4448 af3e 10b1 03bb 941f a0be
000000a0: 5a11 bebe c44a bfbe 7f53 de3e e09f 17be
000000b0: cd7b 543e 5dfa dbbe e508 933e 5927 483d
000000c0: a224 2d3e 770d 953d 26e2 843e 336a be3e
000000d0: 6558 e43e fc3e adbe 379a 133f 6606 96be
000000e0: 8177 ac3e d9e3 6fbd 0faa 7f3e a5ee 51bc
000000f0: a852 8e3c c4a5 163f 6521 5d3e ac68 09bf

actor.2.weight f4 [4, 64]
0.46241167 -0.40667388 -0.2069205 -0.38351643 0.11330982 -0.48162177 -0.47688532 -0.33117032
0.4223851 -0.16176444 0.6313315 -0.10707483 0.6194243 -0.07926334 0.018078612 -0.43631732
-0.030784251 -0.24538481 1.0437909 -0.034235515 -0.014380426 -0.14499237 -0.27117783 -0.014415744
-0.1673921 -0.07692446 -0.20533894 -0.2132552 0.27663016 0.05264228 -0.26658747 -0.045593366
0.5075245 -0.04791885 0.26173693 0.08784129 -0.071258195 0.6179189 -0.64329517 -0.16120319
-0.051517386 0.055276282 0.96526873 -0.084836036 0.2512398 -0.088690385 0.671233 -0.05887811
-0.18803032 -0.2949761 -0.5602785 0.30344468 -0.17864761 0.22401285 -0.07855583 0.26748002
0.5333962 0.47054854 -0.35698307 -0.27762738 -0.49644005 -0.120492324 1.0608678 0.04941224
0.060591634 0.55593455 -0.12407733 -0.21180052 -0.0402879 -0.21418945 0.46799773 0.16714425
0.037094563 -0.19422008 0.038843475 -0.4399102 0.027894532 -0.5680814 -0.0299317 -0.53277874
0.014192543 -0.02570271 0.89054126 -0.783296 -0.47940075 -0.81475824 -0.38695818 -0.20683938
0.56517917 -0.08937504 0.19967903 0.7254701 0.43535936 -0.11991206 0.4299427 -0.21574232
0.17479879 0.09512102 0.6356959 -0.1598457 -0.6325352 0.70147586 0.076648735 0.87301224
0.07307311 -0.05298255 -0.02754881 0.07252694 0.23679228 0.04525259 0.6396873 -0.070046656
-0.9433531 0.08905962 0.28829795 0.2760677 -0.49811706 0.9775645 0.40432337 -0.058846217
-0.19626911 0.10152599 -0.83042115 -0.7751589 -0.82819206 -0.7721341 0.6458936 0.14854121
-0.34809202 -0.017266162 -0.63004184 0.30228832 -0.0013834052 0.4269237 0.40558642 0.34900835
-0.6793924 -0.54716223 -0.7010737 0.2008444 -0.9048323 0.50269914 -0.0045503844 0.3194336
-0.3513301 -0.64903253 -1.1336476 0.20618767 0.38353798 0.3724526 0.99999535 0.23806344
0.08043051 0.0023321174 0.71297246 -0.7202886 -0.6835376 0.1487603 0.32485273 0.5322469
-0.86313915 0.02394585 -0.542271 -0.34440494 0.04326769 -0.78952336 0.4476184 -0.90541244
-0.09515028 -0.52397066 -0.24457349 -0.17906865 -0.81065905 -0.0082515795 -0.8239738 -0.2721657
0.2863732 -0.0073898546 0.4205819 -0.73206556 0.46053138 -1.3277138 0.38416177 -0.049447462
-0.64504385 -0.29339084 0.4391464 1.1277452 1.3089709 0.3684391 -0.78777146 -0.046303604
0.1476375 -0.66277593 0.76034844 -0.22524437 -0.053189106 -0.07439759 -0.671834 -0.5208383
0.7762597 0.679481 0.8720357 0.16965975 0.76175773 0.17720729 -0.039674714 0.4385687
0.57111543 0.93755037 0.31864297 0.5652351 0.041130085 0.1976301 -0.73461306 0.11580263
-0.9161287 -0.01772088 -1.1111288 -0.35373017 -0.06133266 0.10493645 -0.82392865 -0.2677561
0.48713753 0.08605423 -0.14036581 0.35635966 0.38525903 0.0005462675 -0.37076885 -0.26472205
-0.116529025 0.6366397 -0.09781372 0.009357632 0.6441096 -0.13242684 -0.16594242 0.4028901
0.31390253 0.18521059 -0.697629 0.57462 -0.4150214 0.80063534 -0.74037606 0.03968071
0.5623114 0.038414992 0.29347977 -0.601461 -0.7021446 0.31697735 0.44047287 -0.0052079735
00000000: 39c1 ec3e 8f37 d0be f8e2 53be 445c c4be
00000010: fb0e e83d 2197 f6be 502a f4be 288f a9be
00000020: dc42 d83e 94a5 25be f19e 213f 0c4a dbbd
00000030: 9792 1e3f d154 a2bd 9919 943c fc64 dfbe
00000040: 412f fcbc 2846 7bbe f19a 853f 8a3a 0cbd
00000050: e19b 6bbc e178 14be d2d7 8abe 0330 6cbc
00000060: d668 2bbe 928a 9dbd 5f44 52be 925f 5abe
00000070: 78a2 8d3e 6e9f 573d 277e 88be 1cc0 3abd
00000080: 20ed 013f 8e46 44bd 6202 863e 22e6 b33d
00000090: d1ef 91bd ef2f 1e3f feae 24bf 7312 25be
000000a0: e503 53bd 6269 623d da1b 773f 84be adbd
000000b0: 81a2 803e 4ea3 b5bd edd5 2b3f 2c2a 71bd
000000c0: 058b 40be 1b07 97be 696e 0fbf 1a5d 9b3e
000000d0: 66ef 36be a063 653e e1e1 a0bd 24f3 883e
000000e0: a78c 083f bdeb f03e 7cc6 b6be 2d25 8ebe
000000f0: 642d febe aec4 f6bd 84ca 873f 7d64 4a3d
00000100: ef2e 783d ba51 0e3f 411c febd 3ce2 58be
00000110: ed04 25bd 7b54 5bbe 669d ef3e dd27 2b3e
00000120: 78f0 173d a1e1 46be 561a 1f3d e93b e1be
00000130: 1383 e43c c86d 11bf 5333 f5bc 3064 08bf
00000140: d787 683c 7d8e d2bc 83fa 633f 1686 48bf
00000150: 0474 f5be ff93 50bf 621f c6be b4cd 53be
00000160: 95af 103f 430a b7bd a978 4c3e 69b8 393f
00000170: 6ce7 de3e 7494 f5bd 7321 dc3e 8eeb 5cbe
00000180: 74fe 323e cfce c23d f7bc 223f 97ae 23be
00000190: d4ed 21bf ec93 333f 03fa 9c3d bb7d 5f3f
000001a0: 5ba7 953d 3b04 59bd 0bae e1bc 0189 943d
000001b0: ad79 723e c85a 393d 8cc2 233f 9f74 8fbd
000001c0: 977f 71bf e464 b63d ca9b 933e bf58 8d3e
000001d0: 3309 ffbe ab41 7a3f 7903 cf3e bb08 71bd
000001e0: c5fa 48be dcec cf3d 7b96 54bf d070 46bf
000001f0: 6504 54bf 95aa 45bf 4859 253f 301b 183e
00000200: 1e39 b2be c471 8dbc 6c4a 21bf 89c5 9a3e
00000210: 6053 b5ba be95 da3e 06a9 cf3e 39b1 b23e
00000220: a9ec 2dbf d312 0cbf 9179 33bf 28aa 4d3e
00000230: 17a3 67bf e4b0 003f 641b 95bb cd8c a33e
00000240: 8ae1 b3be ff26 26bf 5d1b 91bf dc22 533e
00000250: 175f c43e 1bb2 be3e b2ff 7f3f e7c6 733e
00000260: c0b8 a43d 70d6 183b 5d85 363f d564 38bf
00000270: 52fc 2ebf 9f54 183e 1953 a63e 5541 083f
00000280: b0f6 5cbf 162a c43c 46d2 0abf d855 b0be
00000290: 7639 313d 341e 4abf 3d2e e53e 1cc9 67bf
000002a0: 26de c2bd f122 06bf 7971 7abe c65d 37be
000002b0: 5a87 4fbf a231 07bc f2ef 52bf 4d59 8bbe
000002c0: 829f 923e 9826 f2bb 8356 d73e a668 3bbf
000002d0: c5ca eb3e 87f2 a9bf dab0 c43e 6c89 4abd
000002e0: 9821 25bf 5337 96be ccd7 e03e f459 903f
000002f0: 5c8c a73f 0da4 bc3e 64ab 49bf d9a8 3dbd
00000300: 492e 173e afab 29bf 32a6 423f 76a6 66be
00000310: d2dc 59bd c35d 98bd 50fd 2bbf a955 05bf
00000320: f5b8 463f 78f2 2d3f bb3d 5f3f 49bb 2d3e
00000330: 8e02 433f d475 353e f481 22bd 148c e03e
00000340: 9f34 123f 4d03 703f 2c25 a33e 3fb3 103f
00000350: 0578 283d 8c5f 4a3e 9a0f 3cbf ee29 ed3d
00000360: 6987 6abf 612b 91bc 7839 8ebf 1f1c b5be
00000370: f537 7bbd ece8 d63d fdec 52bf 5417 89be
00000380: 176a f93e 333d b03d 0ebc 0fbe c674 b63e
00000390: ac40 c53e 6433 0f3a 6ad5 bdbe a689 87be
000003a0: c5a6 eebd d2fa 223f 8f52 c8bd c150 193c
000003b0: 5ee4 243f e79a 07be cfec 29be 9c47 ce3e
000003c0: d5b7 a03e d8a7 3d3e d097 32bf 4c1a 133f
000003d0: af7d d4be 70f6 4c3f 4989 3dbf 3d88 223d
000003e0: a4f3 0f3f 0a59 1d3d fb42 963e 59f9 19bf
000003f0: c0bf 33bf db4a a23e a985 e13e a6a7 aabb

actor.2.bias f4 [4]
0.08850595 -0.100862436 0.18227576 -0.027469516
00000000: 9c42 b53d f790 cebd 7fa6 3a3e c007 e1bc

critic.0.weight f4 [64, 8]
-0.3652655 0.29856408 -0.49994388 -0.003397062 -0.3557524 -0.018645165 0.04844812 -0.10059748
-0.1804939 -0.5357541 0.42899597 -0.1293779 0.2827847 0.40730616 0.15138124 0.52955127
-0.16388185 -0.7375168 -0.34489778 -0.28224796 0.16728215 0.30878726 0.24142534 0.12687449
0.04032922 0.0983964 -0.1109442 -0.07611129 -0.110952854 0.11532619 -0.044629756 0.041333027
0.26535568 -0.5697496 -0.10594505 0.03890062 -0.48899814 -0.412134 -0.03010799 0.0077430536
-0.1590272 -0.34347776 -0.17643978 -0.11464103 -0.19758812 0.29223105 -0.044252403 -0.19413345
0.118514486 0.03189147 0.19235839 -0.53011084 0.29885158 -0.1747385 -0.44778284 -0.010237924
0.14303976 -0.16771847 -0.52333146 -0.13828406 0.27526847 -0.1938153 0.16194338 0.16067742
-0.34613183 0.010613868 -0.5096031 -0.14512601 0.2384002 -0.64051676 -1.6884996 0.35560748
0.18799797 -0.12636411 0.088662654 0.15056494 -0.60732454 -0.25440055 0.21788217 0.29261264
-0.113177076 -1.3100544 -0.30331713 -0.008318262 -0.44050643 -0.5476136 0.22612582 0.20133896
-0.020595683 0.04013975 -0.43750104 -0.110375844 0.34023857 0.12123112 0.44861785 -0.28996974
-0.20190375 0.0029083248 0.07601723 0.04906937 0.58901495 0.12408171 -0.24733302 -0.41277978
-0.16777824 -1.1210417 -0.65871984 0.3003435 -0.44885457 -0.43810079 0.15748604 0.105554715
0.17048946 -0.018141149 -0.027806174 0.045411292 0.480683 0.24058175 0.01659523 -0.0729352
0.19441622 -0.36786434 0.2702197 0.15887736 0.16861288 0.3339195 -0.280747 0.4652275
-0.46520698 0.035660606 -0.10646912 -0.26234037 -0.81867045 0.2733797 0.28446126 -0.97321784
0.020811198 -0.05665049 -0.116868146 0.025088897 0.006898408 0.108006455 0.14732224 -0.02992142
-0.21629888 -0.09813408 -0.82530177 0.20841557 -0.16525762 -0.3334796 0.36631614 0.122320525
0.0205061 -0.100238204 0.05176314 -0.22048803 -0.007259188 0.07678443 0.10756231 0.06485194
0.18476427 -0.1412582 0.45071873 0.147814 0.40436298 0.18799967 0.23548497 -0.1994314
-0.11992119 -0.16394953 0.06290815 -0.31106842 -0.2744089 0.42393863 0.36981222 -1.1588777
-0.047660355 -0.1511655 -0.10133688 0.21847112 0.59845793 0.29582146 0.086502664 -0.30661002
-0.38721102 -1.3095578 0.14315034 0.1309405 0.44184333 0.32327554 -0.4430538 -0.12721758
0.033970963 -0.052313484 0.070528015 0.21966131 0.77931094 -0.20345408 -0.0790599 0.44359863
-0.2602861 0.0256301 0.065991186 -0.038475554 -0.8213286 -0.34170312 -0.45785683 -0.00894111
0.11757117 -0.37637082 -0.36038113 0.14111643 -0.3487957 -0.4312893 0.050524335 0.26438516
-0.0077331993 -0.8268296 0.6833696 -0.19725029 0.41849926 0.5067275 0.12659381 0.22607695
0.02869711 -0.65421706 -0.46782947 0.07874089 -0.29789782 -0.20116156 0.18736796 0.14086741
0.16607639 -0.92792684 0.8796505 -0.21810363 0.37230664 0.44976285 0.037101526 0.33940405
-0.24955186 -0.52007914 -0.1125754 0.08929827 0.018665625 0.20237675 -0.16312127 0.31178886
-0.112365395 -0.01001429 -0.77514696 -0.04423034 0.27988273 0.012138785 0.44533277 -0.45802298
00000000: 1404 bbbe 64dd 983e a5f8 ffbe 3ea1 5ebb
00000010: 2e25 b6be bfbd 98bc 8971 463d 0d06 cebd
00000020: 65d3 38be 2e27 09bf 5ca5 db3e a47b 04be
00000030: 28c9 903e 6f8a d03e af03 1b3e ac90 073f
00000040: a5d0 27be e7cd 3cbf 7196 b0be ce82 90be
00000050: 034c 2b3e 5d19 9e3e 3438 773e 63eb 013e
00000060: 4130 253d 0d84 c93d b636 e3bd 3ce0 9bbd
00000070: 403b e3bd 2330 ec3d b1cd 36bd d24c 293d
00000080: b3dc 873e 1cdb 11bf b8f9 d8bd 4256 1f3d
00000090: f75d fabe 3a03 d3be 08a5 f6bc 71b9 fd3b
000000a0: 07d8 22be 51dc afbe a1ac 34be ebc8 eabd
000000b0: 8a54 4abe 4f9f 953e 0242 35bd ebca 46be
000000c0: b9b7 f23d a1a0 023d 99f9 443e 58b5 07bf
000000d0: 1303 993e a6ee 32be cb43 e5be f7bc 27bc
000000e0: 0479 123e 64be 2bbe 0df9 05bf 569a 0dbe
000000f0: fdef 8c3e 8577 46be 7cd4 253e 9f88 243e
00000100: 3138 b1be cae5 2d3c 5975 02bf ea9b 14be
00000110: 2f1f 743e e8f8 23bf c120 d8bf 2f12 b63e
00000120: 8a82 403e 9865 01be c494 b53d b22d 1a3e
00000130: 9f79 1bbf ca40 82be 811c 5f3e 53d1 953e
00000140: 62c9 e7bd ddaf a7bf 624c 9bbe 5249 08bc
00000150: 0f8a e1be 6830 0cbf 878d 673e cd2b 4e3e
00000160: 47b8 a8bc 9469 243d 2300 e0be bb0c e2bd
00000170: c033 ae3e 0548 f83d 3db1 e53e ea76 94be
00000180: dbbf 4ebe 9899 3e3b ecae 9b3d f7fc 483d
00000190: afc9 163f 8d1e fe3d de44 7dbe df57 d3be
000001a0: 0fce 2bbe 4b7e 8fbf dda1 28bf a0c6 993e
000001b0: 44d0 e5be bf4e e0be 0544 213e 122d d83d
000001c0: ca94 2e3e bf9c 94bc c6c9 e3bc 3101 3a3d
000001d0: 151c f63e 105b 763e b8f2 873c 0d5f 95bd
000001e0: 0c15 473e b758 bcbe 3d5a 8a3e bfb0 223e
000001f0: dba8 2c3e 7ff7 aa3e 12be 8fbe 4d32 ee3e
00000200: 9c2f eebe db10 123d 7b0c dabd 7a51 86be
00000210: 6394 51bf 6df8 8b3e e8a4 913e ce24 79bf
00000220: 3f7c aa3c 580a 68bd 9158 efbd 3b87 cd3c
00000230: 0a0c e23b 7d32 dd3d a4db 163e c41d f5bc
00000240: 747d 5dbe 85fa c8bd fa46 53bf e46a 553e
00000250: 4b39 29be d7bd aabe ca8d bb3e 2f83 fa3d
00000260: 69fc a73c b049 cdbd 9605 543d 9dc7 61be
00000270: 7cde edbb 2841 9d3d a149 dc3d 18d1 843d
00000280: d832 3d3e fda5 10be 9bc4 e63e 8e5c 173e
00000290: aa08 cf3e fc82 403e f922 713e bf37 4cbe
000002a0: 3e99 f5bd 63e2 27be fdd5 803d 5c44 9fbe
000002b0: 537f 8cbe 7c0e d93e 0758 bd3e 1b56 94bf
000002c0: 8137 43bd 21cb 1abe b689 cfbd e5b6 5f3e
000002d0: 8a34 193f e975 973e 4f28 b13d fdfb 9cbe
000002e0: 8640 c6be 979f a7bf 0196 123e 4415 063e
000002f0: 4a39 e23e 5f84 a53e f3d7 e2be 5345 02be
00000300: 2325 0b3d aa46 56bd fe70 903d e5ee 603e
00000310: ec80 473f 4456 50be 28ea a1bd 5c1f e33e
00000320: 3844 85be 37f6 d13c 6326 873d 8b98 1dbd
00000330: 9742 52bf b6f3 aebe 366c eabe bc7d 12bc
00000340: 27c9 f03d adb3 c0be e083 b8be d380 103e
00000350: 5a95 b2be f3d1 dcbe 9bf2 4e3d 7e5d 873e
00000360: c766 fdbb 1bab 53bf 4ff1 2e3f fbfb 49be
00000370: 8945 d63e e5b8 013f cfa1 013e b780 673e
00000380: 3416 eb3c c57a 27bf 5887 efbe e742 a13d
00000390: 1086 98be 4cfd 4dbe 63dd 3f3e 8c3f 103e
000003a0: ee0f 2a3e 9d8c 6dbf c630 613f 8f56 5fbe
000003b0: fa9e be3e 5147 e63e c5f7 173d 5ec6 ad3e
000003c0: 868a 7fbe e823 05bf ee8d e6bd 03e2 b63d
000003d0: a7e8 983c da3b 4f3e 4309 27be caa2 9f3e
000003e0: d41f e6bd fa12 24bc 0870 46bf df2a 35bd
000003f0: ca4c 8f3e c1e1 463c a802 e43e fd81 eabe

critic.0.bias f4 [64]
-0.06172687 -0.8597671 -0.6408538 0.269498 -0.16153589 -0.27594268 -0.09669252 0.4035135
-0.10223336 0.14186423 -1.0399613 -0.24249093 -0.0020021219 -0.88796717 0.019419612 -0.18390526
-0.061790273 0.27965552 -0.5503883 0.4461236 -0.062101126 -0.15436208 0.20781857 -0.80989766
0.057250723 -0.072870314 -0.5378496 -1.0619159 -0.54570043 -0.9604033 -0.13869675 -0.037696924
0.082141735 -0.43565676 -0.04497319 -0.82880396 0.15604484 0.046504408 -0.33992627 -0.025268016
-0.046503376 0.12846422 -0.07996987 -0.4147076 -1.1317438 -0.294666 -0.116464004 -1.0484505
-0.22480771 -0.11845375 0.34451106 0.03630066 -0.03159518 -0.45532075 0.21540616 -0.9308894
-0.81443065 -0.34124884 -0.33204463 -0.181211 0.1326287 -0.33163273 0.34709948 -0.094181694
00000000: 50d5 7cbd b219 5cbf ff0e 24bf a4fb 893e
00000010: aa69 25be 5c48 8dbe ba06 c6bd 5299 ce3e
00000020: b95f d1bd db44 113e 741d 85bf 8b4f 78be
00000030: 0836 03bb d151 63bf e115 9f3c a951 3cbe
00000040: cc17 7dbd 022f 8f3e 3fe6 0cbf 506a e43e
00000050: c05d 7ebd 1811 1ebe 64ce 543e 7455 4fbf
00000060: bc7f 6a3d 083d 95bd 83b0 09bf dcec 87bf
00000070: 06b3 0bbf fedc 75bf 8506 0ebe 1768 1abd
00000080: ed39 a83d 670e dfbe cf35 38bd 7f2c 54bf
00000090: 38ca 1f3e 687b 3e3d d10a aebe dffe cebc
000000a0: 537a 3ebd 208c 033e 3ec7 a3bd 8e54 d4be
000000b0: fbdc 90bf 76de 96be ae84 eebd a033 86bf
000000c0: fe33 66be e197 f2bd c163 b03e 00b0 143d
000000d0: f369 01bd cd1f e9be 6f93 5c3e c54e 6ebf
000000e0: 877e 50bf 2bb8 aebe c101 aabe 608f 39be
000000f0: d1cf 073e c4cb a9be 06b7 b13e 55e2 c0bd

critic.2.weight f4 [1, 64]
-0.05752945 -0.51779395 -0.29728115 0.029845111 -0.120773904 0.123254485 0.15639232 0.115778536
0.48439524 -0.18092927 -0.9824456 -0.2008617 -0.37170818 -0.69994104 -0.08150571 -0.23453678
0.63800347 0.01841016 -0.4462138 0.099967696 -0.05566874 0.40435132 -0.21827994 -1.0372832
0.19899371 -0.39598522 -0.33736894 -0.8040062 -0.28273252 -0.7709539 -0.0534984 -0.14737847
-0.18402652 -0.325286 -0.2533225 -0.50745565 -0.041842747 -0.06753908 -0.03302529 -0.35107422
-0.031153437 -0.039145682 0.062064603 -0.033814937 -0.8996823 -0.100304924 0.23374431 -0.77728504
0.03865204 0.3257907 0.14368342 -0.002893592 -0.08447656 -0.22825971 -0.097027406 -0.7469166
-0.89159536 -0.030179357 -0.2751298 -0.10990318 -0.09121006 -0.5804875 0.11017247 0.0026847464
00000000: 00a4 6bbd 258e 04bf 3c35 98be bc7d f43c
00000010: 4f58 f7bd d96c fc3d 4f25 203e 4c1d ed3d
00000020: a702 f83e 8645 39be 8e81 7bbf b1ae 4dbe
00000030: 8950 bebe 562f 33bf 77ec a6bd 692a 70be
00000040: 3254 233f e7d0 963c 2376 e4be ddbb cc3d
00000050: e804 64bd 2307 cf3e c784 5fbe b2c5 84bf
00000060: 02c5 4b3e 93be cabe 9fbb acbe 5ad3 4dbf
00000070: 51c2 90be 3c5d 45bf 2321 5bbd 62ea 16be
00000080: 7371 3cbe e38b a6be 7db3 81be 9de8 01bf
00000090: 4d63 2bbd ee51 8abd 8745 07bd 00c0 b3be
000000a0: 7e35 ffbc 3957 20bd 7437 7e3d 8881 0abd
000000b0: 9451 66bf ab6c cdbd ab5a 6f3e 27fc 46bf
000000c0: 9a51 1e3d 0ace a63e bf21 133e 6ba2 3dbb
000000d0: 0c02 adbd eabc 69be 4eb6 c6bd ed35 3fbf
000000e0: 983f 64bf b33a f7bc d0dd 8cbe eb14 e1bd
000000f0: 57cc babd d49a 14bf 1ba2 e13d 92f2 2f3b
