ppo/model/ppo_lunar_lander.pth (torch, 8335 bytes, 7 tensors)

actor.0.weight f4 [64, 8]
-0.3463926 -0.3965188 -0.14925356 -0.19952151 0.6254196 -0.058941163 -0.04356483 -0.24536863
-0.17679901 -0.27016616 0.2165968 0.08968435 0.51089567 -0.292738 0.4678421 0.060970042
0.034177057 -0.14607759 -0.8236285 -0.5025847 0.31395525 0.10127495 -0.24998154 -0.19083098
0.20990479 -0.13407762 0.14076246 0.33102235 0.14167257 -0.10784381 -0.13097958 0.005178339
0.2890054 0.48594356 0.021776725 -1.0369627 -0.21012513 -0.13853173 -0.11176262 -0.09827555
-0.16607387 0.42623955 0.08359338 1.1118133 0.26129106 -0.19013351 -0.10083288 -0.042303525
-0.31539983 -0.40916917 -0.09127059 0.32468703 -0.052300937 -0.0620634 0.03194168 -0.26380503
-0.1448157 -0.014032071 0.25109512 -0.5299295 0.6721155 0.7266548 -0.050520524 -0.13300472
-0.22940782 -0.08275041 -0.30585396 -0.14199962 0.62438726 -0.08664176 0.14485921 0.007592941
-0.0023604503 -0.25023854 0.4844701 -0.22470438 -0.29743847 0.22664568 0.2793859 -0.12219977
-0.21516949 0.047316894 -0.21916434 -0.7872468 0.50838304 -0.48373216 0.40094274 -0.36535823
-0.16218625 0.082120724 0.86825347 -0.2200055 -0.3912765 -0.080368124 -0.1850468 0.1385101
-0.06432936 0.030910868 0.17892757 -1.0755179 -0.33095068 0.28089067 -0.11769793 -0.024151403
-0.02409758 -0.08946616 0.3692957 -0.6860863 -0.64027685 0.12175832 0.09193187 0.05018858
0.18828759 0.36444417 1.0330358 -0.6482905 -0.71548086 0.39820936 0.27973455 -0.21895
0.10159618 -0.13521464 0.16944982 0.418833 -0.16389547 0.247149 -0.37332088 -0.42440453
0.04665405 0.4071902 0.028771704 -0.5191846 -0.01861668 0.0316293 -0.10415289 -0.031253528
-0.23346223 0.32041392 -0.8718563 -0.81674814 0.5614179 -0.18562862 -0.31067893 0.11860083
-0.08836286 0.1955957 0.6338404 -0.09895364 -0.36764812 0.029506216 0.20689182 0.12528913
0.06972509 -0.43512088 -0.1783909 0.40182763 -0.23924595 0.21261442 0.0649736 -0.1028097
-0.28420547 -0.044979554 -0.76437414 0.5860822 0.56241524 0.01573046 0.19810253 -0.20762847
-0.22609687 -0.2835079 -0.08096095 0.24120069 0.038161997 -0.29775217 -0.2534994 0.26271823
-0.006568836 0.13529372 -0.7407729 0.73848224 0.39226717 0.040743407 0.21329178 0.11781177
-0.3567989 -0.4325379 0.25828674 0.075684965 -0.2781251 -0.25174096 -0.2332705 -0.05390982
-0.010959491 0.29336768 -0.90045816 0.77516836 0.43841326 0.07696108 -0.046938688 -0.14973238
-0.21323791 0.24183983 -0.5192576 0.029505571 0.61119306 -0.17051278 -0.14465958 -0.44957715
0.28267577 0.083347745 0.27049017 -0.42915064 -0.5860009 -0.35960364 -0.0063070683 -0.2256909
-0.0923968 -0.13799772 0.013052189 0.066999845 0.038861066 -0.034174994 -0.33990732 0.08050422
-0.17418332 0.18732929 0.69397664 -0.7596844 -0.51010257 0.13634506 0.2559916 0.10947207
0.1764301 -0.08779219 -0.5778022 -0.8559206 -0.05610572 0.1623951 -0.12921825 -0.22455552
0.23791887 -0.26736423 -0.32345837 0.2741632 -0.40553325 0.32071936 0.2431676 0.08488293
0.06266999 0.23277916 -0.8326633 0.28804487 0.8130883 -0.025286522 0.2082177 0.09226012
00000000: 5f5a b1be 8304 cbbe edd5 18be 5e4f 4cbe
00000010: 801b 203f 4a6c 71bd 0971 32bd ea41 7bbe
00000020: cd0a 35be 3853 8abe 8dcb 5d3e 6eac b73d
00000030: 0fca 023f c1e1 95be 0089 ef3e b9bb 793d
00000040: 3efd 0b3d 5d95 15be 51d9 52bf 64a9 00bf
00000050: bebe a03e 3e69 cf3d 29fb 7fbe 3269 43be
00000060: 48f1 563e a54b 09be 0924 103e c37b a93e
00000070: 9d12 113e 37dd dcbd 831f 06be 0eaf a93b
00000080: 84f8 933e 98cd f83e 1a65 b23c 32bb 84bf
00000090: 0b2b 57be 43db 0dbe cde3 e4bd b144 c9bd
000000a0: 450f 2abe 123c da3e 0233 ab3d e64f 8e3f
000000b0: f1c7 853e 5cb2 42be 7881 cebd 7646 2dbd
000000c0: 167c a1be 9f7e d1be 13ec babd 613d a63e
000000d0: 8239 56bd 3136 7ebd 47d5 023d 7411 87be
000000e0: 914a 14be c6e6 65bc 8a8f 803e 76a9 07bf
000000f0: c30f 2c3f 0d06 3a3f 9cee 4ebd 6432 08be
00000100: e2e9 6abe 0c79 a9bd e498 9cbe 5968 11be
00000110: d8d7 1f3f 3c71 b1bd f955 143e 35ce f83b
00000120: c9b1 1abb 441f 80be 770c f83e e818 66be
00000130: db49 98be ce15 683e ab0b 8f3e df43 fabd
00000140: 6455 5cbe 5ccf 413d 9e6c 60be 0289 49bf
00000150: 6425 023f beab f7be 5e48 cd3e 3c10 bbbe
00000160: 2714 26be e92e a83d dc45 5e3f 1f49 61be
00000170: 6555 c8be 0b98 a4bd e97c 3dbe 97d5 0d3e
00000180: 1dbf 83bd ca38 fd3c ca38 373e 92aa 89bf
00000190: 5e72 a9be e7d0 8f3e 9d0b f1bd 2ad9 c5bc
000001a0: 4a68 c5bc 093a b7bd 5314 bd3e 5aa3 2fbf
000001b0: 2fe9 23bf 6d5c f93d c746 bc3d 8a92 4d3d
000001c0: 76ce 403e 6d98 ba3e 843a 843f 5ef6 25bf
000001d0: c129 37bf 19e2 cb3e 5e39 8f3e 6e34 60be
000001e0: a811 d03d b575 0abe 4184 2d3e 4771 d63e
000001f0: 37d4 27be a114 7d3e ea23 bfbe 8d4b d9be
00000200: 5118 3f3d 3c7b d03e a3b2 eb3c 48e9 04bf
00000210: 0282 98bc ba8d 013d 1c4e d5bd b303 00bd
00000220: b910 6fbe 4b0d a43e f931 5fbf 6816 51bf
00000230: 15b9 0f3f 6e15 3ebe 4f11 9fbe fee4 f23d
00000240: 96f7 b4bd 3d4a 483e 5d43 223f 35a8 cabd
00000250: 603c bcbe 05b7 f13c 73db 533e cb4b 003e
00000260: 07cc 8e3d 2ac8 debe 1bac 36be 5abc cd3e
00000270: e4fc 74be 98b7 593e e110 853d e48d d2bd
00000280: 6183 91be 7b3c 38bd 06ae 43bf 7c09 163f
00000290: 72fa 0f3f 2add 803c 64db 4a3e 8f9c 54be
000002a0: f085 67be f327 91be dbce a5bd 50fd 763e
000002b0: c14f 1c3d f972 98be acca 81be 0183 863e
000002c0: 643f d7bb 708a 0a3e 4ba3 3dbf 2c0d 3d3f
000002d0: 3ed7 c83e 8fe2 263d 2969 5a3e 4c47 f13d
000002e0: 58ae b6be 9c75 ddbe 293e 843e b800 9b3d
000002f0: 6a66 8ebe 31e4 80be 76de 6ebe 8bd0 5cbd
00000300: 708f 33bc 4a34 963e 6d84 66bf 6f71 463f
00000310: b477 e03e c59d 9d3d c842 40bd 7253 19be
00000320: 0a5b 5abe dca4 773e 11ee 04bf abb5 f13c
00000330: 2677 1c3f e79a 2ebe a421 14be fa2e e6be
00000340: e1ba 903e 39b2 aa3d b07d 8a3e a2b9 dbbe
00000350: 2804 16bf f81d b8be 86ab cebb 841b 67be
00000360: 893a bdbd 464f 0dbe d9d8 553c 3737 893d
00000370: c82c 1f3d 14fb 0bbd 5508 aebe 66df a43d
00000380: 1d5d 32be 40d3 3f3e 74a8 313f ad7a 42bf
00000390: 1596 02bf 0a9e 0b3e 5511 833e e532 e03d
000003a0: 18aa 343e 64cc b3bd d8ea 13bf 9d1d 5bbf
000003b0: 1dcf 65bd e74a 263e ca51 04be e2f1 65be
000003c0: 01a1 733e f7e3 88be 569c a5be 1e5f 8c3e
000003d0: 0ea2 cfbe 5435 a43e ed00 793e 1ad7 ad3d
000003e0: 2059 803d a95d 6e3e 6c29 55bf 9e7a 933e
000003f0: 8e26 503f ae25 cfbc 0537 553e e0f2 bc3d

actor.0.bias f4 [64]
-0.013597266 0.06392454 0.56145275 -0.30223083 0.20560756 -0.21189652 -0.31132007 0.047775634
-0.2638543 0.20711946 0.23728554 0.43740365 0.449533 0.525633 0.3356861 -0.27161843
0.51862395 0.34334916 0.336442 -0.049980752 0.2839949 -0.23888926 0.107945524 -0.45833308
0.011331004 -0.2701534 0.33187762 -0.20210528 0.37122983 0.37182164 -0.37106583 0.037109658
0.11749832 -0.045629576 0.14613262 0.0068327826 0.39335307 0.45129883 0.4557798 0.15513436
0.21544152 0.17197224 -0.02950558 0.43598527 0.2567295 0.31436646 0.10131394 0.06837918
0.5261016 -0.27770475 0.2333066 -0.32972035 0.08363416 -0.2660996 0.31160852 0.23947717
0.12538624 0.07702672 -0.12819038 -0.4382519 0.20398916 -0.04401743 -0.16067323 -0.36888194
00000000: 11c7 5ebc dfea 823d 5ebb 0f3f 00be 9abe
00000010: ca8a 523e 67fb 58be 5865 9fbe 62b0 433d
00000020: e917 87be 2017 543e fbfa 723e 5ff3 df3e
00000030: 3029 e63e e28f 063f 0cdf ab3e 9211 8bbe
00000040: 8ac4 043f 76cb af3e 2042 ac3e 9eb8 4cbd
00000050: c867 913e 639f 74be 8b12 dd3d a2aa eabe
00000060: ada5 393c 8c51 8abe ddeb a93e b0f4 4ebe
00000070: d611 be3e 685f be3e 57fc bdbe 4c00 183d
00000080: f6a2 f03d 14e6 3abd caa3 153e 89e5 df3b
00000090: 9365 c93e a410 e73e f85b e93e 8bdb 1e3e
000000a0: b49c 5c3e 7e19 303e b0b5 f1bc 7639 df3e
000000b0: 0d72 833e a4f4 a03e af7d cf3d 620a 8c3d
000000c0: 98ae 063f 512f 8ebe ede7 6e3e 1bd1 a8be
000000d0: 6348 ab3d 353e 88be 278b 9f3e 8139 753e
000000e0: 4065 003e 2fc0 9d3d 5744 03be 8e62 e0be
000000f0: 89e2 503e 9f4b 34bd 8687 24be 18de bcbe

actor.2.weight f4 [4, 64]
0.09669703 -0.120532796 -0.10248009 -0.1325178 -0.42536005 0.18543157 0.052185398 -0.023329476
0.21204059 -0.124593735 0.012721972 -0.35120156 -0.3626763 -0.124010645 -0.13989076 0.044101093
-0.464297 0.04031045 -0.37517005 0.07504099 0.039136235 -0.08965572 0.11473567 -0.10641441
0.058052283 0.010071196 -0.2428475 0.0843095 -0.3909596 -0.03414209 -0.048806958 0.16338117
-0.23279381 0.0868271 -0.11072577 0.11964028 -0.16607432 -0.38557807 0.031917688 0.1545192
0.14042778 -0.086778134 -0.11722986 -0.27627075 0.0702615 0.12933955 -0.20444733 -0.15509193
-0.2587141 0.12898932 0.24139406 -0.09155501 -0.13858296 -0.16210537 0.08057723 -0.39624265
0.0070397444 0.1954007 -0.17692758 -0.086703084 -0.14716263 -0.063979566 0.15453611 0.058152817
-0.10361964 0.1065873 -0.4802832 0.03551834 -0.09186314 0.60064363 -0.08571779 -0.5381426
0.043733984 0.2106396 -0.3303625 0.34917596 -0.035984952 0.22351784 0.47416633 -0.05093196
-0.070513 -0.60316396 0.22751497 -0.01028766 -0.27440634 0.04883449 -0.07927019 0.05933928
-0.18654656 -0.46582162 0.2183621 -0.03627906 0.17958096 -0.41153666 -0.06433467 -0.32322708
-0.5677852 -0.38213187 -0.323599 0.105006844 -0.5721149 -0.27582693 0.5708925 -0.077320896
0.6170506 0.20945817 0.56572723 0.21898301 0.06603833 0.5805093 0.4373881 0.124664985
-0.35279775 -0.07654632 -0.24189246 -0.04010532 0.23507483 -0.0187277 0.041062858 0.0679456
0.054699466 -0.044278927 0.6251231 0.053317312 -0.52252424 0.42461023 -0.07876248 0.205507
-0.294746 -0.27503714 0.2886759 -0.04776907 0.3191005 -0.6115547 -0.10070262 0.29443797
-0.41476306 0.045242764 0.30186045 0.017127225 0.42370826 0.23836218 0.128792 -0.09590173
0.20522623 0.32698363 -0.053925868 0.08348355 -0.40903398 -0.034125384 -0.38842288 -0.02795236
-0.5093233 -0.2450702 0.19369389 -0.017386524 0.21046813 0.38425785 0.094508305 -0.19532731
0.3027581 0.5692942 -0.10806699 -0.31916493 0.47485468 0.20757169 -0.40454018 -0.38187802
-0.72431105 0.087626256 -0.30757585 0.33088923 -0.30961958 -0.59720665 -0.3098592 0.09322253
0.4800899 -0.012458259 -0.45410207 0.08168435 0.13350777 -0.09228587 -0.35870266 0.27424178
-0.5697855 -0.47446963 -0.46668008 -0.08768852 0.061146747 -0.45103243 -0.31577078 -0.023437936
0.2417564 0.1491356 0.27252057 0.058386073 -0.34349862 0.37600398 0.09565263 -0.039580267
0.22164169 -0.054017883 0.16572843 -0.45141146 -0.47108367 -0.46189266 -0.47506726 0.018091284
-0.11827585 0.17833969 -0.32173434 0.059559323 0.46546724 0.16992696 0.5690433 0.28109494
0.60434747 0.43924743 -0.17729294 -0.084267445 -0.57450646 -0.17314234 -0.095953934 0.5473252
0.045080025 -0.40061182 0.4165387 0.3802107 0.18338707 -0.044261947 0.30645883 0.21929742
0.25248262 -0.3771174 -0.20156908 -0.40272367 0.37318417 0.48136064 -0.17642727 -0.1712196
0.09042523 0.014852782 0.51393956 -0.05984966 -0.3635437 0.24171524 0.2266863 -0.18300368
0.5715424 0.73605 -0.08093311 -0.10346042 0.54407054 0.01487873 0.20264061 0.06756445
00000000: 1809 c63d e6d9 f6bd 15e1 d1bd bfb2 07be
00000010: cbc8 d9be c6e1 3d3e 5bc0 553d 751d bfbc
00000020: 2b21 593e 002b ffbd d16f 503c b1d0 b3be
00000030: b5b0 b9be 4bf9 fdbd 863f 0fbe 59a3 343d
00000040: 56b8 edbe 921c 253d 4a16 c0be 17af 993d
00000050: 514d 203d 6b9d b7bd 89fa ea3d ccef d9bd
00000060: 3bc8 6d3d a801 253c 04ad 78be 76aa ac3d
00000070: db2b c8be 93d8 0bbd cee9 47bd 654d 273e
00000080: 8061 6ebe 68d2 b13d 31c4 e2bd f705 f53d
00000090: 630f 2abe 7d6a c5be 1fbc 023d 483a 1e3e
000000a0: 4dcc 0f3e bcb8 b1bd 3516 f0bd 5c73 8dbe
000000b0: 43e5 8f3d 9671 043e a45a 51be 6bd0 1ebe
000000c0: 2d76 84be c715 043e 0130 773e 3181 bbbd
000000d0: b1e8 0dbe f3fe 25be ad05 a53d 51e0 cabe
000000e0: a8ad e63b 1f17 483e 812c 35be 6391 b1bd
000000f0: cdb1 16be b807 83bd b73e 1e3e a631 6e3d
00000100: 8936 d4bd 714a da3d aee7 f5be ae7b 113d
00000110: be22 bcbd c8c3 193f cf8c afbd b7c3 09bf
00000120: 6822 333d e8b1 573e 4625 a9be 31c7 b23e
00000130: f564 13bd dce1 643e eec5 f23e 089e 50bd
00000140: 1f69 90bd f468 1abf aff9 683e 938d 28bc
00000150: fd7e 8cbe ad06 483d 6958 a2bd bf0d 733d
00000160: 1006 3fbe 2c80 eebe 509a 5f3e 5a99 14bd
00000170: 12e4 373e efb4 d2be e5c1 83bd 057e a5be
00000180: 5f5a 11bf caa6 c3be c5ae a5be d40d d73d
00000190: 1f76 12bf 3039 8dbe 0326 123f 6b5a 9ebd
000001a0: 07f7 1d3f 347c 563e 80d3 103f 153d 603e
000001b0: 1b3f 873d 429c 143f 55f1 df3e 5b50 ff3d
000001c0: e8a1 b4be 51c4 9cbd a8b2 77be 7a45 24bd
000001d0: 75b7 703e d56a 99bc 8731 283d 1027 8b3d
000001e0: 8c0c 603d d25d 35bd 1108 203f 4163 5a3d
000001f0: 26c4 05bf 8366 d93e 394e a1bd 6d70 523e
00000200: f3e8 96be abd1 8cbe 54cd 933e 80a9 43bd
00000210: 2461 a33e d98e 1cbf 2d3d cebd 93c0 963e
00000220: d35b d4be 7a50 393d 748d 9a3e 654e 8c3c
00000230: 4af0 d83e 3715 743e 0de2 033e 2068 c4bd
00000240: d326 523e 666a a73e 5fe1 5cbd 6cf9 aa3d
00000250: e76c d1be 0fc7 0bbd 5ddf c6be 59fc e4bc
00000260: 0363 02bf aff3 7abe b157 463e 2f6e 8ebc
00000270: f584 573e 72bd c43e 928d c13d e203 48be
00000280: 1c03 9b3e 44bd 113f 3a52 ddbd 9669 a3be
00000290: 2720 f33e ac8d 543e e41f cfbe 8485 c3be
000002a0: 736c 39bf 6575 b33d 957a 9dbe 506a a93e
000002b0: 7586 9ebe 89e2 18bf dda5 9ebe 74eb be3d
000002c0: 58ce f53e ba1d 4cbc 1180 e8be 204a a73d
000002d0: 43b6 083e 6000 bdbd e0a7 b7be 6b69 8c3e
000002e0: 76dd 11bf afed f2be b1f0 eebe 0a96 b3bd
000002f0: 0375 7a3d b9ed e6be b5ac a1be ea00 c0bc
00000300: fd8e 773e 01b7 183e d187 8b3e 3c26 6f3d
00000310: 0ddf afbe 9883 c03e 87e5 c33d eb1e 22bd
00000320: 0af6 623e db41 5dbd b7b4 293e 671f e7be
00000330: e131 f1be 327d ecbe 043c f3be 2c34 943c
00000340: 9c3a f2bd ae9e 363e 5dba a4be 7af4 733d
00000350: b951 ee3e 5501 2e3e d2ac 113f adeb 8f3e
00000360: 84b6 1a3f 0ae5 e03e 488c 35be 6994 acbd
00000370: db12 13bf 3a4c 31be 7f83 c4bd 811d 0c3f
00000380: d5a5 383d fe1c cdbe 8f44 d53e faaa c23e
00000390: d2c9 3b3e 044c 35bd 2ce8 9c3e 818f 603e
000003a0: 6745 813e 8815 c1be 2068 4ebe cc31 cebe
000003b0: ff11 bf3e e774 f63e 5aa9 34be 3154 2fbe
000003c0: dd30 b93d 1559 733c 8b91 033f eb24 75bd
000003d0: 6622 babe 3384 773e 7420 683e 5165 3bbe
000003e0: 9a50 123f c66d 3c3f 42c0 a5bd 0fe3 d3bd
000003f0: 3548 0b3f ebc5 733c 0581 4f3e 3b5f 8a3d

actor.2.bias f4 [4]
-0.17511666 -0.23176755 0.11393447 -0.045719445
00000000: c851 33be 7954 6dbe 7a56 e93d 5044 3bbd

critic.0.weight f4 [64, 8]
-0.021463599 0.040884074 -0.08203267 0.23845668 0.6139503 0.43097776 0.3118185 -0.0026591239
-0.065946236 -0.8980733 -0.01856634 0.20656538 -0.31693757 -0.3074289 -0.2482479 -0.13637342
0.0077010365 0.017052034 -0.25895458 0.014073913 -0.16126905 -0.20935945 -0.22461312 -0.13390549
-0.060185835 -0.57516783 0.035027713 -0.11091153 -0.18052241 -0.57875365 0.122313544 0.21478762
0.06148741 -0.35604426 0.037400845 -0.2138496 0.21765594 -0.24846 -0.23950994 0.07477835
0.02075081 -0.0529319 0.14449595 -0.18294759 0.20262891 -0.19301432 -0.14546697 -0.15288138
-0.2481596 -0.36679825 0.025384068 0.14240487 0.20496525 0.29928195 -0.14022432 0.2855337
0.052100234 0.19705229 0.11169501 -0.24762009 0.23571262 -0.1584777 0.07306908 -0.19674714
-0.002852385 -0.03955977 -0.07391172 -0.23311728 0.024263512 0.3541621 -0.02146876 0.39238408
-0.075984046 -0.6111676 -0.3302997 -0.010130694 0.07472953 0.5430898 -0.044355508 0.19006947
0.015718754 -0.49463063 -0.08079853 0.07066769 0.13060348 0.5038288 -0.036623124 0.15537013
0.16124617 0.15835992 0.21413955 -0.038888842 0.52298754 0.44267407 0.1395945 0.09427666
0.140444 0.22769067 0.20729369 0.07305703 0.4481929 0.14964803 -0.34701318 -0.36907724
-0.36001587 -0.11952964 0.20477444 0.19548045 -0.59458596 0.33759293 0.3960494 -0.012792441
-0.265941 0.23185572 -0.07545748 -0.014252857 -0.56916755 -0.4851477 0.0033791414 0.17604578
0.25361452 -0.53417534 0.16010259 -0.12765346 -0.09469691 -0.41397896 0.0029142215 0.17108236
-0.14682181 -0.11194524 -0.2507321 -0.041114096 0.24352379 0.2793776 0.116789065 0.26112586
0.1881784 -0.28583655 0.16427302 0.08514647 0.20189314 0.41292065 0.12528323 0.14506184
-0.096087426 -0.2936401 0.13512984 0.28778043 -0.022711754 -0.415198 -0.027364518 -0.11095595
0.17802271 -0.5119181 -0.1905917 -0.3549897 0.0501546 0.38246912 0.17666219 0.25724688
0.3461978 0.24969839 -0.28255412 -0.3223106 0.076601684 -0.21689561 -0.27845556 -0.15462326
-0.03814774 0.06334157 0.20004998 0.23541291 -0.28303102 0.2201066 0.15848409 0.2064404
0.1533575 -0.01731185 -0.19979405 0.14134046 0.5171797 0.47207817 0.23107849 -0.20176812
0.25375882 0.15557742 -0.37972116 0.06734943 0.24487 0.4421759 0.1745042 -0.10230825
-0.007611746 -0.8781405 -0.18109845 -0.09823781 0.06591758 0.5393567 -0.12247936 0.23056614
-0.16013479 0.17290252 0.0382796 0.42051286 -0.36508954 -0.20261644 -0.4352945 -0.4849259
-0.00032835302 0.1701374 0.26544866 0.02657043 0.15344678 -0.02681277 -0.06038951 -0.26147965
0.17597385 0.25453183 0.23124853 -0.051921375 0.20168638 -0.15468134 -0.438274 0.11862257
0.25975123 -0.74647856 0.353999 -0.053965036 -0.03586572 -0.44929698 0.35358888 0.17363818
-0.06228836 -0.24410303 0.049230956 0.17279914 0.37416333 0.3364467 -0.19461708 -0.25510657
-0.12319462 -0.38852274 0.2938403 -0.18355615 -0.3295654 0.24341719 0.12628719 -0.8396667
0.22844149 0.07847936 -0.07433366 -0.19746381 0.2368458 -0.19639592 -0.6849038 0.15695393
00000000: 6ed4 afbc 0f76 273d bf00 a8bd fd2d 743e
00000010: d92b 1d3f 1ea9 dc3e ada6 9f3e b244 2ebb
00000020: d20e 87bd 22e8 65bf 7018 98bc e085 533e
00000030: a445 a2be 5267 9dbe b334 7ebe 79a5 0bbe
00000040: fa58 fc3b b5b0 8b3c b295 84be 4596 663c
00000050: b723 25be 5362 56be fb00 66be 851e 09be
00000060: 6c85 76bd 333e 13bf 3879 0f3d 9625 e3bd
00000070: deda 38be 3329 14bf 867f fa3d 49f1 5b3e
00000080: 39da 7b3d 6f4b b6be a131 193d 64fb 5abe
00000090: 33e1 5e3e 4c6c 7ebe 1842 75be 6425 993d
000000a0: 9afd a93c 1fcf 58bd bff6 133e 9d56 3bbe
000000b0: f47d 4f3e 8ca5 45be 4bf5 14be f08c 1cbe
000000c0: 8d1d 7ebe fbcc bbbe 40f2 cf3c 95d2 113e
000000d0: 69e2 513e 7c3b 993e f796 0fbe 7931 923e
000000e0: 0e67 553d 13c8 493e 5ac0 e43d 1f90 7dbe
000000f0: a65e 713e fa47 22be 3ea5 953d 1578 49be
00000100: 14ef 3abb 6d09 22bd 075f 97bd 4cb6 6ebe
00000110: 46c4 c63c bc54 b53e 41df afbc 91e6 c83e
00000120: 869d 9bbd 7b75 1cbf 0b1d a9be 36fb 25bc
00000130: cc0b 993d ef07 0b3f 1fae 35bd 92a1 423e
00000140: 9ec4 803c 3a40 fdbe b379 a5bd 39ba 903d
00000150: ebbc 053e edfa 003f 2102 16bd 5919 1f3e
00000160: b71d 253e 1a29 223e 6647 5b3e e849 1fbd
00000170: 83e2 053f 2da6 e23e dcf1 0e3e 1f14 c13d
00000180: 8dd0 0f3e be27 693e cc44 543e ed9e 953d
00000190: 8a79 e53e 553d 193e b6ab b1be b1f7 bcbe
000001a0: 0054 b8be f5cb f4bd 64b0 513e 072c 483e
000001b0: c936 18bf fbd8 ac3e fdc6 ca3e 6397 51bc
000001c0: 6b29 88be 966b 6d3e 7489 9abd d184 69bc
000001d0: f7b4 11bf 4865 f8be 9674 5d3b 5845 343e
000001e0: c3d9 813e b7bf 08bf eff1 233e 97b7 02be
000001f0: 74f0 c1bd 0df5 d3be 86fc 3e3b 3730 2f3e
00000200: 7558 16be 8c43 e5bd f55f 80be 4167 28bd
00000210: 4d5e 793e 950a 8f3e 1b2f ef3d 4ab2 853e
00000220: d7b1 403e 2b59 92be 3037 283e 4661 ae3d
00000230: 13bd 4e3e 566a d33e 3f4a 003e 178b 143e
00000240: 7cc9 c4bd ff57 96be 7a5f 0a3e f557 933e
00000250: 000e babc d594 d4be 8e2b e0bc e03c e3bd
00000260: 964b 363e 110d 03bf 782a 43be 36c1 b5be
00000270: e96e 4d3d fed2 c33e efe6 343e ddb5 833e
00000280: d740 b13e efb0 7f3e efaa 90be e505 a5be
00000290: 58e1 9c3d e219 5ebe ba91 8ebe 8f55 1ebe
000002a0: ce40 1cbd 3ab9 813d e7d9 4c3e 1510 713e
000002b0: 71e9 90be a063 613e a749 223e 1d65 533e
000002c0: c009 1d3e 95d1 8dbc d096 4cbe 8ebb 103e
000002d0: e465 043f 3bb4 f13e d79f 6c3e 4d9c 4ebe
000002e0: adec 813e b04f 1f3e d06a c2be 7fee 893d
000002f0: 34bf 7a3e e164 e23e 3bb1 323e fd86 d1bd
00000300: f46b f9bb d1cd 60bf df71 39be e830 c9bd
00000310: ccff 863d 4813 0a3f 75d6 fabd 8819 6c3e
00000320: 60fa 23be 5c0d 313e 12cb 1c3d 764d d73e
00000330: 04ed babe af7a 4fbe ecde debe 3548 f8be
00000340: cc26 acb9 8038 2e3e e3e8 873e 3baa d93c
00000350: 2721 1d3e 74a6 dbbc fe5a 77bd a9e0 85be
00000360: 7d32 343e ff51 823e 6acc 6c3e 82ab 54bd
00000370: e086 4e3e c964 1ebe 7365 e0be 64f0 f23d
00000380: 1dfe 843e 3819 3fbf 5b3f b53e 710a 5dbd
00000390: efe7 12bd 410a e6be 9a09 b53e 35ce 313e
000003a0: 1422 7fbd 25f6 79be 66a6 493d 42f2 303e
000003b0: 5692 bf3e be42 ac3e b349 47be 549d 82be
000003c0: 764d fcbd 74ec c6be 3c72 963e 25f6 3bbe
000003d0: ccbc a8be 5b42 793e 6e51 013e 66f4 56bf
000003e0: 91ec 693e c9b9 a03d 3f3c 98bd f433 4abe
000003f0: b587 723e 031c 49be db55 2fbf 88b8 203e

critic.0.bias f4 [64]
-0.0019976827 -0.4701636 -0.34341714 -0.6089876 0.31939498 -0.019678023 -0.056275632 -0.3042224
-0.40937066 -0.46533093 -0.2760639 -0.101893984 -0.25782788 0.054227885 -0.37700585 -0.2785848
0.045579195 -0.25581965 -0.11465478 -0.49784684 -0.3005958 0.22598618 -0.051281966 -0.20086959
-0.38662678 0.15232675 -0.30377948 0.18702461 -0.33415124 -0.5747098 0.15442841 0.0414901
-0.12859182 -0.045586515 -0.19477475 0.20721513 -0.010842708 0.07373314 -0.08518577 -0.17063087
-0.22210647 0.08629226 -0.2690575 0.24141607 -0.1633219 -0.23466802 0.27154237 -0.1619472
0.25868487 -0.6707664 -0.0141165 -0.10678407 -0.053479493 -0.531001 -0.471144 -0.2949298
-0.015653094 -0.008338464 -0.6571272 -0.59081477 -0.12980214 -0.5021296 0.06256851 0.050644457
00000000: 8eeb 02bb 49b9 f0be 5fd4 afbe 9de6 1bbf
00000010: bd87 a33e ce33 a1bc 4781 66bd 0ac3 9bbe
00000020: 0899 d1be db3f eebe 3f58 8dbe cbad d0bd
00000030: 0402 84be 0f1e 5e3d e906 c1be aba2 8ebe
00000040: 40b1 3a3d cbfa 82be 20d0 eabd c8e5 febe
00000050: b1e7 99be ec68 673e 0a0d 52bd c2b0 4dbe
00000060: f2f3 c5be 8bfb 1b3e fc88 9bbe 6183 3f3e
00000070: df15 abbe 2e20 13bf 7b22 1e3e 86f1 293d
00000080: 93ad 03be edb8 3abd 0873 47be 3430 543e
00000090: 9da5 31bc 6701 973d e175 aebd dcb9 2ebe
000000a0: e16f 63be ffb9 b03d e8c1 89be c635 773e
000000b0: db3d 27be d04c 70be 9a07 8b3e 7dd5 25be
000000c0: 5872 843e 59b7 2bbf e448 67bc 9bb1 dabd
000000d0: 500d 5bbd aeef 07bf c939 f1be 0a01 97be
000000e0: eb3a 80bc 0e9e 08bc 7d39 28bf a33f 17bf
000000f0: daea 04be 918b 00bf eb23 803d 9070 4f3d

critic.2.weight f4 [1, 64]
-0.15008684 -0.5433176 -0.10892964 -0.3884738 0.1542377 0.082428455 -0.07313401 0.030217852
-0.2468271 -0.3341793 -0.31759492 -0.15005533 -0.09347466 0.15218487 -0.25991046 -0.18673897
-0.0866337 -0.1962475 -0.14054959 -0.25134173 0.11623668 0.049811333 -0.25528264 -0.21146892
-0.3860955 -0.16879202 -0.0011146214 0.051604412 -0.16803788 -0.36537135 0.19032937 0.08116764
-0.32705188 -0.10040666 0.09052291 -0.11284836 0.076095216 0.22589737 0.06122847 -0.16179526
-0.19888067 -0.122571625 -0.08914236 0.068618365 -0.12318337 0.022388076 0.1866774 0.027137969
0.19370978 -0.30558202 -0.07730979 0.03785677 -0.00791392 -0.4208852 -0.33757013 0.018771192
0.03809138 0.1706384 -0.4695822 -0.23079535 -0.08657483 -0.50051 -0.060207654 -0.114411525
00000000: 5db0 19be dd16 0bbf 8116 dfbd 0ae6 c6be
00000010: 7df0 1d3e 40d0 a83d 49c7 95bd 6e8b f73c
00000020: 3ec0 7cbe 8d19 abbe cd9b a2be 1ba8 19be
00000030: a46f bfbd 5ad6 1b3e fc12 85be 8038 3fbe
00000040: 026d b1bd 1bf5 48be 3bec 0fbe ddaf 80be
00000050: 7f0d ee3d f806 4c3d 68b4 82be 4f8b 58be
00000060: 4fae c5be d1d7 2cbe 7d18 92ba 265f 533d
00000070: 1f12 2cbe f411 bbbe b4e5 423e 383b a63d
00000080: 5873 a7be 02a2 cdbd 1364 b93d 0a1d e7bd
00000090: cfd7 9b3d a451 673e b4ca 7a3d a8ad 25be
000000a0: 60a7 4bbe d506 fbbd 4590 b6bd c987 8c3d
000000b0: 9047 fcbd 3367 b73c 5c28 3f3e 7250 de3c
000000c0: db5b 463e 3f75 9cbe 9854 9ebd b30f 1b3d
000000d0: 63a9 01bc 447e d7be fed5 acbe 0bc6 993c
000000e0: b505 1c3d d5bb 2e3e 146d f0be 9e55 6cbe
000000f0: 254e b1bd 6c21 00bf 4d9c 76bd 9750 eabd
