a2c/model/a2c_lunar_lander_ep2000.pth (torch, 23281 bytes, 7 tensors)

fc1.weight f4 [64, 8]
00000000: 1010 95bd 7405 d03d 1f0a d8bd 55fd fdbe
00000010: cb2a 88bf ef53 aa3c 8078 7c3e 4b3a b1bd
00000020: a1b7 883e ff82 7dbe 5c06 943e 2f6b 32bd
00000030: 8c9a 6f3e 05e0 f13e 0432 96be 3c8f ea3d
00000040: a3ac efbd 8b82 6a3e 21e9 edbb 4c71 97be
00000050: eea8 32bf 8e84 083c b4dc 9b3e 9601 a63e
00000060: 21cb e7bd a929 f73e 1fb7 593d e0e8 953f
00000070: ba25 1b3d cd67 453d fb09 2d3e ff9b 89be
00000080: 4eea 21be f56d 8d3e 4694 4cbf f443 3bbe
00000090: 3c46 683e de2e 16be 5f63 36be 9207 82be
000000a0: f454 acbc 9f83 4d3e 081b 32bf 5de0 f4bd
000000b0: 5e8b a33e d342 8cbe 75ce 873e 85ed 143e
000000c0: eeef 2f3e 5e61 9bbe 1d69 10bf 8723 083f
000000d0: c808 7fbe 256a 3dbf 5960 5e3d a68a b33e
000000e0: 8084 9dbd ce12 7c3d 187c 42be f685 3c3f
000000f0: 2255 d33e 9b03 743c f143 8c3d 64ea 043e
00000100: 2388 833e 462c 73bd f7c8 5c3f b0f5 bd3e
00000110: a7d3 56bc 62a1 41be 75a0 a83e 2e68 803e
00000120: 29e6 d73d f54f e43d 2b84 ffbd 5255 d1be
00000130: 3c05 76bd 2dcc e5bd 1a8e 483e e3eb 7ebe
00000140: c4c8 373e e651 b73d 4975 fe3e bffc ba3e
00000150: 1621 84be e32a 5cbe 569f 11be 095e abbc
00000160: 73ec 9f3e 872f 233e 4c5c 483f 5429 52be
00000170: f0b1 133f bfd3 293e 8c98 43be a048 91be
00000180: c8f9 1d3e da43 07be 6070 d23e 809b 44bc
00000190: a809 a83e e3c1 383f beb5 e5bd bfe8 d1bc
000001a0: d5d1 193e bcf8 df3e cbd2 043f 47b1 1abf
000001b0: cb1c 70be 30c1 dfbd 9619 803d c340 65be
000001c0: f999 c73d 265a 463c cc4d 033e a1f4 19bf
000001d0: 07fa bfbe 836e 313d 7c9e 82be 97b0 bebe
000001e0: a84d a9be 3618 643e ac9f d7be 9626 243e
000001f0: c31f 7bbe f942 e0bc e93c 273e a103 ef3e
00000200: a965 d7be 4ae6 abbd 33e0 0d3f a8d3 563d
00000210: ea63 4b3e f2da 233f 6e8c 993e fc48 a0bd
00000220: ebcd 00be 6b37 a03d 63da fabe b03f e7be
00000230: 0b8e f03e f167 aebe 8177 d2be 16eb 3d3e
00000240: 2642 a2be 0844 ab3d 3eb8 1dbf 5387 7ebe
00000250: 17fb 9d3e b902 213d 8271 8d3d 8507 7b3d
00000260: be88 2b3e a210 4fbe b330 dcbe 8f71 babd
00000270: 9f47 a8bd a7e9 44be ba5f c83e 7e28 983e
00000280: 3c52 20be 9186 27bc c692 2cbe fbc9 2b3f
00000290: 26f0 033f 4694 64be 547e 52be b6c8 1a3e
000002a0: 9e0c 483d c673 803e e868 fc3e a6c9 a23d
000002b0: 1442 bbbe 1dec 013c 3838 323e 49a6 5abe
000002c0: 2c5b c33d 544b 45be dcec 323f 889c 98be
000002d0: bf52 0cbf 8fc8 2b3d e710 203b 945a 8b3e
000002e0: aa5d 86be 8e2f a93e f1dd 2d3f 89d6 c23e
000002f0: cde8 0cbf a367 4d3e d10b a93e 1800 873e
00000300: e46f 133d 620a d53d b8a1 acbe 3c7f b6be
00000310: 31e3 e4bd de35 2fbe 527e 3b3e 1b09 2abd
00000320: 47d3 613d 2e66 b33e c3aa 8e3e 2c52 bf3e
00000330: 424c c6bd 1c25 dc3b 92b1 cc3e ff28 a3bd
00000340: 14dc cb3e a815 fe3c 5792 4c3e e50a bbbe
00000350: ef2c e63e 0d04 6b3e 5ab1 86be bcce 4d3e
00000360: 10d1 9abd 1f6f 23be 213f af3e c495 72be
00000370: e177 1d3e 8f74 9a3e 4b3a 9cbe e02f bebe
00000380: 99e5 98be a2b5 323e 0aaa 41be e66c 1cbe
00000390: 46b8 983e 4c8c 66be 9c98 943e b126 353e
000003a0: 67d9 b03e 529f a0bc 3bac 34bf 6e78 10bd
000003b0: 0dad de3e 6a39 c33d e454 253b a0ac b73e
000003c0: fa43 85bc 7ccf b5be f9fe f33e 3963 523e
000003d0: 2057 233b be57 253f 4798 343e 63d8 033e
000003e0: f812 553e a9f7 a0bd c35f 5a3f eb84 7b3e
000003f0: a702 593e 83a4 6c3f 4148 6a3e d80e 193e
-0.07278454 0.1015729 -0.105488054 -0.4960734 -1.0638059 0.020791976 0.24655342 -0.086536966
0.26702598 -0.24757002 0.28911102 -0.04355925 0.23398799 0.47241226 -0.29335034 0.11453101
-0.1170285 0.2290136 -0.007260457 -0.29578626 -0.69789016 0.008332385 0.3044182 0.32423085
-0.11318041 0.48273972 0.053153154 1.1711693 0.037877776 0.048194695 0.16898338 -0.26876828
-0.15812036 0.27622953 -0.7991375 -0.18287641 0.22683042 -0.14666316 -0.17811345 -0.253964
-0.021036603 0.2006974 -0.69572496 -0.119568564 0.31942266 -0.27394733 0.26524702 0.14543732
0.1718137 -0.30347723 -0.5641039 0.5317921 -0.24905694 -0.7399009 0.054291103 0.35066718
-0.07691288 0.06154137 -0.1899265 0.7364191 0.4127589 0.014893438 0.06848896 0.12980038
0.25689802 -0.059368394 0.8624415 0.37101507 -0.013111985 -0.18909219 0.3293492 0.25079483
0.105419464 0.11148063 -0.12476381 -0.40885407 -0.060063586 -0.11220584 0.19585457 -0.24894671
0.1794768 0.08951168 0.49698856 0.36520955 -0.25806493 -0.21500735 -0.14220938 -0.020918863
0.31235084 0.15936099 0.78265834 -0.20523578 0.57693386 0.16584681 -0.19101161 -0.2837572
0.15427315 -0.13209477 0.4110136 -0.011999965 0.32819867 0.7217085 -0.11216305 -0.025623677
0.15021451 0.43744457 0.51884145 -0.60426754 -0.23448484 -0.109255195 0.0625488 -0.22387986
0.09746165 0.012106454 0.12822646 -0.601389 -0.37495443 0.043318283 -0.2551154 -0.37244102
-0.3306706 0.2227486 -0.42114007 0.16030344 -0.24523835 -0.027375685 0.16331829 0.46682456
-0.42069748 -0.083935335 0.55420226 0.052447945 0.19862333 0.6400596 0.29989952 -0.07826421
-0.12578551 0.0782307 -0.4899474 -0.45165777 0.4698337 -0.34063676 -0.411068 0.1854671
-0.31691092 0.08362585 -0.61609256 -0.2485631 0.3085563 0.039309237 0.069064155 0.061286468
0.16751382 -0.20221189 -0.43005905 -0.09103691 -0.08216786 -0.19229756 0.39135534 0.29718393
-0.1565637 -0.010224954 -0.16852865 0.6710507 0.5153831 -0.22322187 -0.20556003 0.15115628
0.048840158 0.25088328 0.49298787 0.07948618 -0.3657385 0.007929829 0.17404258 -0.21352495
0.09538874 -0.19267017 0.6989267 -0.29806924 -0.5481376 0.041939314 0.0024424137 0.27217543
-0.26243335 0.33044094 0.6791678 0.38054302 -0.55042726 0.20059066 0.33016828 0.2636726
0.03599538 0.10402371 -0.33717132 -0.35643947 -0.11176146 -0.17110392 0.18309906 -0.04151259
0.05513313 0.35038894 0.27864656 0.3736738 -0.09682514 0.006718291 0.39979225 -0.07966804
0.39816344 0.031016186 0.19977699 -0.3653175 0.44956157 0.22950764 -0.26307184 0.20098394
-0.07559407 -0.15960358 0.3422785 -0.23689944 0.15377761 0.30167052 -0.30513224 -0.371459
-0.2986267 0.174521 -0.18912521 -0.15275916 0.2982809 -0.22514457 0.29022682 0.17690541
0.34540865 -0.01960722 -0.705753 -0.0352711 0.43491402 0.09532435 0.00252276 0.3587389
-0.016267765 -0.3550986 0.47655466 0.20545663 0.0024923757 0.6458701 0.17636214 0.12875514
0.20808017 -0.078597374 0.8530237 0.24562423 0.21192418 0.92438525 0.22879125 0.14947069

fc1.bias f4 [64]
00000000: 5aa4 2abe 0ea1 a83e c0dc 94be 2c78 67be
00000010: 75c0 8f3e b67b 3d3e d4a6 2e3f cafb a93e
00000020: 0c2a bf3e 87e2 b13e 422a ff3e bd38 26be
00000030: 7f06 823e 9dab 673e 078c cd3e 6a45 9f3e
00000040: 78b0 ecbd 92d6 e03e e13b a13e 522d f33c
00000050: e605 8f3e 4f18 62be d35b a4bd c650 a5bd
00000060: 78f0 b03e 1310 393f d176 f13b 28c8 af3e
00000070: addd a53e 1643 3fbe 6c5f d43e 9043 c73e
00000080: 36f1 b4bd b8d7 6a3d 5f26 5f3e 2e57 c03e
00000090: 2d53 8c3e 5c81 a03e 642c fc3e fb1c bc3e
000000a0: feb5 9d3e 8a3d 993e 3303 5c3e 9d57 363d
000000b0: 8f50 ff3d 0177 433e 6780 d53e 1e45 623e
000000c0: 6552 593e a2d1 933e 1a68 c03e 37e6 ce3e
000000d0: c216 86be 1d51 b73e d1fd 15be 0e71 f33d
000000e0: 6a59 d83d a253 7c3c 0d0a 75bd 00fd 1f3e
000000f0: 6d68 d63e eda6 b5be 2f77 013f 86a7 3e3e
-0.16664258 0.32935375 -0.2907467 -0.22604436 0.2807652 0.18504223 0.6822331 0.33199912
0.37336767 0.3474314 0.49836928 -0.16232581 0.2539558 0.22624059 0.40145895 0.31107646
-0.11557096 0.43913704 0.31490996 0.029684696 0.27934188 -0.22079585 -0.080253266 -0.08072047
0.34558463 0.7229015 0.0073689003 0.34332395 0.32395688 -0.18677935 0.4147905 0.38918734
-0.0883507 0.05733463 0.21791981 0.37566513 0.27407208 0.31348693 0.49252617 0.3674086
0.30802912 0.29929763 0.21485595 0.04451715 0.12466537 0.19088365 0.41699526 0.22096679
0.21222837 0.28870875 0.37579423 0.40410015 -0.26189238 0.35804072 -0.14647605 0.11886798
0.105639294 0.015400799 -0.05982404 0.15623856 0.41876546 -0.35478917 0.50572485 0.18618593

fc2.weight f4 [64, 64]
00000000: 32b6 2c3e c33a 83bd 233a 3b3e f798 f13e
00000010: 3ae1 47be cff5 81be f5ee cfbd 4d96 d83e
00000020: 58b8 3f3e ca8a 9fbd 9a62 413e ec4e f3be
00000030: 9a38 5bbe 66b1 453e a692 293d 2422 133d
00000040: 5e3e 603a b2b9 79be f35e 89be 09fd edbc
00000050: de25 ab3e 65b6 a73e e56b 503e 1bf5 d83e
00000060: f6e2 513d 2b67 c43d 47c6 c9be cec9 7b3d
00000070: 3a55 5cbe 93c3 e13d 820c 89bc a52f 46be
00000080: 428b bbbd 8a7c bcbe b1a7 8c3d 78b2 3b3c
00000090: d69a 43be 46fd ddbd 8d79 da3d 518c a83d
000000a0: ef87 d0bd f2ef 083e 302b 463e 3097 9fbc
000000b0: ded5 e03e 863d 85bc 822d 0a3e d02c 293d
000000c0: 9b5c 87bc 70bd 48bd 0382 eabc a900 293e
000000d0: 78bf dabd 7b78 02be 0392 f0bd 4053 f5bb
000000e0: f9db dd3d 5082 03be 851d 3f3d af47 bebd
000000f0: fa74 0b3e 665f 2fbd 378d 9a3c 2c5f 6bbe
00000100: cd47 803e 08db ea3d e50d ffbc 2e18 75be
00000110: 7d0a 233e 7d89 d1bc 6e3c 5abd d1b3 9cbe
00000120: b190 30bd 7db4 0a3e 7f8a e8bd 99bd b23e
00000130: 3b0d d9bc 4b81 633e cc12 db3c 2f34 423d
00000140: a8dc 15be fb55 cb3d f748 383e fd09 9c3d
00000150: 7485 80be c74b 16be efb9 26be f393 8ebe
00000160: 83e1 423e 7a54 a23c 0ff6 853e 23c2 b93d
00000170: 5edd 8a3d 4bec 81be 9aa4 01be 352c 8dbd
00000180: 62c5 713e 761e 313e 48c0 e8bd c2ac 783c
00000190: 1607 873d 78b9 003e 2f4a 41bd 8edc 8f3b
000001a0: 7a2f e23c a14c 2a3e 4cbd d0be 1b96 4fbe
000001b0: 055d 0fbe 6f76 2e3d d3c0 44bd 70fe 15bc
000001c0: 5006 693e 1b54 32be ee07 853e efa9 693e
000001d0: 6381 3c3d d423 183e ea0c c2bb f513 61bc
000001e0: 64dd a63d c1e0 623d 47c3 e0bd 5aa3 18be
000001f0: f1af 913d 021f a83d 3601 943c e9d8 23bd
00000200: fe05 cfbd bc0b 82b9 3556 adbd 71f6 2e3e
00000210: b383 683e bce2 923e 452c 0d3e 4381 203e
00000220: b722 17be 4fc3 c63c d62e 6bbd 5573 18be
00000230: cbf2 213e f2d6 14be f246 08be b6a3 453d
00000240: 4d9a 173e 0515 633e 4085 6f3e 92b4 973d
00000250: 89d0 e73d 5d73 6abc 84fc 063d 63f7 1cbe
00000260: 7214 913d 4ea9 173b 0160 b23d f2f6 17bd
00000270: 5fd7 123d c4dc 2f3d cfb3 f73c 432e 9c3c
00000280: e122 6e3e dc9a 3c3e cdd6 9b3d f369 db3d
00000290: 16b0 6e3e 9238 1b3e 8fe7 343e d2dc 153d
000002a0: 3208 80bc b392 2bbe 4162 b23d 54e2 643e
000002b0: 7c02 9d3e 2748 963d 991f 10be db3f fd3d
000002c0: f1d5 2c3e e82c 453e a4ec 613e ed46 ef3d
000002d0: 2e57 e93c f7f9 b33d 2726 e53d 0bab 5e3d
000002e0: eae8 73bd 9f62 843d b448 5a3e e9ce 913d
000002f0: c15d a5bd e314 8b3d 5cf6 5e3e f8e0 043e
00000300: 6aa4 bcbd a995 f93d 2719 3fbe 7c53 7abe
00000310: 45f4 c03d b028 143d a467 fc3d 0b6c 84be
00000320: bb19 fabd 0771 583d 75d2 87bd 8ea3 9c3e
00000330: 27c0 653d c7c8 dd3d 9211 2e3e 6eb0 0a3e
00000340: 7a23 f23d aad4 843e 9d58 513e 4d7b e53d
00000350: e7f8 72bd 890a 79be cea0 58be e4da 9bbe
00000360: d997 273e bcd0 503e 7a39 293e ec9b 7d3d
00000370: b578 573d d258 7bbe 7420 8f3c ccfe 783d
00000380: 6a80 bc3e f232 b23d f89c ab3d a277 fbbb
00000390: 386d 713e bbc9 8b3e 7805 3a3d 3660 aebc
000003a0: 7128 4f3e 9258 c83c aee4 62be 2cc5 6dbd
000003b0: 6134 7cbe 4924 533d cf60 68bd ca8e 713c
000003c0: 98c0 163e 872e 3dbd 40fa 4f3e bc72 153e
000003d0: 0093 e93d 9683 3f3d 81f7 00be 0c15 c93c
000003e0: d1b5 743c c49f 773e 321c 75bd f036 cdbd
000003f0: e015 a23d b719 e93b 5ff0 cf3d f3e9 d73d
0.16866377 -0.06407692 0.18283896 0.47187015 -0.19519511 -0.2538285 -0.10152999 0.4230217
0.18722665 -0.07790144 0.1888527 -0.4752115 -0.2140831 0.19305953 0.04139962 0.03592123
0.00085542153 -0.24387243 -0.26830253 -0.02905132 0.33427328 0.32756343 0.20353658 0.423745
0.051241837 0.0958999 -0.39409086 0.061471753 -0.21516886 0.11023631 -0.016729597 -0.19354112
-0.09157421 -0.36813766 0.06867922 0.0114561245 -0.19102034 -0.10839324 0.10667715 0.08229888
-0.10182177 0.13372782 0.19352412 -0.019481272 0.43913168 -0.016264688 0.13493922 0.041302502
-0.01652365 -0.049008787 -0.028626448 0.16504158 -0.10681051 -0.12741272 -0.117465995 -0.007486731
0.10832972 -0.12842679 0.04665901 -0.09291016 0.13618842 -0.04281559 0.018866165 -0.22985524
0.2505478 0.11467558 -0.031134555 -0.23935005 0.1592197 -0.025578255 -0.053280286 -0.3060594
-0.04310674 0.13545413 -0.11354541 0.34910277 -0.026495567 0.2221729 0.026742361 0.047413047
-0.14634955 0.09928509 0.17996584 0.076190926 -0.25101817 -0.14677344 -0.16281866 -0.2784725
0.19031338 0.019815672 0.2616429 0.09070232 0.06780504 -0.2537559 -0.12660447 -0.068931974
0.23610452 0.17296776 -0.113648 0.015177907 0.065931484 0.1257075 -0.047189888 0.004390306
0.02761053 0.16630794 -0.40769422 -0.20272104 -0.14000328 0.042593416 -0.048035454 -0.009154901
0.22756314 -0.17414896 0.25982612 0.22818731 0.04602183 0.14857417 -0.0059219496 -0.013737668
0.08147696 0.055390123 -0.10974746 -0.14906064 0.07113636 0.08209039 0.018066984 -0.040001784
-0.10108565 -0.00024804275 -0.08463708 0.17086197 0.2270649 0.2868861 0.13786419 0.1567431
-0.14759336 0.024263052 -0.057417713 -0.14887746 0.15815274 -0.1453512 -0.13308313 0.04825183
0.14804955 0.22175987 0.23390675 0.07407488 0.11319072 -0.014309731 0.03295566 -0.15328746
0.07083978 0.0023141685 0.087097175 -0.03710074 0.035849925 0.042935148 0.030237107 0.019065028
0.23255493 0.18418449 0.076093294 0.107135676 0.23309359 0.15158299 0.17666458 0.036587544
-0.015628908 -0.1675518 0.08710147 0.22351962 0.30665958 0.07337981 -0.14074554 0.12365695
0.16878487 0.19255412 0.22062927 0.1168345 0.028483953 0.087879114 0.111889176 0.054362338
-0.059548296 0.06464123 0.21316797 0.07119543 -0.08074523 0.06791093 0.21773666 0.12976444
-0.09211047 0.121867485 -0.18661939 -0.2444591 0.09421591 0.036171615 0.123244554 -0.2586368
-0.12211939 0.052842166 -0.06631938 0.30593532 0.056091454 0.10829311 0.1699889 0.13543865
0.11823173 0.259435 0.2044396 0.112051584 -0.059319403 -0.24320425 -0.21155092 -0.30440438
0.16366519 0.20392126 0.16525832 0.061916277 0.05260535 -0.24545601 0.01747153 0.06078987
0.36816722 0.08701123 0.08379549 -0.0076741735 0.2357682 0.27302346 0.04541537 -0.021286111
0.20230271 0.024456296 -0.22157547 -0.058049366 -0.24629356 0.051548276 -0.05673295 0.014743516
0.14721906 -0.04618695 0.20310307 0.14594549 0.11404991 0.04675635 -0.12594415 0.024546169
0.0149359265 0.2418204 -0.059841342 -0.10020244 0.079143286 0.007113661 0.10153269 0.10542669

fc2.bias f4 [64]
00000000: 14f7 053e 655d 313e d4ef 073e 8503 b43c
00000010: 88db 3abe 7609 bb3c dac6 62bd dba9 513e
00000020: 12db e63d 0b30 5d3e 3342 2c3e 0341 6ebd
00000030: c72b 243e 037a 88bd 3234 c33d 489b 063e
00000040: 8986 db3d bb29 883c 9aea 2e3e 81e3 3ebd
00000050: 2284 db3d 3069 913d 61f2 843d 46f2 f03d
00000060: c321 1a3e 587e e43d 6aa8 123e 3267 b5bd
00000070: 40c5 68bc be6b 44bb 926a 113e 86e1 d5bd
00000080: 3ffa 3d3e 941b 9cbd c4b3 843d 0643 ae3d
00000090: 692d 5cbd cb03 3e3e 88f5 0fbe 4348 0ebd
000000a0: 5bbd 1c3e 412e 193e e01f adbd e46d 793e
000000b0: 1a6d 463e 6e12 373e 0c5b 653d bdb0 a3bd
000000c0: 3d11 a23e 361a 63bd 901f 623e a73f 9ebd
000000d0: c082 273d e510 343e cf2a 563e 29c5 0f3e
000000e0: deae 903d fff2 133e d92d 743e 7e11 e53d
000000f0: 1989 2f3d 55ae 953c f75c 03be ff4b fa3e
0.13082534 0.17320783 0.13275081 0.021974334 -0.18247807 0.02283166 -0.05536542 0.20474951
0.11272253 0.21600358 0.16822128 -0.05816747 0.16032325 -0.06663897 0.0953144 0.13145173
0.1071902 0.016621461 0.17081681 -0.046603683 0.10718562 0.07100141 0.064915426 0.1176496
0.15051942 0.11156911 0.14322057 -0.088575736 -0.014207184 -0.0029971446 0.1420081 -0.10443406
0.18552493 -0.076224476 0.064796 0.085088775 -0.053754244 0.18556134 -0.14058506 -0.034736883
0.15306608 0.1495905 -0.08453345 0.24358326 0.19377556 0.17878124 0.055995032 -0.079926945
0.31653777 -0.05544492 0.22082353 -0.077269845 0.040896177 0.1758457 0.20914768 0.14040054
0.07064603 0.14448164 0.23845614 0.11184977 0.042855356 0.018271605 -0.12828432 0.48886105

actor.weight f4 [4, 64]
00000000: a206 843d 4f64 6bbe 3a5b 75bd f76c 4abe
00000010: 927c 5abe f6e1 b2bc 3110 dbbd f662 6bbe
00000020: 09d1 34bc 83f5 d7bd 98d5 ce3d 14fa e3bd
00000030: a896 57be fbf7 15bc 5e6d c5bd 8f24 afbd
00000040: a42e cfbd fa07 babd cd00 833d e297 a4bd
00000050: de05 773d e0df 8e3d 81b3 ecbd f2e5 78bd
00000060: 133d 3abe 10e2 b63d 7e42 33bd f3a8 3ebe
00000070: 1503 f6bc 9370 44be 7319 5bbe 78a3 07bd
00000080: d739 31be 74d8 303c 6dd8 d5bd 2f02 8d3d
00000090: b98f 33bd d5bb 88bd 1b90 cf3c 410d a4bd
000000a0: 581a 12be 35ec 2d3d fde8 b9bd c161 97bd
000000b0: ffa3 24be 218a 94bd 4d9d 273b 6e04 b7bd
000000c0: 4903 a3bc 65b5 85bd 2ee9 14be 6954 523d
000000d0: a96d 8bbd 8044 f6bc 89fe f13b 366c febd
000000e0: fda3 c4bd 4b64 1cbd acd3 993d 12f3 12bd
000000f0: c32b ccbc 05e9 9eba 971f b0bd 3057 0a3e
00000100: 677e df3e 677d 55be 4bb0 87be e0ae 3bbe
00000110: 7ccd e1bc f150 1f3e 144f e83d 1d4e 573d
00000120: 7832 573e dfb8 603e 390f b33d 7e33 8abd
00000130: d805 3bbe d976 873c be5d 9bbd 8c07 803e
00000140: 2297 e43c a30d 26bd f593 bc3e 708e a4bd
00000150: 2067 a5bb 5b90 eb3d 7139 643d 6182 c0be
00000160: 4bea 5dbe 6de4 533c 637e 803e 4488 25be
00000170: 204a e0be 1446 1a3d ecf9 a9bc 4ea2 a2bd
00000180: 1b48 95bd f3bc 39be 9aab 85be 86f9 2a3e
00000190: a99b e23e 4114 3abe fa53 babd 6050 8abd
000001a0: 8834 fe3d 170f 063e 4397 5bbe d10c 8a3e
000001b0: a546 06be 15c7 17be be66 94be 347b c0bd
000001c0: 42af bd3d 4347 babe b9b2 abbd b052 e53d
000001d0: bfd8 f43d 4e0c ab3e a360 5d3e bc29 28be
000001e0: 04f5 6a3e 6c8b b83e 5f79 28be 3138 c83e
000001f0: 4db6 8cbd cdef 483d 7bac eebd 8efe 9c3d
00000200: f24b d8be 76ea 8d3e b07c fe3c cc25 a33e
00000210: d3a0 d1bd 6cf5 3ebe f83f b53d f7dd 463e
00000220: 0372 643e 7796 033c 17c8 86bd bee2 bf3d
00000230: 3940 4b3e 315e 293d 00d1 5ebe 82e1 83be
00000240: a138 683e 2402 db3d 379b 8abd 29c6 2e3d
00000250: 4a4f ecbe 9274 49bd ea26 7d3e 4fd5 14be
00000260: f744 573e 4610 ccbe 9547 97be 4074 09be
00000270: 435a 3f3e 917a 5e3e 59df f83d 16f2 f53d
00000280: db44 de3d ffa1 a5be 3247 983e 4b8f 4ebd
00000290: 9cfb 07bf c100 803e fc88 dabc 7169 67be
000002a0: b173 aabe fbcb bcbd ed55 57be a027 8ebd
000002b0: 07f2 383e 910d 24be 4ba3 1f3e 0169 aebe
000002c0: 65ed 07bd 0df1 9b3e 769c 703d 35b7 9d3d
000002d0: 2f09 95be 608a 97be e249 443e e1ae c23e
000002e0: bffb 5bbe b9d4 a5be 2957 3dbd 404f cdbe
000002f0: 92bd 7dbe ce4d ecbb e73c a4bc 0f6d 09bb
00000300: 6810 7fbd c7a5 67be b004 7c3e f02b f8bc
00000310: 60fb 88bd ae47 753e 1212 6c3d d949 a4be
00000320: 0724 f0be 226c a3be ec9a c53d 7ec8 2a3d
00000330: 6aea c23d de80 003d 4779 443e fe1e f33d
00000340: 8f9a 82be 462a dcbd 0b24 5dbe 34f2 3bbd
00000350: 9913 da3e 0976 833d 115f 68be b8e1 813e
00000360: bed1 73bc 9295 d73e 3663 71bc b4e0 613e
00000370: eace 8eba 132a 49be c246 66be 577c 633d
00000380: c09a 19be 6c86 623e db05 7cbd a114 793e
00000390: 70e1 bc3e 2965 ef3d eb7f c9bd 73f1 023e
000003a0: 9b7b e13e d04a 64be 5289 843e 614d 8ebe
000003b0: d6e1 30bd bdd9 633e 2afd 963d 18ce 913e
000003c0: 288b 5f3c 51db 053d f2dc 0f3e bfc5 873c
000003d0: a2ad c23d e68b fbbc 4e9d 8cbe c4d8 26bd
000003e0: acaa 3a3d 2cb4 df3d fe65 bb3d 8cff 8cbd
000003f0: a892 d63d e670 c1bd 6f12 ac3d 586d a73c
0.064465776 -0.22987483 -0.059901454 -0.1976813 -0.21336582 -0.021836262 -0.10696448 -0.2298697
-0.011036166 -0.105448745 0.100993335 -0.11131683 -0.21053565 -0.009153361 -0.09640001 -0.08551895
-0.10116318 -0.09083553 0.06396637 -0.08036782 0.06030833 0.069762945 -0.11557675 -0.060766168
-0.1818736 0.08929837 -0.043764584 -0.18619137 -0.030030767 -0.19183569 -0.21396427 -0.03311488
-0.1730722 0.010793794 -0.104416706 0.06885182 -0.043838236 -0.06676451 0.02533727 -0.080103405
-0.14267862 0.042461593 -0.09077642 -0.07391692 -0.16078185 -0.072529085 0.0025575936 -0.08936392
-0.019899027 -0.06528739 -0.14542076 0.05135003 -0.068080254 -0.03006196 0.0073850793 -0.12422983
-0.09601591 -0.038181584 0.07511076 -0.03587634 -0.024923211 -0.0012123889 -0.08599775 0.13509822
0.43651125 -0.20848618 -0.26501688 -0.18328428 -0.027563803 0.1555822 0.11343208 0.05256473
0.21015346 0.21945523 0.08743138 -0.067481026 -0.18263948 0.016536163 -0.07586239 0.25005758
0.027904097 -0.04054035 0.36831632 -0.0803498 -0.005047694 0.11502143 0.055718843 -0.3759947
-0.21671407 0.012932879 0.25096425 -0.16165262 -0.43806553 0.037664488 -0.020749055 -0.079411134
-0.07289144 -0.18138485 -0.26107484 0.16696748 0.44259384 -0.18171789 -0.090980485 -0.067536116
0.12412363 0.13091694 -0.2144442 0.26962903 -0.13112886 -0.14822038 -0.28984636 -0.09398499
0.092619434 -0.36382493 -0.08383698 0.11197412 0.119554035 0.33407825 0.21618895 -0.1642217
0.22945029 0.3604387 -0.1645255 0.3910537 -0.068707086 0.049056817 -0.11653992 0.0766574
-0.42245442 0.27717942 0.031065315 0.31864774 -0.10235753 -0.18648309 0.08850092 0.1942061
0.22309117 0.008031479 -0.06581133 0.093694195 0.19848718 0.041349594 -0.21759415 -0.25757986
0.22677852 0.10693768 -0.06767886 0.04266945 -0.46154243 -0.049183436 0.24721876 -0.14534496
0.21022402 -0.39856166 -0.295468 -0.13423252 0.18686776 0.21726443 0.12151975 0.12009065
0.10852977 -0.32350156 0.29741818 -0.050429624 -0.531183 0.25000575 -0.026676647 -0.22598816
-0.3329139 -0.09218594 -0.21028872 -0.069411516 0.18061076 -0.160208 0.15589635 -0.34064487
-0.03318538 0.30457345 0.058742963 0.077009596 -0.2910857 -0.2959776 0.19168809 0.38024047
-0.21482752 -0.32388857 -0.0462257 -0.40099525 -0.24779347 -0.0072114235 -0.020048572 -0.0020969545
-0.062271506 -0.22621833 0.24611163 -0.030294389 -0.06688571 0.23953125 0.05763442 -0.3208759
-0.46902487 -0.31918436 0.0964869 0.04169511 0.09517367 0.031372897 0.19186889 0.11871146
-0.25508544 -0.107502505 -0.2159578 -0.04588528 0.42593077 0.06418998 -0.22692515 0.25367522
-0.014881549 0.421063 -0.014733126 0.22058374 -0.0010895405 -0.19644956 -0.2248793 0.0555385
-0.15000439 0.2212159 -0.06152902 0.24324276 0.36890745 0.11689217 -0.098388515 0.12787418
0.44039616 -0.22294164 0.25886017 -0.2779341 -0.043184124 0.2225103 0.07372506 0.2847755
0.013644017 0.03267986 0.14049128 0.016573785 0.09505774 -0.030706357 -0.27463764 -0.040734068
0.04557292 0.10923037 0.09150313 -0.06884679 0.10477191 -0.09445362 0.084019534 0.020437881

actor.bias f4 [4]
00000000: 6b5b 253d 513c 043e c14f f63b 9822 5c3d
0.040370386 0.12913634 0.0075168316 0.05374393

critic.weight f4 [1, 64]
00000000: 3f0a 813f af32 e93e 33b2 53bf 8c18 27bf
00000010: d1c2 1640 979b 0dbf d465 773d 5214 b6bf
00000020: c511 1e3d ed36 9bbf 6f9b babf a92c e3bd
00000030: 4a8a 9bbf b1ad 4dbd 1bb5 95bf 872a 93bf
00000040: 685a 70bf c9a8 d0bd 0214 193f ad38 82bd
00000050: bfd2 f33d bf8d f9bd 73d2 adbf b0ca 9fbd
00000060: dccb 8dbf 3985 923d a07a 143e 5546 ee3e
00000070: 1ed0 553f c7ea de3e 9851 30be 7ee0 873d
00000080: 1375 b5bf 09d9 c73f 3eb6 22bf 4a2b 84bf
00000090: fb38 c93f 027a 5fbf 88da e2bd 7f6d 7cbf
000000a0: 3103 cd3f 2c83 88bf c65c 1f3f 44a3 89bf
000000b0: 07d2 88bf 9cec 85bf 7ad2 69bf c1cf aa3f
000000c0: 4687 b5bf 20f6 c63e 7dca 96bf ffbe 413d
000000d0: 1c98 ae3e b797 3eb9 eb22 97bf 2626 e0be
000000e0: ca5c e3be 4e5e 49bf 7819 d8bf 252c 183e
000000f0: 9f4f a5bf 114c d13d 34d9 9d3d 0c55 d1bf
1.0081252 0.4554648 -0.82693785 -0.6527183 2.3556406 -0.55315536 0.060399845 -1.4224951
0.038591165 -1.2126137 -1.4578685 -0.110925026 -1.2151577 -0.050214473 -1.1695894 -1.1497353
-0.9388795 -0.10188443 0.59796154 -0.06358466 0.11905431 -0.12185239 -1.3579849 -0.078023314
-1.1077838 0.071543165 0.14499903 0.46538034 0.83520687 0.43538496 -0.17218626 0.06634615
-1.4176353 1.5613109 -0.6355933 -1.0325711 1.5720514 -0.87295544 -0.11076838 -0.9860458
1.6016599 -1.066503 0.62250936 -1.075295 -1.0689095 -1.0462832 -0.91336787 1.3344651
-1.4181907 0.38859653 -1.1780545 0.04730129 0.34100425 -0.0001817633 -1.1807531 -0.43779105
-0.4440673 -0.7865952 -1.6882772 0.1486059 -1.2914923 0.10219587 0.07707444 -1.6354079
