a2c/model/a2c_lunar_lander_ep1000.pth (torch, 22543 bytes, 7 tensors)

fc1.weight f4 [64, 8]
00000000: a1d5 84bd 27a2 6d3d 2a95 1dbe 6ea1 86bc
00000010: fe74 dd3c b6e2 d4be a535 9c3e f034 90be
00000020: 90cd 223d 43c2 933e a27b 50be 2918 103e
00000030: 5e87 7a3e 8713 a53e 71bd 8dbd c3a1 cd3e
00000040: f072 4ebd 2724 2bbe 0a4f 9abe e6f9 b73e
00000050: b1e0 42be 55d8 c63d c8cd 2abd cba0 573e
00000060: 530f 28be 5e3f bdbd a1cc f43e ab3a 613e
00000070: 9fe3 febe 7edc dbbd 6339 1c3e 5065 a03e
00000080: e6a5 09be e6cb 0bbe b46c f23e 67a7 d23e
00000090: 5258 eabe 7251 da3d 134f e2bc 71d0 cdbd
000000a0: c4cb 26be 97fd 70be 1af4 72be a2b9 0bbe
000000b0: 06ba 42bd 893a a43b 9ce7 bbbe cb66 49be
000000c0: c4a7 943e 7d7e a43e 879b 60bd f8bf dcbe
000000d0: cbcd 9ebe 3430 8bbc 094e 9bbd 0084 45bd
000000e0: 4cdc 583e 2c69 9dbe 51e1 ec3a e3c5 79be
000000f0: 7371 943e d250 eebc b66c 9a3e 8272 67be
00000100: 0913 fcbd 9343 a73d af22 0b3f 72eb aebd
00000110: 32f1 81be fec3 0bbe d922 c73e 3b47 30be
00000120: adb1 dbbc e121 9d3e 5afb c03e e2ff f8be
00000130: 7008 a33e 74b6 103e cee6 6abe 35bd d43e
00000140: 0930 0a3e d988 25bd d393 e33e 2f34 743d
00000150: a3c1 443c c70b 05bd b70e 6b3e 260a c73e
00000160: 698a 4dbd 0489 96be 99c8 99bc c29e e13d
00000170: 16c4 ba3d 21f6 323e ae77 20be e652 e53b
00000180: e702 bdbc c5ed 263e af36 3d3e c758 04be
00000190: 8862 69be ee9d a5be b24f a93e 7c3d 9c3e
000001a0: 923a 663d e677 31be d0ab c23e a52a 4bbe
000001b0: 8088 e03e 4564 093f f16c 3fbe 5a7b ac3e
000001c0: c27d 89be f690 2dbc 92fb e03e 744a 40be
000001d0: eba7 8fbd 7f31 a7bd e347 85bc b8f4 883e
000001e0: 06c4 42bc 7b54 0d3e 1f11 563e ae83 98be
000001f0: 804f f73c c666 1d3d ae69 b63e 6fb0 f53e
00000200: bf65 4ebd d04d 763d a087 f2bd 1190 d7bc
00000210: 5d19 9ebd d580 a1be 17d7 ff3e d1d4 c93e
00000220: 46f7 653e ff4e 233c 3634 b4be a40e 543e
00000230: b3a2 113e 4d29 9e3e 9f88 7abe 48fc 1e3e
00000240: a253 5b3e 37e4 bfbd 2707 78be 3ffc d1be
00000250: cc98 f53e d235 e63c 3b51 78be d6cb 2dbe
00000260: 567b 03be daf2 09be 5fdb f23c 149b 053e
00000270: f3f4 943e cf74 8a3e c880 0abe 233c 4e3e
00000280: 3b94 d43d 654f 63bd 87db 683e 9fcc 973e
00000290: af51 123e 92cf e4bd 6f6a b63e ae6b c33e
000002a0: ff93 7cbe 94f4 9c3c 75e2 70be 0716 34be
000002b0: 481a 023f c7b7 77be ade9 fe3d 3578 f23d
000002c0: 93d5 1abe 0506 1b3d b100 80be 2662 3a3d
000002d0: f076 b7bd 7ff2 92be e6ce 053f a343 05bd
000002e0: 7829 a2be b630 f23d 3657 16bf 2035 81bd
000002f0: 7723 dd3e 997d 2dbe eef9 153d faab e03d
00000300: c593 453d ee3f 4c3e 909d 143f f00a c7be
00000310: e090 afbc cb81 d63e 7110 aa3e bc15 8fbe
00000320: df6b 6abe 420c 9abd b738 4dbe f91d 09be
00000330: eae4 d43e 20a8 6cbd 1959 96be 5286 71bd
00000340: 6c6a 893e 1f9f 28be 0ac3 31be c33f 1abe
00000350: 2450 42be c1fb bfbe b05b f43e 77c1 813d
00000360: 3491 89be dbba bc3e 4ac3 c5be 30a0 fdbe
00000370: 34ee 303e 736c 05be 78c0 91be 8873 5a3e
00000380: 020a 4dbe dc59 e7bb 5449 e13e efeb 53be
00000390: c8ab 783e cd15 b93e 029e b93e eb4e 443e
000003a0: 5836 a0be ad05 bfbd 106d 903e 9db8 4ebe
000003b0: 8c2a 4c3d 7677 873e cbd6 333d 5d85 b63e
000003c0: fe66 803e a0fd 2dbb 2ae0 91be 3d7b 043d
000003d0: 6ae9 693e 4056 843e 5c85 b03c 4cfd b7bd
000003e0: ced9 613e ce14 313e 45c1 17bf ad74 463e
000003f0: c675 8f3e db40 ce3d cda4 723d fd3d 8ebe
-0.06486059 0.05801597 -0.15388933 -0.016434398 0.027033325 -0.41579217 0.30509678 -0.28165388
0.03974682 0.28859147 -0.20359662 0.14071716 0.24465701 0.3224146 -0.06920899 0.40162477
-0.05040258 -0.1671301 -0.30138427 0.35932845 -0.19031025 0.09709231 -0.041700155 0.21057431
-0.16412096 -0.09240602 0.4781237 0.21995036 -0.49783036 -0.10735415 0.15256266 0.31327295
-0.13442191 -0.13652 0.4734856 0.41143343 -0.45770508 0.10660066 -0.027625596 -0.10049523
-0.16288668 -0.23534237 -0.2372593 -0.13645032 -0.047540687 0.0050118607 -0.3670014 -0.19668119
0.29034245 0.32127753 -0.054835822 -0.4311521 -0.31016383 -0.016990758 -0.075832434 -0.048221588
0.21177787 -0.30744302 0.0018072521 -0.24391894 0.28992805 -0.029091273 0.30161065 -0.22602275
-0.12308318 0.08167186 0.543498 -0.085410014 -0.2537933 -0.13648984 0.38893774 -0.17214672
-0.02681812 0.3068991 0.37691766 -0.48632723 0.31842375 0.141321 -0.22939608 0.41550604
0.13494886 -0.04041371 0.44448718 0.05962008 0.012009057 -0.032481935 0.22954832 0.3887493
-0.050180826 -0.2940141 -0.01877241 0.11016609 0.09119432 0.17476703 -0.15670654 0.0069984077
-0.023072673 0.1630164 0.18477891 -0.12924491 -0.22791493 -0.32347053 0.33068615 0.3051566
0.0562082 -0.17330894 0.38021708 -0.19840486 0.4385414 0.53668624 -0.18693902 0.3368786
-0.26853758 -0.010593643 0.43941933 -0.18778402 -0.0701445 -0.081637375 -0.01626963 0.26749206
-0.011887556 0.13801758 0.20904969 -0.29787964 0.030189276 0.03842809 0.35627502 0.4798617
-0.05039 0.0601328 -0.11842275 -0.026313813 -0.077196814 -0.31543604 0.49968788 0.3942018
0.22457609 0.009967565 -0.35196084 0.2070871 0.14222221 0.30890885 -0.2446618 0.15525925
0.21418622 -0.093697004 -0.24221478 -0.4101276 0.47968137 0.028101835 -0.24249737 -0.16972288
-0.12840018 -0.13471547 0.02964562 0.13047439 0.2909313 0.27042243 -0.13525689 0.20140128
0.10379835 -0.05549564 0.22739993 0.296483 0.14288972 -0.111724034 0.35628077 0.3816809
-0.24665831 0.019159593 -0.23523887 -0.17586528 0.5082135 -0.24191199 0.12446914 0.11839334
-0.15120535 0.037847538 -0.25000528 0.045503758 -0.089582324 -0.28700635 0.52268827 -0.032535207
-0.31672263 0.11825697 -0.58726823 -0.06308961 0.4319112 -0.16942443 0.036615305 0.10970302
0.048236627 0.19946262 0.5805292 -0.38875532 -0.021431386 0.418959 0.3321567 -0.2794627
-0.22892712 -0.07521869 -0.20041166 -0.1339034 0.41580898 -0.057777524 -0.2936485 -0.05896599
0.26839006 -0.1646695 -0.17359558 -0.15063386 -0.18975884 -0.3749676 0.47726202 0.063357286
-0.26868594 0.3686131 -0.38625556 -0.49536276 0.17278367 -0.13029651 -0.28467155 0.21333134
-0.20023349 -0.0070602726 0.44001257 -0.2069547 0.2428428 0.36149445 0.36253363 0.1917073
-0.3129146 -0.093272544 0.28208208 -0.20187612 0.049845263 0.2645833 0.043906014 0.35648623
0.25078577 -0.0026548877 -0.28491336 0.03234409 0.22842947 0.25847054 0.021547966 -0.089838594
0.22055742 0.17293093 -0.5927928 0.19380446 0.28019542 0.10070964 0.059239198 -0.27781668

fc1.bias f4 [64]
00000000: 142d 35be 3346 b7bd 5804 29bd 1d91 dcbc
00000010: 9c59 853e 06ec 453e d809 df3e edeb 51bc
00000020: 2396 49be 5824 e73e f55b d93e 0767 8dbd
00000030: ebc4 0e3e d64b 963e 725e 7b3e 7163 653e
00000040: 1639 86bd 8d1e 6e3e b452 8dbe 221e 68be
00000050: bae4 56bd a34d 7fbc 8f61 69bd 1789 893e
00000060: 6a2f ad3c 5f42 ebbd 29b2 92bc 16fc 7b3d
00000070: 2b20 8b3c 57a6 e8bd e764 adbe 1294 a1bd
00000080: 44b1 6bbd 510e 5f3e 1086 70bd 8654 a4bd
00000090: 0ab6 963e d2cf 79bd 4ed1 4a3e 833b bb3e
000000a0: 7d59 533e 842f 48bd 1641 9d3e 7c8d a3be
000000b0: 7667 d83c f5b9 cdbd 5dfe a73b 0371 9b3e
000000c0: 5e53 87bd 07b5 923e b81a c03e 1cf2 ed3c
000000d0: e589 f43c 6c87 373e e8a5 d23c 2b9d 60bd
000000e0: 4089 44be c796 6e3e 7fab 67be 6c7e a03e
000000f0: 40c1 5c3e 7d7b 08be a315 193e 6c2b 44be
-0.17692977 -0.08948936 -0.04126391 -0.026924664 0.2604493 0.19328317 0.43562198 -0.012812597
-0.19686179 0.45144916 0.4245297 -0.069044165 0.13942306 0.29354733 0.24547747 0.22401215
-0.06553857 0.23253842 -0.2760216 -0.22667745 -0.052464224 -0.015582475 -0.056977805 0.26862404
0.021140773 -0.11487269 -0.017907219 0.061519705 0.016983112 -0.11359852 -0.33866045 -0.0788957
-0.0575421 0.21782805 -0.058721602 -0.08023934 0.2943576 -0.06098921 0.19806406 0.3656884
0.20639606 -0.04887344 0.3071372 -0.31943882 0.026416522 -0.10045234 0.005126758 0.3035966
-0.06607698 0.28653738 0.37520385 0.02904611 0.02985091 0.17922753 0.025713876 -0.054837387
-0.19192982 0.23299704 -0.22624014 0.31346452 0.21558094 -0.13328357 0.1494966 -0.19157189

fc2.weight f4 [64, 64]
00000000: 17dd f2bd 2931 eaba b683 a0bb 33d8 30bc
00000010: 8add ab3d 7010 edbc 67ac 8abc 9de7 c83a
00000020: 55f4 fe3b 7b57 04bd 3087 b03d be37 a5bd
00000030: 92db 96bd 0f33 4a3d f688 b93d 37a8 07be
00000040: 8eef 203d be97 b1bd 2cab e23d 20f4 8c3d
00000050: 1d1e 98bc 9d76 92ba 9f70 fa3c 48de febd
00000060: 841c 79bd 30ec 64bd c392 823d 6a37 8dbd
00000070: 31a8 babd 2165 7ebd 0136 9e3d 5513 aa3d
00000080: 6c8e d9bd 2f2f 6fbd 2063 f5bd ac53 e7bd
00000090: 1092 28bd 1a3e 4b3d 6eb5 06be c786 04be
000000a0: cd49 4b3c 271d cabd 7b6f 04be 7621 2fbd
000000b0: d9b9 a1bd dcc6 23bc 254a 653d dc8e f93c
000000c0: 1f82 11be 5fa5 a03d bc69 ce3b 804b 973d
000000d0: fa30 98bd e818 17be 81ab debd 7879 44bc
000000e0: daa0 cabd 6548 84bd ba3d 933d 6815 f5bb
000000f0: 3177 c4bc 4882 24ba 9812 963d 78b1 94bc
00000100: a091 81bc cb58 b83d 3c59 933d 86fc d63d
00000110: 2df1 ba3e c0af 8d3d 9711 ed3d 532a 00bd
00000120: 73fe a93d 7299 433d 3642 983e 6145 d83c
00000130: f457 b83d 40fd a2bb b83a fa3d 400c 633e
00000140: 0906 b23d 8e79 4cbd 727c eebc 5a9f b8bc
00000150: 3d78 073c 5c11 fdbd 290f bb3c 615e b0bd
00000160: 7691 823e e568 5f3d 2244 4fbd 603a b1bd
00000170: 5fe5 923a e818 63bc 755e 813d b926 eebe
00000180: bf2e 2b3e 060c f6bd 1ec3 d4bc ee1d fa3d
00000190: 0faa 5d3e a535 33bd 6d77 213d 5f1f ea3c
000001a0: bd84 e73d d013 513e 6ddd 863d ed34 063e
000001b0: b66d 523e 97c6 7f3d 85a7 483e a915 333e
000001c0: 9d08 a73e 8ef9 473e b0d3 723e 86a9 74bd
000001d0: 40e6 8cbd e7ad edbd 1373 453e 4d3f 76bd
000001e0: 31e8 a73e ce90 043e e63f 483d 7eac 82bc
000001f0: bc01 76bd b4e2 863b 6e32 28bd 6b22 e3bd
00000200: a7f0 ea3d 5fdf aabd 1c1f 913d 0629 b43d
00000210: c668 353d 3328 6c3d e791 4fbc a4ee 093d
00000220: 2318 ea3d 2b0e a0bd 384d 9a39 a6ed 9dbd
00000230: 2498 8bbd 27e1 ad3d 6456 61bd 9595 f63d
00000240: c411 653e fc75 ca3d 1bc1 a0bc 6545 073e
00000250: b849 853d e0fd f33d a2cd 803d b373 e83d
00000260: fcc6 cd3d e2dd 8d3d d1c1 73bc 5af6 413d
00000270: c013 ba3d d84c 38bc dcfa 9a3d fd9a ee3d
00000280: 8166 893b 57de e3bd e5c9 b8bd b23d a03d
00000290: 95a8 56bd 591c 55bc ede3 073c 2bff 0f3d
000002a0: a349 98bd 60b4 98bc 65da 51bd 1af5 843d
000002b0: b120 03bd 7fb1 7c3d 1103 50bd 52b8 7bbd
000002c0: 21fe 2f3d 9a34 1dbe 1d4b da3d ee24 3d3e
000002d0: 62ef 2c3d 4d5b c63d 5cd1 a0bd 4e5e 16bc
000002e0: 6cdd d23d 1a24 023e 4eb7 a53c 98a7 11be
000002f0: 99d7 74bc 7e4c f63d 9c3d 74bd 1d26 99bc
00000300: e0e8 fabc eba1 b13d 0fb5 3e3b 4d90 d8bd
00000310: 9320 09be 22b2 a53c c414 39bd b1c7 2abd
00000320: 7f05 3f3d 5347 263e 94d1 8ebd 7165 cebc
00000330: ad6a 6a3c 868c 39bc 83cf 7a3d 2c86 813d
00000340: e1c9 7d3d cf5f c23d 7d0e c73d cb6e a23d
00000350: 326e eebc 8e84 e83d a4af e73d 60b7 8fbc
00000360: 51c6 9c3d 7ee9 9bbc bf8b a03d fa6f 2a3e
00000370: 5084 35bc 9f60 af3d 22ff d13d dad9 693d
00000380: 0edf 293a 4ca0 143e b786 a73c b7d2 8d3d
00000390: 4f56 1dbd 3972 07bd 6128 823d b6e0 cabc
000003a0: e337 a8bd 075a 00be 7b1d 5a3e bf54 653a
000003b0: 4115 323d e271 ad3d 32d7 7c3c 54e1 3dbc
000003c0: 0ccd cebb 011e 1a3e e002 54bd 76b3 2f3e
000003d0: dcdd 1e3d e62e bbbc c4c2 81be 0816 023e
000003e0: 4d0b 7dbd 2d52 893c b8bd c9bc 0e89 923d
000003f0: f3e5 013e 9ee0 443d 835b 453e d64b dbbd
-0.11858576 -0.0017867434 -0.0048985137 -0.010793733 0.083918646 -0.028938502 -0.016927911 0.0015327815
0.0077805915 -0.03230999 0.08619535 -0.080672726 -0.073660985 0.0493651 0.09059326 -0.13247763
0.039290957 -0.08671521 0.11067805 0.06882501 -0.018569047 -0.0011174266 0.03057128 -0.124447405
-0.06081821 -0.05588931 0.06375649 -0.06895335 -0.09114111 -0.062108163 0.07725144 0.083044685
-0.10622868 -0.058394607 -0.11981797 -0.11295256 -0.04115492 0.04961977 -0.13155147 -0.12942038
0.012407732 -0.098688416 -0.12933151 -0.04275652 -0.07896776 -0.009996142 0.055978913 0.030463628
-0.14209794 0.07844042 0.0062992256 0.07387447 -0.074312165 -0.14755595 -0.108725555 -0.011991851
-0.09893961 -0.06459121 0.07189508 -0.0074793585 -0.023982616 -0.0006275517 0.07327765 -0.01815103
-0.01581651 0.09001311 0.071947545 0.10497384 0.36512128 0.06918287 0.115756206 -0.031290364
0.083004855 0.04775376 0.29738015 0.02640027 0.09001151 -0.0049740374 0.12218231 0.22172642
0.08692557 -0.04992061 -0.029112075 -0.022536922 0.008268413 -0.12356827 0.022834377 -0.08611751
0.25501603 0.054543395 -0.050602086 -0.08653712 0.0011207274 -0.013860919 0.063168444 -0.46513918
0.16717051 -0.12014012 -0.025971945 0.1221274 0.21646903 -0.04375233 0.039420534 0.028579412
0.11304615 0.20417714 0.06585202 0.13106127 0.20549664 0.06244525 0.19595154 0.17488731
0.3262376 0.19528791 0.23713565 -0.059731983 -0.06879854 -0.11605435 0.19282179 -0.060118962
0.32794335 0.12945864 0.048889063 -0.015951391 -0.060060248 0.0041163806 -0.04106372 -0.11090549
0.11471682 -0.08343386 0.07086012 0.08796887 0.044289373 0.057655524 -0.012669063 0.03367485
0.11430385 -0.07815202 0.000294307 -0.077113435 -0.06816128 0.0849021 -0.05501403 0.12040249
0.22370058 0.09885785 -0.01962333 0.13210066 0.06508201 0.11913657 0.06289221 0.11350193
0.10047719 0.069270864 -0.014877752 0.04735408 0.09085798 -0.01124879 0.07567379 0.116506554
0.0041931276 -0.11126392 -0.09022883 0.078242674 -0.052406866 -0.013007247 0.008294088 0.035155457
-0.0743592 -0.018640697 -0.051233668 0.06492062 -0.0320136 0.06169271 -0.050784174 -0.06145508
0.042966966 -0.15352097 0.10658858 0.18471119 0.04222048 0.09685383 -0.07852432 -0.009177757
0.10296139 0.12709084 0.020229008 -0.14224088 -0.014943981 0.120263085 -0.059629068 -0.018694932
-0.030628622 0.086734615 0.0029099619 -0.10574398 -0.13391332 0.020226542 -0.04518582 -0.041694347
0.0466361 0.16238146 -0.069735676 -0.025194855 0.01430766 -0.011325007 0.061233055 0.063244194
0.061960105 0.0949093 0.0971956 0.07931288 -0.02910528 0.11353408 0.11312798 -0.017543495
0.07655013 -0.019032236 0.078391545 0.16644278 -0.011078909 0.08563351 0.10253741 0.057092525
0.0006480076 0.14514273 0.02044998 0.06924956 -0.03841239 -0.033067916 0.06355358 -0.024765354
-0.082137845 -0.12534343 0.21300308 0.0008748285 0.0434773 0.08468987 0.015432166 -0.011589367
-0.0063110646 0.15050508 -0.051760554 0.17158303 0.0387858 -0.022849511 -0.25343907 0.12703717
-0.061778355 0.016762817 -0.024626598 0.07155047 0.12685375 0.048065774 0.1927319 -0.10707824

fc2.bias f4 [64]
00000000: 6ebc 723d d776 d23d 0bc7 213d 780c 473e
00000010: d5eb 983d 6e21 893e 928a 693d c168 1d3e
00000020: e70e 5cbd affc 9e3c eff9 ecbd 731c 0c3e
00000030: 8aaf b43d 5a17 073d 8167 063e f69b b1ba
00000040: 847b edbd 6e29 123a ba6a 29bd 3639 0a3b
00000050: 288d 3e3e cf50 95bc ddf2 de3d 84d8 cfbd
00000060: ec91 de3d f3dd b8bb 8e24 05bd 6cf8 a9bd
00000070: 719f 92bc 3123 cc3d 6497 2f3e ff57 71bd
00000080: 198b 11bd c29a 353d fbe0 383d 6377 9f3c
00000090: d8e7 69bc 3311 753d 24fb 9f3d 0751 99bd
000000a0: 8b49 dbbc bd75 f83d be1f c23c 3506 23bc
000000b0: 69fb df3d 1440 543d 5da1 253e 0c4f 2f3e
000000c0: 721e 193e eb48 7f3b 3627 bb3d 407b 4abd
000000d0: 323d 213e 5cc5 ce3c adef a7bd 406a 1f3e
000000e0: ece9 5e3d e8e7 a73d ad16 eb3d 71e8 adbd
000000f0: da4f edbd 70e5 fb3b e02e 343e 377d 213d
0.05926173 0.10276573 0.039496463 0.1943835 0.074668564 0.26783317 0.057016917 0.15371992
-0.05372515 0.019407598 -0.115711085 0.13682728 0.08822544 0.032981254 0.13125421 -0.0013550508
-0.11595824 0.00055756315 -0.041361548 0.002109123 0.18608534 -0.01822701 0.10886166 -0.10148719
0.10867676 -0.005641693 -0.032505564 -0.08299336 -0.017898293 0.0996765 0.17147595 -0.05892181
-0.035533044 0.04433704 0.045136433 0.019466108 -0.014276467 0.059830856 0.07811573 -0.07486158
-0.026768466 0.12131832 0.023696776 -0.00995021 0.109366246 0.051818922 0.16174836 0.17119998
0.1495302 0.0038953375 0.09138338 -0.049433947 0.15746 0.025240593 -0.082000114 0.15567875
0.054422304 0.081985295 0.114789344 -0.084916 -0.11587496 0.007687263 0.17596006 0.039426055

actor.weight f4 [4, 64]
00000000: 49b2 b4bd 1f58 2cbd de97 8f3d dc47 26be
00000010: 12d7 83bd 9b47 f0bd 4f92 ddbd 7b52 cebd
00000020: 3a3f 19be f0f3 c2bc bc5d 673c 0e4f b8bd
00000030: bf05 803d 3e2c 33be f877 c1bd 1716 743d
00000040: 8e3b d43d 8689 23be 2d81 ecbc 6993 b8bc
00000050: f265 26be f4e0 b8bc f690 f93c 68c4 8a3d
00000060: 949b 6bbe dd00 5cbe 7ed3 aeba b29a 833d
00000070: 27e0 4bbd b70f debd 6afa a33c d632 4dbd
00000080: 6ea4 edbd d235 a3bd b1ec 6bbe 907e 3f3d
00000090: 908a 3bbc 5302 ec3d c1c7 2e3c 67e9 553c
000000a0: 044a 523d a040 02be a1d8 4dbe 82a5 08be
000000b0: 8070 d5bd e8ed 543d b28c 24be aef0 253d
000000c0: 2eb1 f2bb 7a27 893c de74 d83b 7162 9e3d
000000d0: 386f 20be e91e d5bd 3c40 053d 555d 81bd
000000e0: 2de5 bbbd 8d89 5dbe 4b96 4ebd 9286 13be
000000f0: 80e1 43bc 58ed 97be 1a09 81bd 7d44 c3bd
00000100: 29eb 49bd 3b0f 553e 9bd8 dd3d 51d2 45bd
00000110: 4559 933d 562b 67be 4234 a33d 7c63 f5bc
00000120: f765 eebd 2a15 a3bc f9e9 32bd a14b 9cbe
00000130: 865c 4cbe a1a1 c6bb 4b05 0b3e 5743 e03d
00000140: 011c 2d3b 2783 adbd e442 c23d 811a 5cbe
00000150: 6e3d a5bc 3c31 d23c 8a36 77be beb1 80bd
00000160: b606 a3be b59f b8bd 7c67 a13d f1e7 833d
00000170: e636 6f3e 5242 9fbe 7d29 3fbe 2ee9 94bd
00000180: d813 b13e d858 983e 4636 3c3e c6ca 523d
00000190: 5f5f 8c3e 950d 343b d10f 273e 68f5 aa3d
000001a0: 8a9a fbbc 7917 4d3e 68a7 1dbe 5888 d93d
000001b0: efcd adbd 8e3c 7d3e f1be 153e 3b8c c0bd
000001c0: 5bcd a83c 6e97 583e 2970 163e 4857 6dbd
000001d0: c970 013e 2435 9a3e 87a6 ce3d 73c6 34be
000001e0: 4616 58bb 1ba8 aebb e16f 73be d517 cf3c
000001f0: a4ce af3d d2d1 37be ee2b acbc dd9f 6dbe
00000200: 981f cebb dd42 e8bc c9ff 88bd 63d4 463d
00000210: ab83 653e dcc5 77bb 0c39 643e 1dc5 8d3e
00000220: 3fd4 3c3d 3c0e debc 9ac0 ee3c 5eb3 a23e
00000230: 9c2b 18be b0b5 1f3d 5a70 d93d 7e00 e0bd
00000240: aa0d 8ebd 1871 2b3d 97f0 76bd d2bc b43e
00000250: 0e57 4b3e cd2a cdba 5833 6c3e 87c7 9dbd
00000260: e43f 8f3e aee2 9d3e 9e33 52bd 7f14 f3bd
00000270: 0a6e 57be dbec 053e 9c7a 85be c189 733e
00000280: 6d83 45be bbff 85be fc11 133e 6bfc 75bd
00000290: 49fd 81be 7fc9 09be c5ed 94be 361c 3fbd
000002a0: aea6 38bd dbdc bf3c 45c0 2a3e 2d2c 1c3e
000002b0: b1d8 6b3e 2135 8cbe 3f65 4e3e cc42 77be
000002c0: 91c9 273e c8be 90be 29d0 703e a6a4 49bd
000002d0: 9dd0 2c3e 5a00 d2be 7b48 b03d ff12 5f3e
000002e0: bcd4 b6bb c73f 643e fa61 4d3e c82d 54bd
000002f0: 107d 4fbc f780 9f3e 7f50 553e aaa8 c3bd
00000300: 76a1 23bb dbe6 a8be 8f6c a0bb 9551 3c3e
00000310: f618 b6be a134 313e d20d 78be fa68 88bd
00000320: 2197 5cbc be16 8bbd ce59 98bd 0422 f23d
00000330: 4687 643e e3f5 90be 5156 6dbe c0e9 093e
00000340: 9ad5 82bd db27 1a3e ce6c eb3d ab6d abbd
00000350: f939 18be 033d 7bbd 2496 0dbe a9a1 b73c
00000360: 4a36 2d3d 7889 183d e1d0 153c b7fc 723d
00000370: 15fc 003d 6d78 163e f4bc aa3e ef7d debc
00000380: 0870 9a3c d89f 39be a707 7dbe f253 b83d
00000390: ee74 0fbd f653 8d3e 89cb 3b3e ea1c 03bd
000003a0: 52ef fc3d 70ca 27be 5858 413e be5b 0fbe
000003b0: bd04 7dbe 429e 35be e811 f0bd f465 c23e
000003c0: 99b6 dcbd 28b4 1b3e 7dcb 86be 6791 623c
000003d0: 03eb f1bd 94ed f6bc 6e4e a23d aa26 f8bd
000003e0: 4a28 2ebe 381b 873d 370f 49be afe6 0abd
000003f0: 5658 eabd 6f61 7bbe e33c 21be 89aa 7d3e
-0.08823068 -0.042076226 0.07011388 -0.1623835 -0.06437506 -0.11732408 -0.10818922 -0.10074326
-0.14965525 -0.02379796 0.014121469 -0.089994535 0.06251096 -0.17497346 -0.0944671 0.05959138
0.10362922 -0.1597043 -0.02887019 -0.022531228 -0.16249827 -0.022568204 0.03046463 0.06775743
-0.23008567 -0.21484704 -0.0013338176 0.0642599 -0.049774315 -0.10842841 0.020016868 -0.05009731
-0.11603628 -0.0796925 -0.2303951 0.04675156 -0.01144661 0.11523881 0.010667742 0.013056136
0.051340118 -0.12719965 -0.20102169 -0.13344386 -0.10421848 0.051984698 -0.16069296 0.040512733
-0.0074063754 0.016742457 0.0066057285 0.0773362 -0.15667427 -0.10406286 0.03253196 -0.0631663
-0.09174571 -0.21634503 -0.0504363 -0.14406803 -0.011955619 -0.29673266 -0.06300564 -0.095345475
-0.04929653 0.20806591 0.1083233 -0.048296276 0.07194761 -0.22575125 0.07968952 -0.029954664
-0.11640542 -0.019907553 -0.043680165 -0.3052645 -0.1995717 -0.006061748 0.13576238 0.10950344
0.0026414397 -0.08472281 0.094854146 -0.21494485 -0.020170894 0.025658242 -0.24141899 -0.06283902
-0.31841058 -0.09014837 0.07881066 0.06440724 0.23360786 -0.31105286 -0.1866817 -0.07271038
0.34585452 0.29755282 0.18380079 0.05146291 0.27416512 0.0027473916 0.16314627 0.08347589
-0.030713338 0.20028485 -0.15395892 0.10621709 -0.08486544 0.24730131 0.1462362 -0.09401747
0.020605734 0.21151516 0.14691223 -0.057944566 0.1264068 0.30118668 0.10090356 -0.17653827
-0.003297226 -0.0053300983 -0.23773147 0.025279919 0.085843354 -0.17951134 -0.021017041 -0.23205514
-0.0062903874 -0.028352195 -0.06689412 0.04854239 0.22413509 -0.0037807142 0.22287387 0.27689448
0.04610085 -0.027106397 0.029144574 0.3177747 -0.14860386 0.03899163 0.106171325 -0.10937594
-0.069362 0.0418559 -0.060288038 0.35300308 0.19857427 -0.0015653014 0.23066461 -0.077040724
0.27978432 0.30837005 -0.051318757 -0.11869144 -0.2103807 0.13078634 -0.26070106 0.23783018
-0.19288416 -0.2617167 0.14362329 -0.060055178 -0.25388554 -0.13455771 -0.29087654 -0.046657763
-0.045080833 0.023420742 0.16674908 0.15251227 0.2303188 -0.27384284 0.2015581 -0.24146575
0.16385485 -0.28270555 0.23516907 -0.049229287 0.16876455 -0.41015893 0.086075746 0.2178459
-0.005579559 0.22289954 0.20056906 -0.051801473 -0.012664095 0.3115308 0.20831488 -0.095536545
-0.0024968064 -0.3298863 -0.0048957537 0.18390496 -0.3556592 0.17305233 -0.24224022 -0.06660648
-0.013463766 -0.06791447 -0.07439004 0.11822894 0.22317228 -0.28312597 -0.23177458 0.13468075
-0.063883975 0.15054266 0.11495362 -0.08370527 -0.14865865 -0.061337482 -0.13826805 0.022415953
0.042288102 0.037240475 0.009144039 0.05932304 0.031490404 0.14694376 0.33347285 -0.02715966
0.018852249 -0.18127382 -0.2470995 0.09000386 -0.035023622 0.2760312 0.18339361 -0.032009996
0.12350334 -0.16385818 0.18881357 -0.1399984 -0.24708839 -0.17736152 -0.11722165 0.3796841
-0.10777015 0.15205443 -0.26327124 0.013828612 -0.11812403 -0.030142583 0.079251155 -0.121167496
-0.17007557 0.065969884 -0.1963471 -0.033911403 -0.1144263 -0.24548887 -0.15745883 0.24772085

actor.bias f4 [4]
00000000: ca22 70bd 52d0 74bc 052c e3bb 0ce9 113e
-0.058626927 -0.014942246 -0.006932738 0.14249057

critic.weight f4 [1, 64]
00000000: a660 08bb 56eb 84be d87a 16bf f833 91be
00000010: b74e 2fbe cc44 86bf cecb 52bf 285d 79bf
00000020: 2124 7fbf a864 cc3d a07d dbbd 4a5d a93d
00000030: 9ef4 b93e acb9 5cbf 8d39 35bf 7dee 35be
00000040: 197e cb3e f987 02bf 1f9d 00be 7e66 90bf
00000050: 9720 91bf 7b59 8cbd 440f 63bf 824b d6bc
00000060: f4d7 e4be 902a 63bf cb51 fc3d fe12 a7bd
00000070: 6e33 4cbf e068 7dbf 058d 61be 89aa 1cbf
00000080: c875 e43e c8e2 febe 6c5d 333e 723e 4f3d
00000090: 0716 66be 575c db3d 12d0 2fbf f95d 2fbd
000000a0: 66d6 f3be 57a5 2cbf ff12 e0be 53b3 15bf
000000b0: 18b6 7dbe c0f6 0ebe 7c75 6fbf 3055 d63e
000000c0: 9bf8 4abf 0522 15bf 748d 57bf 8187 15bf
000000d0: 884c fabe 0992 233f 32de 9bbd d6d0 77bf
000000e0: 6290 5dbf bf15 82bf 23de 3dbf 3609 b2bd
000000f0: 844a 62bd 17b3 453e 3fdd 3fbf 26f4 e0be
-0.002080956 -0.25960797 -0.58781195 -0.28359962 -0.17119871 -1.0489745 -0.8234223 -0.9740777
-0.99664503 0.09980136 -0.107173204 0.082697466 0.3631944 -0.8622081 -0.7079094 -0.17766757
0.39744642 -0.5098873 -0.12559937 -1.1281278 -1.1338071 -0.068530045 -0.8869517 -0.026159052
-0.4469601 -0.8873682 0.12320288 -0.08157919 -0.79765975 -0.9898815 -0.22026451 -0.61197716
0.4462111 -0.49782395 0.17516106 0.050596662 -0.2246934 0.10710972 -0.68676865 -0.04281423
-0.4762451 -0.6743979 -0.43764493 -0.5847675 -0.24776495 -0.13961315 -0.9353864 0.41861868
-0.7928559 -0.58255035 -0.84200215 -0.5840989 -0.48886514 0.63894707 -0.0761074 -0.96803033
-0.86548436 -1.0162886 -0.7416708 -0.08693163 -0.055246845 0.19306599 -0.7494697 -0.4393627
